results/run4/AvoidAgent.onnx (onnx, 324058 bytes, 12 tensors)

network_body.observation_encoder.processors.0.normalizer.running_mean f4 [36]
0	0x3d3855e1	0.045003776
1	0x3d5233b7	0.05131885
2	0x3f5b4826	0.85656965
3	0x3f6634d8	0.89924383
4	0x3d2c29a2	0.04203189
5	0x3d526fac	0.05137603
6	0x3f5a959e	0.8538455
7	0x3f6573f6	0.8963007
8	0x3d37c55f	0.044865962
9	0x3d511418	0.051044554
10	0x3f58218e	0.844262
11	0x3f636071	0.8881903
12	0x3d37b779	0.044852708
13	0x3d4d9a9b	0.05019627
14	0x3f59c0fe	0.8506011
15	0x3f65b495	0.8972867
16	0x3d42a524	0.04752077
17	0x3d4cc33c	0.049990878
18	0x3f57539c	0.8411195
19	0x3f638a20	0.8888264
20	0x3d3b4808	0.04572299
21	0x3d2ebac0	0.042658567
22	0x3f5b53f7	0.85674995
23	0x3f680631	0.9063445
24	0x3d483199	0.048875425
25	0x3d2b0239	0.041750167
26	0x3f5916bc	0.84800315
27	0x3f65f133	0.89821166
28	0x3d2f40b2	0.042786308
29	0x3bf47176	0.0074598147
30	0x3f654b5a	0.895681
31	0x3f6b2228	0.91848993
32	0x3d367124	0.044541493
33	0x3bf94096	0.007606576
34	0x3f6333f2	0.8875114
35	0x3f693da3	0.91109675

network_body.observation_encoder.processors.1.normalizer.running_mean f4 [13]
0	0xbddd8303	-0.10816004
1	0xc7283216	-43058.086
2	0x3d8cf2de	0.06882261
3	0xc42dbea2	-694.97864
4	0x43da50b3	436.63046
5	0x3f7ffe8b	0.99997777
6	0x3f7ffe8b	0.99997777
7	0x3f7ffe8b	0.99997777
8	0x3f7ffe8b	0.99997777
9	0x3f7ffe8b	0.99997777
10	0x3f7ffe8b	0.99997777
11	0x3f7ffe8b	0.99997777
12	0x3f7ffe8b	0.99997777

network_body._body_endoder.seq_layers.0.weight f4 [256, 49]
0	0x3d75faac	0.060053512
1	0x3e25e92f	0.16202234
2	0xbdc95450	-0.098305345
3	0x3e2b97f2	0.16757181
4	0xbb5381ea	-0.003227348
5	0x3c1df07f	0.009639858
6	0x3e05b77b	0.13058273
7	0xbe454b36	-0.19266972
8	0x3deff5d9	0.117168136
9	0x3e8d0e76	0.27550095
10	0xbdc419cb	-0.09575232
11	0xbe4b9bbb	-0.19883625
12	0xbdb83aed	-0.08995614
13	0xbcba3176	-0.022728663
14	0x3dc99c4a	0.09844263
15	0xbe9bcaba	-0.30428106
16	0xbd9319da	-0.07182665
17	0xbe553199	-0.20819701
18	0x3dab1178	0.08352941
19	0x3e002163	0.12512736
20	0x3e8ad0da	0.27112466
21	0xbd053868	-0.032524496
22	0xbcc280ca	-0.023743052
23	0x3de77f1d	0.11303542
24	0xbe2584e8	-0.16163981
25	0xbd455121	-0.048173074
26	0x3defc9f2	0.1170844
27	0x3e2c01e1	0.16797592
28	0x3b437065	0.002982163
29	0x3d560348	0.052249223
30	0xbd50eeea	-0.051009096
31	0x3e6de2ad	0.23231001
32	0xbd247300	-0.040148735
33	0x3d1ebc85	0.038754005
34	0xbe31ce8d	-0.17363949
35	0x3d3673cd	0.04454403
36	0x3d9ff9f6	0.07811348
37	0xbd8ad8c9	-0.0677963
38	0x3ea0a3e3	0.31375036
39	0xbe8cd135	-0.27503362
40	0x3e093920	0.13400698
41	0xbe5930c9	-0.21210016
42	0xbceca201	-0.028885843
43	0xbca35f1b	-0.01994281
44	0x3de6e9d8	0.11275071
45	0xbe5c60c9	-0.21521296
46	0xbcadab7d	-0.021199936
47	0xbe39c055	-0.18139775
48	0xbe0e24ab	-0.13881175
49	0xbe162c82	-0.14665416
50	0x3cf7bc02	0.030241016
51	0xbe1d60e1	-0.15368988
52	0x3ddfdf04	0.10931209
53	0x3dd3e012	0.103454724
54	0xbe716077	-0.23571955
55	0x3caeb154	0.021324791
56	0xbc346838	-0.011011176
57	0xbe40e65b	-0.18837874
58	0x3d1971f4	0.03746219
59	0x3e4c90ac	0.19977063
60	0x3dc27130	0.09494245
61	0xbe1b91c8	-0.1519233
62	0x3e60a9d7	0.21939789
63	0xbda8fb2b	-0.082510315
64	0xbd0197b0	-0.0316388
65	0x3de42d24	0.111414224
66	0x3dc4d306	0.09610562
67	0x3d4c43a1	0.049869183
68	0x3e393740	0.18087482
69	0x3e50449c	0.20338672
70	0xbe385a49	-0.18003191
71	0x3e4c144f	0.19929622
72	0x3e38ae84	0.18035322
73	0x3ea30df5	0.31846586
74	0x3e302493	0.17201452
75	0x3dc3f2f7	0.09567826
76	0x3dc01c20	0.093803644
77	0xbd8a6fa4	-0.06759575
78	0xbe27b694	-0.16378242
79	0xbd5521a2	-0.052034028
80	0xbe26fb99	-0.16306914
81	0xbeaac3ca	-0.333525
82	0x3d9d4acd	0.07680283
83	0xbd5b2288	-0.05349973
84	0xbd84077d	-0.06446741
85	0x3e43a629	0.19106354
86	0xbb73f06c	-0.003722216
87	0xbe3e4b21	-0.18583347
88	0xbd200727	-0.03906932
89	0x3e732ba6	0.2374712
90	0x3e0ebf5b	0.13940184
91	0x3cd74454	0.026277699
92	0x3d9f1f63	0.077696584
93	0x3cc123a2	0.023576561
94	0xbecae9b1	-0.39631417
95	0x3de89ab9	0.11357636
96	0x3dfc2524	0.123117715
97	0x3e337f21	0.17528965
98	0xbe0c8fb4	-0.13726693
99	0x3dd8fde0	0.10595298
100	0x3e0986bb	0.13430302
101	0xbd0f2057	-0.03494295
102	0xbd842967	-0.06453209
103	0xbdc69c3e	-0.096977696
104	0x3e480a20	0.19535112
105	0x3c3e72e4	0.011624072
106	0xbde28941	-0.11061335
107	0xbdba012e	-0.09082256
108	0xbdb74025	-0.089477815
109	0x3e8f4a84	0.27986538
110	0x3d7b16f2	0.06130118
111	0x3e85ee14	0.26158202
112	0xbe920678	-0.2852056
113	0x3e66a397	0.22523342
114	0xbf1042a8	-0.5635171
115	0x3e3a6fc1	0.18206693
116	0xbccf0c4f	-0.025274424
117	0xbd176341	-0.03695989
118	0x3de0b0e1	0.10971237
119	0x3dcbf587	0.0995894
120	0xbe5990de	-0.21246669
121	0xbd13285d	-0.035927165
122	0x3d888bd5	0.06667296
123	0xbc592881	-0.013254286
124	0x3c825a1c	0.015912108
125	0xbddb5332	-0.107092276
126	0xbdba0862	-0.0908363
127	0x3e445c03	0.19175725
128	0x3e35bdbd	0.1774816
129	0xbe64b038	-0.22332847
130	0x3e6659ec	0.2249524
131	0x3d9ee385	0.0775824
132	0xbe72ce1a	-0.23711434
133	0x3e0d72f1	0.13813378
134	0x3c9b9d4c	0.018995903
135	0x3e51e9af	0.204993
136	0xbe0c8729	-0.13723435
137	0xbe4f950c	-0.202717
138	0x3d88714d	0.066622354
139	0xbd9cb178	-0.07651037
140	0x3b226185	0.0024777364
141	0xbe015ac1	-0.12632276
142	0x3e3f8877	0.18704401
143	0xbc4541ba	-0.012039596
144	0xbdb175be	-0.08665036
145	0x3dee5ebc	0.11639163
146	0x3c918671	0.017764302
147	0x3c0df99e	0.00866547
148	0xbde62708	-0.11237913
149	0xbd8b01ad	-0.06787429
150	0xbbdc5a63	-0.006724642
151	0xbe2803da	-0.16407719
152	0x3e9ae881	0.3025551
153	0xbd97ee6f	-0.074185245
154	0xbe059143	-0.13043694
155	0xbe03f143	-0.12885003
156	0x3da8a241	0.082340725
157	0x3d0cf40d	0.034412432
158	0x3c7cacd2	0.015422063
159	0x3ea1f348	0.3163092
160	0x3b1b6fc6	0.0023717745
161	0xbe80c78f	-0.2515225
162	0x3e8b5228	0.27211118
163	0x3e3f01ed	0.18653078
164	0xbe152ec5	-0.14568622
165	0xbdc8caab	-0.09804281
166	0x3e31b08c	0.17352504
167	0xbe34c833	-0.17654495
168	0xbd8d8ef6	-0.06912033
169	0x3e8324d0	0.25614023
170	0x3e70c88b	0.23514001
171	0xbd568fed	-0.052383352
172	0xbdb14db2	-0.08657397
173	0xbe6d8e31	-0.23198773
174	0x3d842fe6	0.064544484
175	0xbd7e47ed	-0.062080313
176	0xbe9ea679	-0.30986384
177	0x3d8fe26b	0.07025608
178	0x3ea275fa	0.31730634
179	0xbd79616c	-0.060883924
180	0x3e3f7d25	0.18700083
181	0x3e08a443	0.13343911
182	0x3e1d88f3	0.15384273
183	0xbe069b1f	-0.13145112
184	0xbdb4a8c6	-0.088212535
185	0x3ddab364	0.10678747
186	0x3dd16cc1	0.10225821
187	0x3e3cfbd4	0.1845544
188	0xbe29ad09	-0.16569914
189	0xbc8d5671	-0.017253133
190	0x3cc64bfd	0.024206156
191	0xbb889772	-0.0041684443
192	0x3cd3b483	0.02584291
193	0x3e237f09	0.15966429
194	0xbe21ff6d	-0.15820093
195	0x3d99b524	0.07505253
196	0xbd23e1b5	-0.040010173
197	0xbc236f95	-0.009975334
198	0x3e067e12	0.1313403
199	0x3e8d0e4b	0.27549967
200	0x3e593fc0	0.21215725
201	0x3e888110	0.26660967
202	0x3d3d80c0	0.046265364
203	0xbd0a1893	-0.033714842
204	0xbecb0601	-0.39653018
205	0xbe4f0077	-0.20215021
206	0x3db715b5	0.08939687
207	0xbc8d3e7c	-0.017241709
208	0x3e2157e4	0.15756184
209	0x3c0706c7	0.008241362
210	0x3df81a61	0.121144064
211	0x3adbc57d	0.001676723
212	0x3e45084e	0.19241449
213	0x3d3df854	0.046379402
214	0x3d492040	0.04910302
215	0x3daffbda	0.08592959
216	0xbc83e713	-0.016101396
217	0xbdcef051	-0.101044305
218	0xbd1ad3b2	-0.037799545
219	0xbe6514ee	-0.22371265
220	0xbd661433	-0.056171607
221	0x3e1be015	0.152222
222	0xbe014c89	-0.12626852
223	0x3e3de3db	0.18543951
224	0xbe16d7d7	-0.14730774
225	0xbd16dfed	-0.036834646
226	0xbd20bd3e	-0.039242975
227	0x3e3e0fde	0.1856074
228	0xbe05399a	-0.13010255
229	0xbe26efac	-0.16302365
230	0xbebde7ca	-0.37090904
231	0x3d9fa213	0.07794585
232	0xbe53df33	-0.20690612
233	0xbd856678	-0.06513685
234	0xbddf9607	-0.10917287
235	0x3dbdafb5	0.09262029
236	0xbe367ebb	-0.17821781
237	0xbd94ac6c	-0.07259449
238	0x3e9c2b8f	0.30501983
239	0xbd7cab03	-0.061686527
240	0xbd5f4ba2	-0.05451549
241	0xbd3788fc	-0.044808373
242	0xbe64a5a4	-0.22328812
243	0x3d988746	0.07447676
244	0xbdd78982	-0.105242744
245	0xbe667ded	-0.22508974
246	0x3cd59075	0.026069859
247	0xbe8103e5	-0.25198284
248	0x3e42edf4	0.19036084
249	0x3990ed44	0.00027642597
250	0xbdbb0132	-0.09131087
251	0xbda8ff11	-0.08251775
252	0x3df30dd5	0.118678726
253	0x3c896a53	0.016774332
254	0xbe346b21	-0.17618991
255	0x3bb97033	0.005659127

network_body._body_endoder.seq_layers.0.bias f4 [256]
0	0xbd2c7a35	-0.042108733
1	0x3bc38e2d	0.0059678764
2	0x3d0e4016	0.034729086
3	0xbc6041c0	-0.013687551
4	0xbcc7b46f	-0.02437803
5	0xbc9ba56d	-0.01899978
6	0xbc2341fd	-0.009964463
7	0x3bf60015	0.007507334
8	0xbcdfc2ce	-0.02731457
9	0xba7e7c4b	-0.0009707852
10	0x3b972e7b	0.004613695
11	0x3cbbc1a7	0.02291949
12	0xbb84dfc3	-0.004054995
13	0xbcaf8ff9	-0.021430956
14	0xbcc32a9a	-0.023824025
15	0xbcab4205	-0.020905504
16	0xbbc90fc7	-0.006135914
17	0xbcbcfe98	-0.023070619
18	0xbc2b73c9	-0.010464617
19	0xbd54018d	-0.05175929
20	0xbb9ec764	-0.0048455466
21	0x3c2b0594	0.010438342
22	0xba927b0d	-0.0011175588
23	0xbbee67ed	-0.0072755725
24	0x3c817eef	0.015807597
25	0xbd380a5a	-0.044931747
26	0xbca79d92	-0.020460878
27	0xbc6d8483	-0.014496925
28	0xbca03586	-0.019556772
29	0x3a96f1f2	0.0011516197
30	0xbb8230b1	-0.0039730896
31	0xb9b398d0	-0.00034255395
32	0xbceaa177	-0.028641446
33	0x3c445356	0.011982759
34	0xbb07ec34	-0.0020740153
35	0xbcd051e8	-0.025429681
36	0xbd18b3eb	-0.03728096
37	0xba2f091b	-0.0006677077
38	0x3c8ab486	0.016931783
39	0xbbef90bb	-0.0073109544
40	0xbcc34996	-0.0238388
41	0xbc4a3d54	-0.012343723
42	0xbb1f975c	-0.0024351692
43	0xbc942773	-0.018085217
44	0xbcea4f66	-0.028602313
45	0xbca68a39	-0.020329582
46	0xbcb59b62	-0.022168819
47	0x3bf03455	0.007330457
48	0xbc601e94	-0.013679165
49	0xbce0f707	-0.027461542
50	0xbcc06822	-0.023487154
51	0xbce7656e	-0.028246608
52	0xbc525b8b	-0.012839208
53	0xb807b043	-3.2350665e-05
54	0xbc7731e2	-0.015087577
55	0xbd18457a	-0.037175633
56	0xbc896369	-0.016771035
57	0x3af8caf8	0.0018981388
58	0xbc5eacc5	-0.013590996
59	0xbc56e86d	-0.013116938
60	0xbbb1201c	-0.005405439
61	0x3c75423f	0.014969408
62	0xbc29768a	-0.010343203
63	0xbca6fa1c	-0.020382933
64	0xbc247158	-0.010036789
65	0xbc07383a	-0.008253152
66	0xbc85fd72	-0.016356204
67	0xbc65de3e	-0.014030037
68	0xbcee86a4	-0.029116936
69	0xbcfa0dff	-0.030524252
70	0x3c633d9c	0.013869669
71	0xbcc7c8ce	-0.024387743
72	0xbbae4602	-0.005318404
73	0x3ca1d1f0	0.019753426
74	0xbca6b949	-0.020352023
75	0xbc71c83e	-0.014757214
76	0xbca2a778	-0.019855246
77	0x3c4d34f5	0.012524833
78	0xbd54e317	-0.051974382
79	0x3c06f7e9	0.008237817
80	0x3c5b1eca	0.01337404
81	0xbc9a94a3	-0.018869704
82	0xbce13997	-0.027493281
83	0xbbc919d4	-0.006137112
84	0xbc5722cd	-0.013130856
85	0xbb7c3c54	-0.0038488107
86	0xbcc04ac2	-0.023473147
87	0xbcce115f	-0.025154768
88	0xbcec2581	-0.028826477
89	0xbc09712c	-0.008388799
90	0x3bc6a74e	0.0060624247
91	0x3c22533a	0.009907538
92	0xbd2ee08a	-0.042694606
93	0xbbaca677	-0.0052688676
94	0xbbde436b	-0.006782939
95	0xbcba7087	-0.022758735
96	0xbbcb6fe0	-0.006208405
97	0xbada8900	-0.0016672909
98	0xbb899bc2	-0.004199476
99	0xbc1478f1	-0.009062038
100	0x3b9663a8	0.0045895167
101	0x3b284613	0.0025676533
102	0x3c21c255	0.0098729925
103	0xbcb5c40c	-0.022188209
104	0xbc3d5317	-0.011555455
105	0xbb50d252	-0.0031863642
106	0xbd30d512	-0.04317195
107	0xbcd6e35e	-0.026231464
108	0x3c6afd9d	0.014342693
109	0xba1ba2c9	-0.00059370376
110	0xbd25ffcb	-0.040527146
111	0x3c6f53aa	0.014607349
112	0xbcef59ae	-0.029217567
113	0xbcac5ac9	-0.021039383
114	0xbcbc926d	-0.02301904
115	0xbcb30566	-0.02185316
116	0xbc9962fb	-0.018723955
117	0xbcb987f4	-0.022647835
118	0x3a4d5c38	0.0007833871
119	0xbb926eee	-0.0044687903
120	0xbcbc57c4	-0.022991069
121	0xbc5db60a	-0.013532171
122	0xbd6a2809	-0.057167087
123	0xbd358154	-0.04431279
124	0xbceb55fb	-0.028727522
125	0xbcd4da0c	-0.02598288
126	0xbd06b432	-0.03288669
127	0xbcd47fba	-0.025939811
128	0xbbd09088	-0.0063648857
129	0xbb3f4ec0	-0.0029191226
130	0xbcc103ae	-0.023561325
131	0xbd3d4030	-0.046203792
132	0x3c915224	0.017739363
133	0xbcc6a3ff	-0.024248121
134	0xbcdcce83	-0.026953941
135	0xbd2ef6e7	-0.042715933
136	0xbb9b5356	-0.004740159
137	0xbc3b0498	-0.011414669
138	0xbcc89c50	-0.024488598
139	0xbc81731e	-0.015801962
140	0x3cec4483	0.028841263
141	0xbd1bf933	-0.03807945
142	0xbcdb0797	-0.026737018
143	0xbc396e73	-0.011317837
144	0xbca89dea	-0.020583112
145	0x3b710727	0.0036777945
146	0xbc9ae6d1	-0.01890889
147	0xbcf9ea8e	-0.030507352
148	0xbc050ab2	-0.008120226
149	0xbbcd07c9	-0.0062570316
150	0xba7761c4	-0.00094368705
151	0xbd7a515d	-0.06111275
152	0x3bb70e24	0.0055864025
153	0xbcb1aeca	-0.021689791
154	0xbcb68862	-0.02228183
155	0xbcd647b2	-0.026157234
156	0x3c4dbcee	0.012557251
157	0xba25d1e6	-0.0006325528
158	0xbc255336	-0.01009064
159	0xbbdf40d7	-0.0068131494
160	0xbcabe106	-0.020981323
161	0xbc1ab4fb	-0.009442563
162	0x3ac856b1	0.0015284625
163	0xbce104f7	-0.027468188
164	0xbc2772d3	-0.010220247
165	0xbcae38e3	-0.02126736
166	0xbd0388a7	-0.032112744
167	0xbcb726fb	-0.022357455
168	0xbd137927	-0.03600421
169	0x3c36e583	0.011163118
170	0xbc3a5868	-0.011373617
171	0xbd14edd8	-0.036359638
172	0xbcd2475e	-0.025668796
173	0x3b96ae40	0.004598409
174	0x3c21d102	0.0098764915
175	0xbb03cc36	-0.0020110733
176	0xbc1b4ef2	-0.009479271
177	0xbc918d18	-0.017767474
178	0x3b3c828a	0.002876433
179	0xbc9ddf4a	-0.019271512
180	0x3a860955	0.001022617
181	0xbc5300b0	-0.012878582
182	0xbbc7be67	-0.006095696
183	0xbcd5bb4c	-0.026090287
184	0xbc7a8b48	-0.015291996
185	0xbd0c7369	-0.03428975
186	0x3b9d4123	0.0047990247
187	0xbd02f026	-0.031967305
188	0x3c2d146f	0.010563954
189	0x3c33b4ce	0.0109684
190	0xbcc7cf80	-0.024390936
191	0xbd224f48	-0.03962639
192	0x3ad0deb9	0.0015935517
193	0x3c8d2fd2	0.017234717
194	0xbcd0963b	-0.02546226
195	0x3c022e76	0.007945647
196	0xbd011d23	-0.031521928
197	0xbcf0f452	-0.029413376
198	0xbd200630	-0.0390684
199	0xbbc89a03	-0.0061218753
200	0xbcee2665	-0.029071042
201	0xbd45c9f9	-0.04828832
202	0xbc85ad3c	-0.016317956
203	0x3c9be2bd	0.019029016
204	0x3b6667e1	0.0035157131
205	0xbc7f5b47	-0.015585727
206	0xbd22f819	-0.039787386
207	0xbd0590a3	-0.03260864
208	0xbcf42d69	-0.02980681
209	0xbcc4f3a1	-0.024041953
210	0xbc6921e1	-0.014229269
211	0xbd0a1224	-0.033708706
212	0x3ca85136	0.020546537
213	0xbbe2b9d0	-0.006919123
214	0xbd22ab95	-0.039714415
215	0xba32f286	-0.00068263
216	0xbc6700a9	-0.0140992785
217	0xbb8b39bf	-0.004248827
218	0x3bb249b8	0.005440917
219	0xbd135bd0	-0.03597623
220	0xbd20bd67	-0.03924313
221	0xbd489e96	-0.048979364
222	0xbc5fdfab	-0.013664166
223	0x3aad9bf5	0.0013245331
224	0xbcd90060	-0.026489437
225	0xba204223	-0.0006113371
226	0xbc9663bb	-0.018358102
227	0xbcf33b21	-0.02969128
228	0xbcd671e7	-0.02617736
229	0xbcb53a31	-0.022122474
230	0x3c5e7bfc	0.013579365
231	0xbc52ca2c	-0.012865584
232	0x3bc35546	0.005961093
233	0xbc8b01a2	-0.016968552
234	0xbce792a8	-0.028268173
235	0xbced5ccf	-0.028974919
236	0x3c93405f	0.01797503
237	0xbcf4081a	-0.02978902
238	0xbb035f95	-0.0020045985
239	0xbd18731c	-0.03721915
240	0xba1ebcc8	-0.0006055352
241	0x3c2ae52d	0.010430616
242	0xbcf30bf3	-0.029668784
243	0xbceeda45	-0.029156813
244	0xbd33296d	-0.04374068
245	0xbcc0378e	-0.02346399
246	0xbcdfd761	-0.02732438
247	0xbba2a4ce	-0.004963494
248	0xbc891a17	-0.016736073
249	0xbc3a2b42	-0.0113628525
250	0xbc7e835d	-0.015534249
251	0x3c824ceb	0.015905818
252	0x3ca18748	0.019717827
253	0xbca8e46c	-0.020616733
254	0xbbf89569	-0.0075861705
255	0xbc612780	-0.013742328

network_body._body_endoder.seq_layers.2.weight f4 [256, 256]
0	0x3d1abb8f	0.037776526
1	0xbc04355c	-0.0080693625
2	0x3db635b2	0.0889696
3	0x3d1e6870	0.038673818
4	0x3d72ff48	0.059325486
5	0xbd96a560	-0.073557615
6	0xbc5c8510	-0.013459459
7	0xbcbbc4ad	-0.02292093
8	0xbd55c60e	-0.052190833
9	0xbd88b32c	-0.06674799
10	0x3d86913a	0.065706685
11	0xbd1c9293	-0.03822572
12	0x3d63d274	0.055620626
13	0xbda22617	-0.07917421
14	0xbc2f728a	-0.010708461
15	0x3c760975	0.015016903
16	0xbd25441e	-0.040348165
17	0xbd64dea1	-0.055876378
18	0xbcdebb48	-0.027188912
19	0xbcd927de	-0.026508268
20	0xbdb94e2c	-0.09048113
21	0xbd5886db	-0.052862983
22	0xbc90057e	-0.017580744
23	0x3c706ba7	0.014674104
24	0x399b4c5a	0.0002962079
25	0xbb933786	-0.004492703
26	0xbc33d307	-0.010975606
27	0xbbcc5feb	-0.0062370203
28	0x3e108151	0.1411183
29	0xbd4fcc06	-0.05073168
30	0xbbfd55d4	-0.007731179
31	0xbc28dfcb	-0.010307263
32	0xbcd9c9bb	-0.02658545
33	0xbd8b7549	-0.0680948
34	0x3cc9dd0b	0.024641534
35	0x384cab0d	4.8796694e-05
36	0x3b8723b3	0.0041241287
37	0x3c571acd	0.013128948
38	0xbce51176	-0.027962428
39	0xbdb96702	-0.0905285
40	0xbd119e19	-0.035551164
41	0x3d76aa72	0.060221143
42	0xbdb9d617	-0.090740375
43	0xbe052591	-0.13002612
44	0xbbec01ef	-0.007202379
45	0xbd8e2949	-0.06941468
46	0x3dd6a62d	0.10480914
47	0x3d291b62	0.04128588
48	0x3c8832a6	0.016625714
49	0xba870089	-0.0010299842
50	0xbd19630a	-0.037447967
51	0x3d6a36b9	0.057181094
52	0xbde3606d	-0.11102376
53	0xbdadf3fa	-0.084938005
54	0x3da966db	0.08271571
55	0x37d7a458	2.5706526e-05
56	0x3dc67daa	0.09691937
57	0x3dd0e522	0.101999536
58	0xbde5a283	-0.11212637
59	0xbdcf6560	-0.101267576
60	0x3d8f37df	0.069930784
61	0x3bdd35c8	0.006750796
62	0xbd05ff40	-0.03271413
63	0x3c9ab8a5	0.018886873
64	0x3b53fbdd	0.0032346167
65	0x3c99e8c7	0.018787755
66	0x3ca58bc2	0.020208243
67	0x3cbb1cab	0.022840818
68	0xbd9f8e7c	-0.077908486
69	0xbdbce371	-0.092230685
70	0xbd33c2c7	-0.043886926
71	0xba1e5b6d	-0.0006040845
72	0xbd5073e1	-0.05089176
73	0xbd899603	-0.067180656
74	0xbc5001dc	-0.012695756
75	0xbcc0cf99	-0.02353649
76	0xbcf0a2d6	-0.029374521
77	0xbc4bb253	-0.0124326525
78	0x3d9a526a	0.075352505
79	0xbc1aee1d	-0.009456185
80	0x3e609fcb	0.21935956
81	0x3d49afb3	0.049239825
82	0x3d00de0f	0.03146177
83	0xbd204078	-0.039123982
84	0xbd8de2bf	-0.06928014
85	0x3cf4f2b1	0.02990088
86	0x3dabe789	0.08393771
87	0x3db21f1c	0.0869734
88	0xbd8845b0	-0.06653917
89	0xbe16e874	-0.14737111
90	0xbcdc7283	-0.026910072
91	0xbd3941f5	-0.045228917
92	0x3dec475a	0.11537047
93	0x3dad50e7	0.084626965
94	0x3d403f83	0.04693557
95	0xbdadf13d	-0.08493278
96	0xbe211d6a	-0.15733877
97	0xbd1dad72	-0.03849549
98	0x3cd2f113	0.025749719
99	0xbd652119	-0.055939768
100	0xbc73e788	-0.014886744
101	0x3b94e2f1	0.004543655
102	0xbd991441	-0.07474566
103	0xbdda16f0	-0.10648906
104	0x3cd3fbff	0.025876997
105	0xbbed293e	-0.0072375825
106	0x3d6d5b97	0.057948675
107	0xbd6afc48	-0.0573695
108	0x3c4d55c2	0.012532653
109	0xbd931443	-0.07181599
110	0xbdbfd0eb	-0.0936602
111	0x3d72d38a	0.05928377
112	0xbcebb9ff	-0.028775213
113	0x3d210be3	0.039317977
114	0xbd564ffd	-0.052322377
115	0xbc8ed8bb	-0.01743733
116	0x3cd2ae3f	0.025717853
117	0x3db4f9ac	0.08836684
118	0xbdd5ed2f	-0.1044563
119	0x3d258367	0.04040852
120	0x3d549792	0.05190236
121	0x3cb5aee1	0.022178115
122	0x3d429852	0.047508545
123	0xbd9a2c76	-0.075280115
124	0xbd7584dc	-0.059941158
125	0xbd8762a1	-0.06610609
126	0x39e81568	0.00044266437
127	0xbd0bf9bf	-0.034173723
128	0xbc8facd0	-0.017538458
129	0xbd37b26f	-0.044847902
130	0xbd3d6dd1	-0.046247307
131	0xbdc7e7a3	-0.09760978
132	0x3d8f7f11	0.07006658
133	0xbd2e9576	-0.042623006
134	0xbd83305a	-0.06405707
135	0x3d5e03d8	0.054202884
136	0x3c3585fc	0.011079308
137	0x3cb6fa8c	0.022336267
138	0xbc81af9a	-0.015830804
139	0xbd8edfb0	-0.06976259
140	0x3e1297fa	0.14315787
141	0x3c90683b	0.017627826
142	0xbde92136	-0.113832876
143	0xbe2c1e93	-0.16808538
144	0xbd842852	-0.06453003
145	0x3d9bc72e	0.0760635
146	0xbc3d4674	-0.011552442
147	0x3dac4965	0.084124364
148	0x3cc134ac	0.023584686
149	0x3c6668a1	0.014063031
150	0x3d7f817e	0.062379353
151	0x3d54ae8d	0.051924277
152	0x3c051381	0.008122326
153	0xbe094f8f	-0.13409255
154	0xbd9746a7	-0.07386523
155	0xba317251	-0.00067690486
156	0x3dd46ca0	0.10372281
157	0x3c8e4b2b	0.017369827
158	0x3d8d6127	0.06903296
159	0xbd81ae2d	-0.063320495
160	0x3d930f00	0.071805954
161	0xbc876a02	-0.01653004
162	0xbe0045c5	-0.12526615
163	0x3d956f5d	0.072966315
164	0xbd73a28e	-0.059481196
165	0x3c6b7f4e	0.0143736135
166	0x3c97a1fd	0.01850986
167	0x3d799405	0.060932178
168	0x3cfbb3a2	0.030725304
169	0x3c846bc8	0.016164675
170	0x3dae17cf	0.08500635
171	0x3d42ca90	0.04755646
172	0x3c06e726	0.008233821
173	0x3d45f7c5	0.048331995
174	0x3d7e81b1	0.062135402
175	0x3c299138	0.010349564
176	0xbbd8f9b7	-0.006621565
177	0xbda97e54	-0.08276048
178	0x3d4a602b	0.04940812
179	0xbc3ceef5	-0.011531581
180	0xbdaf02d0	-0.08545458
181	0xbd2cc68b	-0.042181533
182	0x3e09e8a2	0.13467649
183	0xbd3cec75	-0.04612394
184	0x3aeb2a3d	0.0017941665
185	0xbbc4b7e8	-0.0060033686
186	0x3d10f646	0.035391115
187	0x3d213963	0.03936137
188	0xbd81b945	-0.063341655
189	0xbd211c37	-0.03933355
190	0x3b7a1725	0.0038160768
191	0x3ce8c803	0.028415686
192	0x3d8a6b1d	0.067587115
193	0x3d482ff3	0.048873853
194	0x3d509c71	0.050930444
195	0x3d199e0b	0.037504237
196	0x3b4d40dc	0.0031319177
197	0xbbe715c2	-0.0070521543
198	0xbca08182	-0.019593004
199	0xbd0505d3	-0.032476258
200	0x3d254809	0.0403519
201	0xbd26e802	-0.040748604
202	0x3c59aa7a	0.013285274
203	0x3cd83d4e	0.02639642
204	0x3c0c5fba	0.008567745
205	0xbdfd302d	-0.123627044
206	0xbd25a720	-0.040442586
207	0x3d6b502f	0.057449516
208	0xbd2e2abf	-0.042521235
209	0xbd980109	-0.074220724
210	0xbca50847	-0.020145549
211	0xbce0d946	-0.027447354
212	0x3d7b8c70	0.06141323
213	0xbd857247	-0.06515937
214	0x3d9f4642	0.077770725
215	0x3c10ba5d	0.008833495
216	0x3d631b70	0.05544609
217	0x3d71e911	0.05906016
218	0xbd8cb50b	-0.06870469
219	0x3d8b1404	0.06790927
220	0xbd4728ad	-0.048622776
221	0x3c8d8b80	0.017278433
222	0xbd6e5976	-0.058190785
223	0xbba3940b	-0.0049920133
224	0xbc312f4d	-0.0108145
225	0x3c3df1dd	0.011593309
226	0xbc111d61	-0.008857102
227	0x3d8d9fc4	0.069152385
228	0x3c933e1a	0.017973948
229	0xbd2da368	-0.042392164
230	0xbd424b3b	-0.047435027
231	0xbcb9ec62	-0.022695724
232	0x3ac3c1ba	0.0014935054
233	0xbdc06224	-0.09393719
234	0xbe487b96	-0.19578394
235	0x3a6c1f85	0.00090073823
236	0x3d0d583d	0.03450798
237	0xbc7faafb	-0.01560473
238	0x3de3fda4	0.111323625
239	0x3df96939	0.12178273
240	0xbd72184a	-0.059105195
241	0xbd114f13	-0.0354758
242	0x3cb42cb7	0.021993978
243	0x3db7d3a2	0.08975913
244	0xbdd4d714	-0.103925854
245	0xbca14a40	-0.019688725
246	0x3c5f8c49	0.013644286
247	0xbbe241a8	-0.0069047995
248	0xbc362af7	-0.011118642
249	0xbdd879b0	-0.10570085
250	0x3d07352f	0.033009704
251	0x3c4d3c38	0.012526564
252	0x3e203201	0.15644075
253	0x3c35077d	0.011049149
254	0x3cb511fa	0.022103298
255	0xbd03cdcf	-0.032178696

network_body._body_endoder.seq_layers.2.bias f4 [256]
0	0xba19ba87	-0.00058642816
1	0x3be2ee8c	0.0069254097
2	0x38e363c6	0.00010842788
3	0xbcc1143a	-0.023569215
4	0xbcf50d71	-0.029913636
5	0xbcd90904	-0.026493557
6	0xbc4e5e3e	-0.012595711
7	0xbc2b769b	-0.0104652895
8	0xbb7a99c2	-0.003823862
9	0xbc910511	-0.017702611
10	0x3bbd6572	0.0057799155
11	0xbd0d33dc	-0.034473285
12	0xbcd539de	-0.02602857
13	0xbca4ef8e	-0.02013376
14	0xbd0df439	-0.034656737
15	0xbba593d6	-0.005053024
16	0xbd085d79	-0.033292267
17	0xbc81de93	-0.015853202
18	0xbc2da3a5	-0.010598098
19	0xbc417111	-0.011806742
20	0x3be603c6	0.007019493
21	0xbcfd8929	-0.030949192
22	0xbcdddbcf	-0.027082352
23	0xbc1db52a	-0.009625712
24	0xb9838a79	-0.00025089437
25	0xbc8a25c6	-0.016863715
26	0xbab2fae0	-0.0013655089
27	0xbc3786c0	-0.0112015605
28	0x3c840c32	0.016119096
29	0x3c781a04	0.015142921
30	0x3bc157ea	0.0059003728
31	0xbce547cc	-0.027988337
32	0xbb8a215d	-0.004215403
33	0x3bef023c	0.0072939675
34	0x3b378266	0.0028001308
35	0xbc9a89a1	-0.018864455
36	0xbbc44507	-0.005989674
37	0x3c5958d4	0.013265807
38	0x3c15706f	0.009121045
39	0xbd13274c	-0.03592615
40	0xbd186aa3	-0.03721107
41	0xbc95eee8	-0.018302396
42	0xbbcf3421	-0.006323353
43	0xbc84fa73	-0.016232705
44	0xbcb1ef08	-0.021720424
45	0x3af9b4a2	0.0019051025
46	0xbc270b98	-0.010195635
47	0xbca8f3bb	-0.020624032
48	0xbc787e83	-0.0151668815
49	0x3b457bb0	0.0030133538
50	0xba72de3a	-0.0009264682
51	0xbbac235d	-0.005253239
52	0xbc82c989	-0.01596524
53	0xbb8abc3c	-0.004233865
54	0xbbfd8af3	-0.0077375113
55	0xbcbaf0e9	-0.022819953
56	0x3c057bb2	0.008147167
57	0xbcf357f3	-0.029705023
58	0xb9835052	-0.0002504611
59	0xbc70509a	-0.014667654
60	0xb9b61328	-0.00034728018
61	0xbcc0b6a0	-0.023524582
62	0xba76a27b	-0.0009408367
63	0xbcc67f98	-0.024230763
64	0xbce310c6	-0.02771796
65	0xbc963cc5	-0.018339524
66	0xbd201e1e	-0.039091222
67	0xbc89f5f0	-0.016840905
68	0xbb9af07d	-0.0047283755
69	0xbbcd6b84	-0.0062689204
70	0xbcaf6d8c	-0.02141454
71	0xbc8d2764	-0.017230697
72	0xbc96a8ff	-0.01839113
73	0xbba70a4d	-0.0050976635
74	0xbcb22f17	-0.02175097
75	0xbb02ca42	-0.001995698
76	0x3c498740	0.0123003125
77	0xbc88a8e8	-0.016682103
78	0x3b80065e	0.003907009
79	0x3c83ef25	0.016105244
80	0xbca458e0	-0.02006191
81	0xbcd4d81d	-0.025981957
82	0xbcc1968f	-0.023631362
83	0xbcff42be	-0.031159755
84	0xbbbc8f13	-0.0057543605
85	0xbb029171	-0.0019923116
86	0xbce61dee	-0.028090443
87	0xbcc10f12	-0.023566756
88	0x3bf93b85	0.0076059722
89	0xbcbf5cef	-0.023359744
90	0xbb48447d	-0.00305584
91	0xbc98812a	-0.018616278
92	0xbc90089b	-0.017582228
93	0xb92bb026	-0.00016373451
94	0xbcece901	-0.028919699
95	0xb9db6772	-0.00041848008
96	0xbc8259aa	-0.015911896
97	0xbcee29eb	-0.029072722
98	0xbb52603c	-0.0032100817
99	0xb9a34005	-0.0003113748
100	0xbc5db90d	-0.013532889
101	0x3b4a0a1d	0.0030828782
102	0xbaba1a79	-0.0014198563
103	0x3ba2f474	0.0049729887
104	0x3a658838	0.0008755955
105	0xbc58c833	-0.013231325
106	0xbcc156c4	-0.023600943
107	0x3b13b03b	0.0022535461
108	0xbc33212f	-0.010933205
109	0x3a3d2ea6	0.0007216729
110	0xbc047251	-0.008083896
111	0xbcc7a0c3	-0.02436865
112	0x3bedcf90	0.0072574094
113	0x3af092d6	0.0018354307
114	0x3c389ebd	0.011268315
115	0xbbfe5769	-0.007761885
116	0xbc1e5844	-0.009664599
117	0xbcdb7c47	-0.026792658
118	0xbc814821	-0.015781464
119	0x3b04a116	0.0020237616
120	0x3aa40522	0.0012513737
121	0x3c80d1ae	0.015724983
122	0xbcf9ebcf	-0.03050795
123	0xbc086ef6	-0.008327236
124	0xbce1b612	-0.027552638
125	0xbcbd7a67	-0.023129655
126	0x3b931d21	0.0044895564
127	0xbb0f5279	-0.0021869226
128	0xbbaef7a6	-0.0053395806
129	0xbd060bdf	-0.032726165
130	0xbcb1eebb	-0.02172028
131	0x3a05f706	0.0005110357
132	0xbcab5534	-0.020914651
133	0xbcc0ccf6	-0.023535233
134	0xbc082ee8	-0.008311965
135	0x3b0a7843	0.002112881
136	0xbc611980	-0.01373899
137	0xbc8ae78c	-0.016956113
138	0xbc9c77ef	-0.019100158
139	0xbbc64a13	-0.006051311
140	0xbb7a0656	-0.003815075
141	0xbcc97b7b	-0.024595013
142	0xbc665f4b	-0.014060806
143	0xbbd1ba8c	-0.006400412
144	0xbc4b2b60	-0.012400478
145	0xbba61e7a	-0.005069551
146	0xbc9684f4	-0.018373944
147	0xbc9840e5	-0.018585632
148	0xbc550c5f	-0.013003438
149	0xbc5b75be	-0.013394771
150	0xbc6ffe4c	-0.014648031
151	0xbd04ef54	-0.032454804
152	0xbc8bd6a9	-0.017070131
153	0xbc8cff49	-0.017211573
154	0xbc5fc35c	-0.013657417
155	0xbca9ee97	-0.020743651
156	0xbca4b364	-0.020105071
157	0xbccff8cf	-0.025387196
158	0xbcd10bdd	-0.025518352
159	0xbc1c69c6	-0.009546703
160	0x3b4ff7a5	0.00317333
161	0xbc4b5233	-0.012409735
162	0x3c82ecc6	0.015982043
163	0x3bba5e14	0.0056874845
164	0x3bbc172f	0.0057400684
165	0x3b6e11ca	0.003632652
166	0xbb903657	-0.004401009
167	0x3bc9679c	0.0061463844
168	0xbb46d9d6	-0.0030342243
169	0x3bb23c04	0.0054392833
170	0xbcff402c	-0.03115853
171	0x38041bf3	3.1497282e-05
172	0xbc6cf44c	-0.014462542
173	0xbc5b82ee	-0.013397915
174	0xbbdc4c27	-0.0067229453
175	0xbca1e031	-0.019760223
176	0x3b8a4871	0.0042200615
177	0xbc05cf17	-0.00816705
178	0x3a73ba4a	0.00092974736
179	0xbcc6e16d	-0.024277413
180	0xbb081eb2	-0.002077025
181	0x3c6c3803	0.014417651
182	0xbd02aab0	-0.03190106
183	0xbbeff365	-0.007322716
184	0x3c1d6405	0.009606366
185	0xbcb0c971	-0.02158043
186	0xbc2899cb	-0.010290573
187	0xbbffd2e5	-0.007807123
188	0x3c05f0a4	0.008175049
189	0xbcb828ec	-0.02248045
190	0xbce2c8e1	-0.027683677
191	0x3a034e03	0.0005008878
192	0xbc293459	-0.010327422
193	0xbbc03511	-0.005865701
194	0xbcd5007d	-0.02600121
195	0xbb2dd3e6	-0.0026524006
196	0x3b34bfdd	0.002758018
197	0xbcf9e46b	-0.030504426
198	0xbb964bb0	-0.0045866594
199	0xbcaf8bff	-0.02142906
200	0xbb4218b0	-0.0029616766
201	0xbcf662f1	-0.030076476
202	0xbcd701f2	-0.026246045
203	0xbcf06bd3	-0.02934829
204	0xbc9bb066	-0.019005012
205	0x3c5f3e88	0.013625748
206	0x3c966d7c	0.018362753
207	0xbc15c803	-0.009141925
208	0xbc86eb54	-0.016469635
209	0xbc79568c	-0.015218388
210	0xbc037bb8	-0.008025102
211	0xbc537817	-0.01290705
212	0xbc11667c	-0.008874532
213	0x3a4734b0	0.00075990986
214	0x3aac50cf	0.0013146641
215	0xba90fb3a	-0.00110612
216	0xba182b77	-0.00058048166
217	0x3c12b0d1	0.008953289
218	0xbcc5e01b	-0.024154713
219	0xbcc42704	-0.023944385
220	0xba88f61d	-0.0010449324
221	0xbcb0ea63	-0.02159614
222	0xbcb0f559	-0.021601366
223	0xbc73782a	-0.014860192
224	0x3b308cde	0.0026939432
225	0xba8c2fe7	-0.0010695428
226	0xbbd57b87	-0.0065149697
227	0x3be8f98f	0.007109828
228	0xbc4471d5	-0.01199003
229	0xbd0906de	-0.033453815
230	0xbc891378	-0.016732916
231	0xbcc25425	-0.023721764
232	0xba933e85	-0.0011233842
233	0xbbf43bca	-0.0074534165
234	0xbc1a5e51	-0.009421901
235	0xbc508920	-0.012728006
236	0xbd0b3f9a	-0.033996202
237	0x3b298d4f	0.002587158
238	0xbc8f5e42	-0.017501
239	0xbb83d51e	-0.0040232083
240	0xbca86eea	-0.0205607
241	0xbcc3e83f	-0.023914455
242	0xbc3b0c19	-0.0114164585
243	0xbcb3ef98	-0.021964833
244	0xbc90e187	-0.017685665
245	0xbaa0e9b3	-0.0012276679
246	0xbb70df2f	-0.0036754122
247	0xbcd426fb	-0.025897494
248	0xbafaf9a1	-0.0019147882
249	0xbce27dbb	-0.027647844
250	0xbc6e26e2	-0.014535638
251	0xbbc910e9	-0.006136049
252	0x3a862747	0.0010235094
253	0xbc975eb5	-0.018477777
254	0xbcc46ec6	-0.023978602
255	0x3a1d2459	0.0005994491

action_model._continuous_distribution.log_sigma f4 [1, 3]
0	0xbd0241eb	-0.031801146
1	0xbd8f1e12	-0.06988157
2	0xbc4f4795	-0.012651344

action_model._continuous_distribution.mu.weight f4 [3, 256]
0	0xbd0673e5	-0.03282537
1	0xbcdb22fb	-0.026750078
2	0xbb4f476e	-0.0031628269
3	0xbb29850e	-0.002586666
4	0x395e6655	0.00021209691
5	0xbbcc291e	-0.0062304875
6	0xbc857018	-0.016288802
7	0xbc211c47	-0.009833402
8	0xbb1a3b8e	-0.0023534033
9	0xbc0ccc4e	-0.008593632
10	0x3ad55728	0.0016276585
11	0x3c1521ba	0.009102279
12	0xbc168e64	-0.009189222
13	0xbb31f756	-0.002715548
14	0x3c0532e0	0.008129805
15	0x3c74da8c	0.014944684
16	0xb9a6bc5e	-0.00031802332
17	0xbbed6ce0	-0.007245645
18	0xbb66ca5a	-0.0035215826
19	0xba862832	-0.0010235368
20	0x3b90f69b	0.004423929
21	0x3c98d6c1	0.01865709
22	0x3cef6b01	0.029225828
23	0x3c0d5c1f	0.00862792
24	0x3c806ecf	0.015677838
25	0x3a956acd	0.0011399627
26	0x3b70add2	0.0036724699
27	0x3b55f90d	0.0032649667
28	0xbc124c59	-0.0089293355
29	0xbcdfd109	-0.027321355
30	0xb949cc7d	-0.00019245032
31	0xbbb08d48	-0.005387936
32	0x3a7feffa	0.00097632373
33	0xbd030e42	-0.03199602
34	0x3c69a082	0.014259459
35	0xbaf86514	-0.0018951022
36	0x3c96b3b9	0.018396245
37	0xbc362298	-0.011116646
38	0x3b9dc1e4	0.0048143733
39	0x3c9613d1	0.018319996
40	0x3bd9e4d9	0.006649595
41	0x3b69d01e	0.0035677026
42	0xbc904762	-0.017612163
43	0x3c40c363	0.011765334
44	0x3cae1464	0.021249957
45	0x3af0003d	0.0018310618
46	0xbabe2e12	-0.001450958
47	0x3c901676	0.017588835
48	0xbafae799	-0.0019142508
49	0xbd041535	-0.032246787
50	0xbace2d98	-0.0015730141
51	0x3a1df446	0.0006025474
52	0x3c5fd856	0.013662418
53	0x3c79552a	0.015218059
54	0x3b406692	0.0029358012
55	0x3cf7563a	0.030192483
56	0xbc84ebb6	-0.016225677
57	0xb93f2ccf	-0.00018231872
58	0x3bcd9faf	0.0062751393
59	0x3c563c6c	0.013075929
60	0xbcabd6ad	-0.020976389
61	0xbad6ac79	-0.0016378305
62	0x3a83745d	0.0010029186
63	0x38daa030	0.00010424887
64	0x3b0e5a3e	0.002172127
65	0x3b5d18c3	0.0033736683
66	0xbbe5e134	-0.0070153717
67	0xbbfce289	-0.007717435
68	0xbb1cb558	-0.00239118
69	0xbbb406f0	-0.005493991
70	0xbc32f6e4	-0.010923121
71	0x3c95fa4a	0.018307824
72	0xbb01b3a0	-0.0019790903
73	0xbc92826c	-0.017884456
74	0xbbb9fc69	-0.0056758416
75	0x3ba19935	0.004931594
76	0x3c1bae19	0.009501957
77	0x3c567cb1	0.013091252
78	0xbc47096e	-0.012148244
79	0xbb929e16	-0.0044744117
80	0xbcced206	-0.025246631
81	0x3cb5593d	0.022137279
82	0x3c31cef1	0.010852561
83	0x3b444cd7	0.0029953027
84	0x3ac51780	0.0015036911
85	0xbb7637e0	-0.0037569925
86	0x38706866	5.7317688e-05
87	0x3b55f9a4	0.0032650018
88	0xbc41d1f0	-0.011829838
89	0x3b4e8b57	0.0031516158
90	0xbbaf97af	-0.0053586583
91	0xbcf6c7ff	-0.030124662
92	0x3c5571d3	0.013027626
93	0xbc3bc838	-0.01146131
94	0x3c2efe62	0.010680767
95	0x3c7895fb	0.015172477
96	0xbbfa208d	-0.007633275
97	0xb99d21b2	-0.00029970478
98	0xbbb4e83d	-0.005520849
99	0xbc0d8de1	-0.008639784
100	0xbb959000	-0.0045642853
101	0x3ace3897	0.0015733418
102	0xbb76d28f	-0.0037662124
103	0xbc6e02a2	-0.014526995
104	0xba2d82fd	-0.0006618945
105	0x3c9f0994	0.019413747
106	0x3b81526f	0.0039465944
107	0xbc57f402	-0.013180735
108	0xbc0f28dc	-0.008737769
109	0xbc0881af	-0.0083317
110	0xbcc67091	-0.024223598
111	0x3c13eae2	0.009028168
112	0xbb29978d	-0.0025877685
113	0xb887be40	-6.4727385e-05
114	0xbc92e09d	-0.01792937
115	0xbab330a6	-0.0013671115
116	0xba3aae43	-0.0007121304
117	0x3cdc46be	0.026889201
118	0xbb574cf2	-0.003285226
119	0x3c8b0ec3	0.016974812
120	0x3ad05adb	0.0015896218
121	0x3ac42366	0.0014964163
122	0x3b740753	0.003723581
123	0xbb1a1c0e	-0.0023515257
124	0x3cd3afb1	0.025840612
125	0xbc5f4b08	-0.013628729
126	0x3d12fd06	0.035885833
127	0xbbb88d02	-0.005632044
128	0xbb50c2a0	-0.0031854287
129	0x3bc5417e	0.00601977
130	0xbc00695b	-0.007837619
131	0x3c343a8e	0.011000289
132	0x3b84e7ff	0.0040559764
133	0xb9d2201b	-0.00040078242
134	0x3c69517f	0.014240622
135	0xb8f856b5	-0.00011841712
136	0xbb8dd884	-0.004328789
137	0xbc2c37e4	-0.010511372
138	0x3c7004f3	0.0146496175
139	0x3a0415b2	0.0005038633
140	0x3c7e2348	0.015511341
141	0xb99ac9d0	-0.0002952353
142	0xba138990	-0.00056281034
143	0xbca8514f	-0.020546583
144	0xba596e6d	-0.0008294348
145	0xbbeb0df6	-0.007173295
146	0x3b926c57	0.0044684815
147	0xbab01db1	-0.0013436583
148	0x3afcf92e	0.0019300336
149	0x3c09d775	0.008413185
150	0x3c2facf5	0.0107223885
151	0xb9d566a2	-0.00040702993
152	0xbca1f0d8	-0.019768164
153	0x3ac19d44	0.00147716
154	0xba6d3ffd	-0.00090503675
155	0x3b4cde4f	0.0031260436
156	0xbb3d5f7d	-0.0028896027
157	0xbb63f918	-0.0034785923
158	0x3a9414ef	0.0011297743
159	0x3b3455c7	0.0027516948
160	0xbbde9c5e	-0.0067935428
161	0x3c41f708	0.011838682
162	0xb9ae0687	-0.0003319273
163	0xbbd7c8fc	-0.0065852385
164	0xbc78eecb	-0.015193651
165	0xbc066db9	-0.008204871
166	0x3d179564	0.037007704
167	0xbbcf7689	-0.006331269
168	0xbacc96d0	-0.001560891
169	0xbab22c0e	-0.0013593452
170	0x3ca56403	0.02018929
171	0x3c1169e1	0.008875341
172	0x3a09fea9	0.00052640826
173	0xbb0a9fe2	-0.0021152426
174	0x3c52d4bc	0.012868103
175	0xb9035db9	-0.00012528048
176	0xbd1fb6cc	-0.038992688
177	0xbba64ffd	-0.0050754533
178	0xbb5f07b0	-0.0034031682
179	0xbc9e7bb8	-0.019346103
180	0xbc4676f5	-0.0121133225
181	0x3b1b23c0	0.0023672432
182	0x3c31b175	0.010845532
183	0x3d2bfeff	0.04199123
184	0x3c072029	0.008247414
185	0x3c2a77e0	0.010404557
186	0x3ca42f3c	0.020042054
187	0x3a93e706	0.001128406
188	0xbbb7d9ef	-0.0056106965
189	0x3b32dc9e	0.0027292143
190	0x3b6cbc32	0.0036122915
191	0x398d95a5	0.0002700511
192	0x3b00afa2	0.0019635935
193	0xba5c7601	-0.0008409918
194	0x39c3bec2	0.00037335424
195	0xbc15c0fc	-0.009140249
196	0x3cbb0fcd	0.022834683
197	0x3c0928ab	0.008371512
198	0x3ccfa7e0	0.025348604
199	0x3c6b489c	0.014360573
200	0x39dd2440	0.00042179413
201	0x3c68c2f9	0.014206641
202	0x3b52d507	0.0032170431
203	0x3c1c2035	0.009529163
204	0xbb9749de	-0.00461696
205	0xbad2f4e0	-0.0016094707
206	0xbba21220	-0.0049460083
207	0xbc392223	-0.011299643
208	0xb82ab5cf	-4.070048e-05
209	0xbb51a41e	-0.003198869
210	0x3bf7aeca	0.0075586783
211	0x3b6bb82f	0.0035967936
212	0xbb248296	-0.002510225
213	0x3cd12fe2	0.025535528
214	0xbbc26740	-0.0059327185
215	0x3bb9937b	0.005663333
216	0x3bc2f372	0.005949431
217	0x3b27c0a5	0.0025597003
218	0xbc117ada	-0.008879388
219	0x3a8fc204	0.0010967855
220	0xbb44647e	-0.0029967125
221	0x3c6bfe11	0.014403836
222	0x3cfc262a	0.030779917
223	0xbaa2a494	-0.0012408667
224	0xba01a5f0	-0.0004945686
225	0xbb69340a	-0.0035583996
226	0x3b2d784a	0.0026469403
227	0xbb279855	-0.0025572975
228	0xbb57443a	-0.0032847063
229	0xbbd23d09	-0.0064159674
230	0x38864fac	6.404458e-05
231	0x3c49cf90	0.012317553
232	0xbbc0accd	-0.0058799745
233	0x3b107e6e	0.0022048014
234	0x3bcba1e2	0.0062143663
235	0xbb96d7d9	-0.0046033678
236	0x3b2304b9	0.002487464
237	0xbc580f8e	-0.013187302
238	0x3b027c5c	0.001991055
239	0xbada3e82	-0.0016650709
240	0xbab4fee5	-0.0013808875
241	0xbc27c605	-0.010240083
242	0xbc3b3dc0	-0.011428297
243	0x3aa14d78	0.0012306413
244	0xbbfb6aca	-0.0076726424
245	0xbbd97334	-0.0066360477
246	0xbb2c50ef	-0.0026293357
247	0x3b11d392	0.002225135
248	0xbc0efcff	-0.008727311
249	0x3a3c87eb	0.0007191884
250	0x3cdc8976	0.026921015
251	0xbba834d2	-0.00513325
252	0xbc288595	-0.010285755
253	0xbbd107a2	-0.0063790837
254	0x3c25820c	0.010101806
255	0xbc84ffbf	-0.01623523

action_model._continuous_distribution.mu.bias f4 [3]
0	0xbbb15fc3	-0.005413027
1	0x3c902315	0.017594853
2	0x3cef5d4c	0.029219292

action_model._discrete_distribution.branches.0.weight f4 [1, 256]
0	0x3a874903	0.0010321442
1	0xba2dce67	-0.00066301826
2	0x3affc905	0.0019514865
3	0xbaee7b3a	-0.0018194683
4	0xbc046195	-0.008079906
5	0x3c065b31	0.008200453
6	0xbb9bd6ba	-0.004755822
7	0x3b157c81	0.0022809806
8	0x3c33250a	0.010934124
9	0xba9f18dd	-0.0012138147
10	0xbb50ab73	-0.0031840473
11	0x3bff9563	0.0077997907
12	0x3b028627	0.0019916387
13	0x3bd73285	0.0065673017
14	0xba9d425b	-0.0011997925
15	0xbba8c969	-0.005150963
16	0xbbc40767	-0.0059823277
17	0xbbafa5a2	-0.005360321
18	0xbb10fa50	-0.0022121854
19	0x3a7222e5	0.0009236767
20	0x3b05d18a	0.0020419084
21	0xbb8da13f	-0.0043222005
22	0xbbe2b2c8	-0.006918285
23	0xbbe20f42	-0.0068987915
24	0x3bee9eb7	0.007282104
25	0xbb6cf35a	-0.003615579
26	0xbb84e299	-0.004055333
27	0x3c858e5f	0.01630324
28	0xbc3f86f7	-0.011689893
29	0x3c85a58b	0.016314289
30	0xbb324300	-0.002720058
31	0xbaf4cbd7	-0.0018676472
32	0x3baa54e4	0.005198108
33	0x3adf4600	0.0017034411
34	0x3b0a88ee	0.0021138745
35	0x3abad0f3	0.0014252946
36	0xbc46866f	-0.012117012
37	0x3a40562a	0.0007337058
38	0x3bcd2a32	0.0062611336
39	0xb9092437	-0.00013078829
40	0xbb8c1e83	-0.004276098
41	0x3bc5a14a	0.00603119
42	0xbbb64f1c	-0.00556363
43	0x3c833cf0	0.016020268
44	0x3bb485cc	0.005509114
45	0x3c1af164	0.009456966
46	0xbbfa4f8f	-0.0076388787
47	0xbb819573	-0.0039545833
48	0xbb1fc328	-0.0024377797
49	0xbbf7468f	-0.007546253
50	0xbbc71d54	-0.006076494
51	0xbb59bfcd	-0.0033225894
52	0xbac1c109	-0.001478226
53	0x3aab2463	0.0013057109
54	0x3bbca348	0.0057567693
55	0xbb9e10af	-0.004823766
56	0xbbabc34f	-0.0052417885
57	0xbc222e2f	-0.009898706
58	0xbb802121	-0.0039101993
59	0x3b066835	0.002050889
60	0x3c5efc88	0.013610013
61	0x3a80419e	0.000978518
62	0xbb55ecbf	-0.0032642332
63	0x3a74ee3b	0.00093433604
64	0x3ba7a0ef	0.0051156203
65	0xbb94385d	-0.0045233206
66	0xbc8d8e0c	-0.017279647
67	0xbb6c4543	-0.0036052025
68	0x3c2f7d83	0.010711077
69	0x3c8f403a	0.01748668
70	0x3b26c01f	0.0025444103
71	0xbb61b258	-0.0034438577
72	0xbac04c6e	-0.0014671215
73	0x3b7adbad	0.003827791
74	0x3b52e553	0.0032180145
75	0xb92b3ed7	-0.0001633124
76	0x3aa20e3a	0.0012363859
77	0x3b1c7632	0.002387416
78	0x3c355db6	0.011069706
79	0x3c743e18	0.014907382
80	0x3bb5e8b5	0.0055514225
81	0x3ba19469	0.004931022
82	0x3a295506	0.0006459508
83	0xbb685438	-0.003545059
84	0x3b6a172b	0.0035719376
85	0x3c2d36c0	0.010572135
86	0xbb8dae17	-0.0043237316
87	0x3a5607cd	0.00081646146
88	0x3ab82acf	0.0014050844
89	0xbabf3a2b	-0.0014589479
90	0xba95e7cf	-0.0011436882
91	0xbc5afb42	-0.013365569
92	0x3c316c40	0.0108290315
93	0x3ab89aea	0.0014084254
94	0x398d1193	0.0002690671
95	0xbc1b3f1e	-0.0094754975
96	0x3c37f02b	0.011226694
97	0xbbdd3ad7	-0.006751399
98	0xbaedc393	-0.0018139951
99	0xbb622512	-0.003450696
100	0xbc3e5531	-0.011616991
101	0xbb2cc22f	-0.002636086
102	0xbc5dcbb7	-0.013537339
103	0xbc232c05	-0.009959226
104	0x3bb95ccf	0.0056568156
105	0x3ba98037	0.005172755
106	0x38d3d738	0.00010101352
107	0xbb764883	-0.0037579841
108	0x3b5fd29d	0.0034152635
109	0x3a123fe1	0.00055789767
110	0x3bc1e9a3	0.0059177442
111	0xbbd6aab8	-0.006551113
112	0xbaff78f5	-0.0019491004
113	0x3a028e67	0.0004980326
114	0xba18508d	-0.0005810343
115	0x3a784527	0.0009470754
116	0xbbdeddcf	-0.006801344
117	0x3c2eb44b	0.010663102
118	0x3ab320e4	0.0013666418
119	0xbc44d1aa	-0.012012878
120	0x3aa7c66f	0.0012800227
121	0x3bd52d7a	0.0065056654
122	0x3bf0740d	0.007338053
123	0xbbd420e0	-0.0064736456
124	0x3b546417	0.003240829
125	0xbbca292e	-0.00616946
126	0x3b9dee15	0.0048196414
127	0x3ba03960	0.004889652
128	0x3b8282b8	0.003982868
129	0xbbf9fa93	-0.0076287477
130	0x3c9bbc42	0.019010667
131	0x3ae0dd28	0.0017155753
132	0xbbe97895	-0.00712497
133	0x3bee15fa	0.0072658034
134	0xbb8cdd9d	-0.0042988793
135	0x3c123c6f	0.008925541
136	0x3c30fd5f	0.010802596
137	0xba8a361f	-0.0010544694
138	0x3a06f08b	0.0005147538
139	0xbbaf5bbb	-0.0053515113
140	0x3b256ff7	0.0025243738
141	0xbc398fc2	-0.011325778
142	0x39e580a2	0.00043774123
143	0xbbe2ab1f	-0.006917372
144	0xb8e88c65	-0.000110887726
145	0xbb48b5fc	-0.003062605
146	0x3b9ea334	0.0048412327
147	0x3b0ce2ef	0.0021497568
148	0x3c008571	0.007844315
149	0xbbad4e01	-0.00528884
150	0xb8872a57	-6.445188e-05
151	0xbc6f6948	-0.014612503
152	0xbc5c7c55	-0.013457377
153	0x3bd9c1da	0.0066454234
154	0x3b9b99fc	0.004748581
155	0xbc1166a3	-0.008874568
156	0xbbea2e77	-0.0071466523
157	0x3a4659c4	0.00075664767
158	0xbc4ee37b	-0.012627478
159	0xbaa71a01	-0.0012748839
160	0x3b8d699f	0.0043155695
161	0x3b8d96fd	0.0043209777
162	0x3bb7cf73	0.0056094467
163	0xbb535c43	-0.0032251037
164	0xbb6d3c3b	-0.003619923
165	0x3b926da0	0.0044686347
166	0xbb66eafd	-0.0035235279
167	0xbbb927af	-0.0056504826
168	0xbb152bdb	-0.0022761736
169	0x3ab3e8e1	0.001372602
170	0xbb93b1eb	-0.0045072935
171	0xba113462	-0.00055391167
172	0x3be8a9cd	0.00710032
173	0x3b79784f	0.0038066094
174	0x3bfd5d03	0.007732035
175	0xbb6ee0e3	-0.003644996
176	0x3b845bcf	0.0040392647
177	0xbb08247d	-0.0020773702
178	0x3a833382	0.0010009857
179	0xbbf232fb	-0.0073913313
180	0x3be9054d	0.0071112276
181	0xbb897d5f	-0.0041958536
182	0xb9aa4bfd	-0.00032481542
183	0xbb8460ac	-0.0040398445
184	0x39ebcb67	0.0004497424
185	0xbb04f43c	-0.0020287177
186	0x3b67bdab	0.0035360854
187	0x392e5aea	0.00016627801
188	0xbb05ac3f	-0.0020396856
189	0xbb8690df	-0.0041066254
190	0x3b7a6bb8	0.0038211178
191	0x3c216a13	0.00985195
192	0xbc6e2fef	-0.014537795
193	0x3c1a5d87	0.009421713
194	0x3c03435c	0.008011665
195	0xbb666aed	-0.0035158948
196	0x3c2096f6	0.009801617
197	0x3c1213fd	0.008915898
198	0x3c8848ef	0.01663634
199	0xb94bee00	-0.0001944825
200	0xbb2cb7cb	-0.0026354666
201	0xbaa19954	-0.001232902
202	0xbbccf742	-0.0062550614
203	0x3b9dc396	0.0048145754
204	0x3b020777	0.0019840875
205	0x3b47ce97	0.0030488127
206	0xb9c5949a	-0.00037685485
207	0x37099fbb	8.2030265e-06
208	0xbb9ef6c5	-0.0048511946
209	0xbb40cf7f	-0.0029420552
210	0xbba6e456	-0.0050931377
211	0xbb6c2913	-0.0036035224
212	0x3ae63f93	0.0017566554
213	0xbb1a3840	-0.0023532063
214	0x3b9d573f	0.0048016603
215	0x3aa5726b	0.00126226
216	0xbb0816f5	-0.0020765637
217	0x3c1d7f53	0.009612876
218	0x3a69aa12	0.0008913587
219	0xbba45b7f	-0.00501579
220	0x3b99dea3	0.00469573
221	0x3bff4d78	0.0077912174
222	0xbc55681f	-0.013025313
223	0x3bf85e55	0.0075796046
224	0x3a92e775	0.0011207896
225	0x3bd23535	0.006415034
226	0x3a9e6788	0.0012085298
227	0x3b994bb3	0.0046782135
228	0x3b45954b	0.00301488
229	0x3b805a7f	0.003917038
230	0x3bde6533	0.006786966
231	0xba615b3d	-0.00085966644
232	0xbba52e34	-0.005040908
233	0xbaf9533f	-0.0019022002
234	0xbbc56eb4	-0.0060251597
235	0x3c2afa5d	0.010435668
236	0xbbdc7eaa	-0.0067289667
237	0x3b54b315	0.0032455374
238	0x3c3eb780	0.0116404295
239	0xbae730c8	-0.0017638439
240	0x3b9ba3a6	0.004749733
241	0xb92c4ec7	-0.00016432545
242	0x3849a4d4	4.8075643e-05
243	0x3be2ad7b	0.006917653
244	0x3be6035a	0.0070194425
245	0xbbb9b017	-0.0056667435
246	0x3bbfbf79	0.0058516827
247	0xbbdf625a	-0.0068171443
248	0x3cb52274	0.022111155
249	0xbba2c510	-0.0049673393
250	0x3b562c2d	0.003268014
251	0x39148096	0.00014162282
252	0xbada62b2	-0.0016661494
253	0x3a4a376f	0.0007713949
254	0xbb332631	-0.0027335996
255	0xbb7984b7	-0.003807349

onnx::Div_80 f4 [36]
0	0x3e544a9b	0.20731585
1	0x3e61f242	0.2206507
2	0x3eb3768e	0.35051388
3	0x3e84ccc6	0.2593748
4	0x3e4d7b44	0.20066553
5	0x3e6210b9	0.22076692
6	0x3eb4dee0	0.3532629
7	0x3e875d92	0.26438576
8	0x3e53fb3f	0.20701312
9	0x3e615fc4	0.22009188
10	0x3eb9a7e7	0.36260912
11	0x3e8c6a62	0.27424914
12	0x3e53f394	0.20698386
13	0x3e5f97dd	0.21835275
14	0x3eb684ee	0.35648292
15	0x3e873aa4	0.26411927
16	0x3e59dc1a	0.21275368
17	0x3e5f28da	0.21792927
18	0x3ebb2b98	0.36556697
19	0x3e8cd96c	0.2750963
20	0x3e55e683	0.20888714
21	0x3e4ef0b0	0.20209002
22	0x3eb35e53	0.350329
23	0x3e83dd98	0.25755
24	0x3e5cc912	0.21561077
25	0x3e4cd264	0.20002133
26	0x3eb7d18e	0.35902065
27	0x3e89a362	0.26882464
28	0x3e4f3c5b	0.20237868
29	0x3db03e1c	0.086055964
30	0x3e9c817e	0.30567545
31	0x3e801967	0.2501938
32	0x3e533fe8	0.20629847
33	0x3db1f451	0.08689178
34	0x3ea1c6a6	0.3159687
35	0x3e85afd1	0.261107

onnx::Div_83 f4 [13]
0	0x3f735d19	0.9506393
1	0x4726d896	42712.586
2	0x3f6f71e2	0.93533146
3	0x442cc09d	691.0096
4	0x43ad8739	347.05643
5	0x3ae08e5f	0.0017132274
6	0x3ae08e5f	0.0017132274
7	0x3ae08e5f	0.0017132274
8	0x3ae08e5f	0.0017132274
9	0x3ae08e5f	0.0017132274
10	0x3ae08e5f	0.0017132274
11	0x3ae08e5f	0.0017132274
12	0x3ae08e5f	0.0017132274
