Assets/ML-Agents/AvoidAgent.onnx (onnx, 314759 bytes, 8 tensors)

network_body._body_endoder.seq_layers.0.weight f4 [256, 41]
0	0xbd7b61ea	-0.061372675
1	0x3e317094	0.17328101
2	0x3e471f56	0.19445547
3	0x3e6b7941	0.22995473
4	0x3e894b6d	0.26815358
5	0xbd4f02ce	-0.050539784
6	0x3d8e5c38	0.06951183
7	0x3de037c4	0.109481364
8	0x3dee13ff	0.11624908
9	0xbd80d5d0	-0.062907815
10	0xbda181ba	-0.078860715
11	0x3d0202bd	0.031740893
12	0xbdbc9662	-0.09208371
13	0x3ea052a8	0.31313062
14	0x3d61f14b	0.055161756
15	0xbe12568c	-0.14290828
16	0x3e0ee184	0.13953215
17	0x3e2a081a	0.16604653
18	0x3e89a560	0.26883984
19	0x3ce81884	0.028332002
20	0xbd2b0d40	-0.041760683
21	0xbdb53a98	-0.088490665
22	0xbc36376c	-0.011121612
23	0xbcc0c2be	-0.02353036
24	0xbe40da15	-0.18833192
25	0xbe12da2c	-0.14341038
26	0x3d4cfae1	0.050043944
27	0xbe1981f5	-0.14990981
28	0x3e2d61b4	0.16931802
29	0xbe22b81a	-0.15890542
30	0xbe9b1b4b	-0.3029426
31	0xbe05d34b	-0.13068883
32	0x3ac118cf	0.0014732125
33	0x3d8fa2d8	0.07013482
34	0x3e96b245	0.29432884
35	0x3dcd5d25	0.100275315
36	0xbe07433f	-0.13209246
37	0xbc316167	-0.010826445
38	0x3e061f40	0.13097858
39	0x3c4e09f6	0.012575617
40	0xbe846d14	-0.2586447
41	0xbd085bcf	-0.03329068
42	0x3ddac679	0.10682387
43	0xbe1751b8	-0.14777267
44	0x3dd7c9df	0.10536551
45	0x3e63a391	0.22230364
46	0xbd128f60	-0.035781264
47	0x3c9751d4	0.018471636
48	0xbddb8e19	-0.10720462
49	0x3b1dfbdb	0.0024106416
50	0x3da68106	0.08130078
51	0x3e2e966f	0.17049573
52	0x3e6a8810	0.22903466
53	0x3b08b351	0.0020858834
54	0x3db0600d	0.0861207
55	0x3d81f4e4	0.06345537
56	0x3da39a13	0.07988372
57	0x3d9d638f	0.07685005
58	0x3c168c33	0.0091887
59	0xbe201b91	-0.15635516
60	0xbd9fef59	-0.07809324
61	0xbdb16f35	-0.08663789
62	0x3c01eba6	0.007929718
63	0xbe4be993	-0.1991332
64	0xbca20284	-0.01977659
65	0xbd9ea96d	-0.07747159
66	0xbd892ffa	-0.06698604
67	0xbdf2a19c	-0.11847231
68	0xbc0bee8e	-0.008540763
69	0xbea69c9e	-0.32541364
70	0xbc23aade	-0.009989468
71	0x3c9b43bb	0.018953195
72	0xbd283f52	-0.041076012
73	0x3e61ea91	0.22062136
74	0xbe035d42	-0.12828544
75	0xbe32773f	-0.17428301
76	0x3da06bbf	0.07833051
77	0xbd41fd95	-0.047360975
78	0x3e17dd9b	0.1483063
79	0x3e383999	0.17990722
80	0x3d4c2d0e	0.049847655
81	0x3ef134b3	0.4711052
82	0xbc82f21b	-0.015984586
83	0xbdb61973	-0.08891573
84	0xbd1f50fb	-0.03889559
85	0x3d52758e	0.05138164
86	0x3c693c02	0.014235498
87	0xbd30325f	-0.043016788
88	0xbdad7123	-0.08468845
89	0x3e48a264	0.19593197
90	0xbc3e9354	-0.011631805
91	0x3cf027a6	0.02931578
92	0x3ec7437f	0.38918683
93	0x3e801501	0.25016025
94	0xbdc4472c	-0.095838875
95	0xbeacb7e2	-0.3373404
96	0xbd6808c9	-0.056649003
97	0xbe72ef29	-0.23724045
98	0xbd95a778	-0.07307333
99	0xbd2583e3	-0.04040898
100	0x3cae538e	0.021280076
101	0x3dab39d8	0.08360642
102	0xbda77bb7	-0.081778936
103	0xbde840e8	-0.11340505
104	0xbde6e710	-0.112745404
105	0x3ed203d0	0.41018534
106	0x3dd81996	0.10551755
107	0x3d9585e8	0.07300931
108	0xbc398ec6	-0.011325544
109	0x3da2d965	0.07951621
110	0xbddab837	-0.106796674
111	0x3cda06b5	0.026614526
112	0x3d73e013	0.059539866
113	0xbd2fb648	-0.042898446
114	0x3ba11406	0.004915717
115	0x3e4c400d	0.19946308
116	0x3e8b4bd8	0.27206302
117	0x3d8267fb	0.06367489
118	0x3e481bc1	0.19541837
119	0xbd9a8f28	-0.07546836
120	0xbdd51638	-0.104046285
121	0xbe4216bb	-0.18953983
122	0x3e0ad5e5	0.13558157
123	0xbd0522ca	-0.03250388
124	0xbd36a061	-0.044586543
125	0xbe381229	-0.17975678
126	0xbdbab325	-0.091162
127	0x3e3046e0	0.17214537
128	0x3d651236	0.05592557
129	0xbc9e3fcb	-0.019317528
130	0xbd9577cf	-0.07298242
131	0x3e723fa9	0.23657097
132	0x3e272726	0.16323528
133	0x3d1780a2	0.03698791
134	0xbe61c7b7	-0.22048841
135	0x3d1b66c8	0.037939817
136	0xbea6ed01	-0.32602695
137	0xbb084162	-0.0020790924
138	0xbe7428c8	-0.23843682
139	0xbd0a6d83	-0.033795845
140	0x3df07592	0.11741175
141	0x3ddcca74	0.10780802
142	0xbd00b50c	-0.03142266
143	0xbd9d9fc0	-0.076964855
144	0xbd92ad47	-0.07161956
145	0x3ebc50c2	0.36780363
146	0xbe203359	-0.15644588
147	0x3c9d9d10	0.019239932
148	0x3e376677	0.17910181
149	0x3e8a97db	0.27068982
150	0x3d4c5ea5	0.049894948
151	0x3e3bab51	0.18327071
152	0x3e18d26b	0.14924018
153	0x3e9195e0	0.28434658
154	0x3e8c85b1	0.27445748
155	0x3ede6937	0.43439648
156	0xbc774c49	-0.015093871
157	0xbde53f5e	-0.11193727
158	0x3de94e34	0.11391869
159	0xbc6a0699	-0.0142838
160	0xbcd37e64	-0.025817104
161	0xbc8c4314	-0.01712183
162	0xbd7734e2	-0.060353167
163	0xbe4eaeba	-0.2018384
164	0xbdb0f074	-0.08639613
165	0x3dbb6a47	0.0915113
166	0x3d3afde6	0.045652293
167	0x3e5f7d10	0.21825051
168	0x3db500d8	0.088380516
169	0x3d6d1491	0.05788094
170	0xbdc3faa7	-0.095692925
171	0xbdbf9332	-0.09354247
172	0x3dfb45fe	0.12269209
173	0xbe2703d0	-0.16310048
174	0xbe7250f4	-0.23663694
175	0x3cb9d0c2	0.022682551
176	0xbe336522	-0.17519048
177	0xbe04918c	-0.12946147
178	0x3ce0bb73	0.027433133
179	0x3e639170	0.22223449
180	0x3e9a8f89	0.30187634
181	0xbe0d2481	-0.13783456
182	0x3efda81a	0.49542314
183	0x3d52a878	0.051430196
184	0xbe3b1ef4	-0.18273526
185	0xbddfa9f3	-0.10921087
186	0xbd56d7db	-0.05245195
187	0x3dc6fd03	0.09716227
188	0xbe602275	-0.21888144
189	0xbdab73e9	-0.083717175
190	0xbd62c4ae	-0.05536335
191	0xbdc0e1bc	-0.094180554
192	0xbe82155b	-0.25406918
193	0xbd501d4a	-0.050809182
194	0x3ca24a9b	0.019810965
195	0x3db872fd	0.09006307
196	0x3e0e8f80	0.13921928
197	0xbe95194d	-0.29120865
198	0x3dd44e06	0.10366444
199	0x3e9f2acb	0.31087336
200	0xbe5c477e	-0.21511647
201	0x3ca577ee	0.020198788
202	0x3de13788	0.1099692
203	0x3cd1e9e9	0.025624232
204	0xbda3ead2	-0.08003773
205	0xbdb1a66f	-0.08674323
206	0xbd81ee56	-0.06344287
207	0xbe17c81b	-0.14822428
208	0x3d2eb7d9	0.0426558
209	0xbe857443	-0.26065263
210	0x3e3dab63	0.1852241
211	0x3e56e774	0.2098673
212	0xbe3a4fe2	-0.18194535
213	0xbc8f8f01	-0.017524244
214	0xbe800833	-0.25006256
215	0xbe0a754c	-0.13521308
216	0xbdba38c2	-0.09092857
217	0x3d3c99a4	0.04604496
218	0x3da972c5	0.08273844
219	0xbcc6b345	-0.024255404
220	0xbdb3c8d5	-0.0877854
221	0xbd0e7269	-0.03477708
222	0xba8d4802	-0.0010778906
223	0x3e9d17ad	0.30682126
224	0xbd9461fe	-0.07245253
225	0x3dd3bb0b	0.1033841
226	0x3c90c6da	0.017672945
227	0x3dbe10fb	0.092805825
228	0xbc1b5bb9	-0.009482318
229	0xbec80fcd	-0.39074555
230	0x3dfe9de3	0.12432458
231	0x3df25344	0.11832288
232	0xbddd8c0a	-0.10817726
233	0x3c90c86a	0.01767369
234	0x3e1710ae	0.14752457
235	0xbeccf829	-0.4003308
236	0x3e3b9dd7	0.1832193
237	0x3e87e9f0	0.26545668
238	0xbedc3ff9	-0.43017557
239	0x3eab0e2a	0.33409244
240	0xbe8a715d	-0.27039614
241	0xbc8ea72b	-0.017413696
242	0xbdc69158	-0.09695691
243	0xbe31b197	-0.17352901
244	0xbe65f4da	-0.22456685
245	0xbddce8e2	-0.10786606
246	0xbcd30214	-0.025757827
247	0xbde4b6c5	-0.11167673
248	0x3de85d77	0.11345952
249	0xbd34219c	-0.043977365
250	0x3bd79548	0.006579075
251	0x3e1543af	0.145766
252	0xbe16a050	-0.14709592
253	0x3d2c943c	0.042133555
254	0xbf17921d	-0.59207326
255	0xbe09229f	-0.13392113

network_body._body_endoder.seq_layers.0.bias f4 [256]
0	0x00000000	0.0
1	0x00000000	0.0
2	0x00000000	0.0
3	0x00000000	0.0
4	0x00000000	0.0
5	0x00000000	0.0
6	0x00000000	0.0
7	0x00000000	0.0
8	0x00000000	0.0
9	0x00000000	0.0
10	0x00000000	0.0
11	0x00000000	0.0
12	0x00000000	0.0
13	0x00000000	0.0
14	0x00000000	0.0
15	0x00000000	0.0
16	0x00000000	0.0
17	0x00000000	0.0
18	0x00000000	0.0
19	0x00000000	0.0
20	0x00000000	0.0
21	0x00000000	0.0
22	0x00000000	0.0
23	0x00000000	0.0
24	0x00000000	0.0
25	0x00000000	0.0
26	0x00000000	0.0
27	0x00000000	0.0
28	0x00000000	0.0
29	0x00000000	0.0
30	0x00000000	0.0
31	0x00000000	0.0
32	0x00000000	0.0
33	0x00000000	0.0
34	0x00000000	0.0
35	0x00000000	0.0
36	0x00000000	0.0
37	0x00000000	0.0
38	0x00000000	0.0
39	0x00000000	0.0
40	0x00000000	0.0
41	0x00000000	0.0
42	0x00000000	0.0
43	0x00000000	0.0
44	0x00000000	0.0
45	0x00000000	0.0
46	0x00000000	0.0
47	0x00000000	0.0
48	0x00000000	0.0
49	0x00000000	0.0
50	0x00000000	0.0
51	0x00000000	0.0
52	0x00000000	0.0
53	0x00000000	0.0
54	0x00000000	0.0
55	0x00000000	0.0
56	0x00000000	0.0
57	0x00000000	0.0
58	0x00000000	0.0
59	0x00000000	0.0
60	0x00000000	0.0
61	0x00000000	0.0
62	0x00000000	0.0
63	0x00000000	0.0
64	0x00000000	0.0
65	0x00000000	0.0
66	0x00000000	0.0
67	0x00000000	0.0
68	0x00000000	0.0
69	0x00000000	0.0
70	0x00000000	0.0
71	0x00000000	0.0
72	0x00000000	0.0
73	0x00000000	0.0
74	0x00000000	0.0
75	0x00000000	0.0
76	0x00000000	0.0
77	0x00000000	0.0
78	0x00000000	0.0
79	0x00000000	0.0
80	0x00000000	0.0
81	0x00000000	0.0
82	0x00000000	0.0
83	0x00000000	0.0
84	0x00000000	0.0
85	0x00000000	0.0
86	0x00000000	0.0
87	0x00000000	0.0
88	0x00000000	0.0
89	0x00000000	0.0
90	0x00000000	0.0
91	0x00000000	0.0
92	0x00000000	0.0
93	0x00000000	0.0
94	0x00000000	0.0
95	0x00000000	0.0
96	0x00000000	0.0
97	0x00000000	0.0
98	0x00000000	0.0
99	0x00000000	0.0
100	0x00000000	0.0
101	0x00000000	0.0
102	0x00000000	0.0
103	0x00000000	0.0
104	0x00000000	0.0
105	0x00000000	0.0
106	0x00000000	0.0
107	0x00000000	0.0
108	0x00000000	0.0
109	0x00000000	0.0
110	0x00000000	0.0
111	0x00000000	0.0
112	0x00000000	0.0
113	0x00000000	0.0
114	0x00000000	0.0
115	0x00000000	0.0
116	0x00000000	0.0
117	0x00000000	0.0
118	0x00000000	0.0
119	0x00000000	0.0
120	0x00000000	0.0
121	0x00000000	0.0
122	0x00000000	0.0
123	0x00000000	0.0
124	0x00000000	0.0
125	0x00000000	0.0
126	0x00000000	0.0
127	0x00000000	0.0
128	0x00000000	0.0
129	0x00000000	0.0
130	0x00000000	0.0
131	0x00000000	0.0
132	0x00000000	0.0
133	0x00000000	0.0
134	0x00000000	0.0
135	0x00000000	0.0
136	0x00000000	0.0
137	0x00000000	0.0
138	0x00000000	0.0
139	0x00000000	0.0
140	0x00000000	0.0
141	0x00000000	0.0
142	0x00000000	0.0
143	0x00000000	0.0
144	0x00000000	0.0
145	0x00000000	0.0
146	0x00000000	0.0
147	0x00000000	0.0
148	0x00000000	0.0
149	0x00000000	0.0
150	0x00000000	0.0
151	0x00000000	0.0
152	0x00000000	0.0
153	0x00000000	0.0
154	0x00000000	0.0
155	0x00000000	0.0
156	0x00000000	0.0
157	0x00000000	0.0
158	0x00000000	0.0
159	0x00000000	0.0
160	0x00000000	0.0
161	0x00000000	0.0
162	0x00000000	0.0
163	0x00000000	0.0
164	0x00000000	0.0
165	0x00000000	0.0
166	0x00000000	0.0
167	0x00000000	0.0
168	0x00000000	0.0
169	0x00000000	0.0
170	0x00000000	0.0
171	0x00000000	0.0
172	0x00000000	0.0
173	0x00000000	0.0
174	0x00000000	0.0
175	0x00000000	0.0
176	0x00000000	0.0
177	0x00000000	0.0
178	0x00000000	0.0
179	0x00000000	0.0
180	0x00000000	0.0
181	0x00000000	0.0
182	0x00000000	0.0
183	0x00000000	0.0
184	0x00000000	0.0
185	0x00000000	0.0
186	0x00000000	0.0
187	0x00000000	0.0
188	0x00000000	0.0
189	0x00000000	0.0
190	0x00000000	0.0
191	0x00000000	0.0
192	0x00000000	0.0
193	0x00000000	0.0
194	0x00000000	0.0
195	0x00000000	0.0
196	0x00000000	0.0
197	0x00000000	0.0
198	0x00000000	0.0
199	0x00000000	0.0
200	0x00000000	0.0
201	0x00000000	0.0
202	0x00000000	0.0
203	0x00000000	0.0
204	0x00000000	0.0
205	0x00000000	0.0
206	0x00000000	0.0
207	0x00000000	0.0
208	0x00000000	0.0
209	0x00000000	0.0
210	0x00000000	0.0
211	0x00000000	0.0
212	0x00000000	0.0
213	0x00000000	0.0
214	0x00000000	0.0
215	0x00000000	0.0
216	0x00000000	0.0
217	0x00000000	0.0
218	0x00000000	0.0
219	0x00000000	0.0
220	0x00000000	0.0
221	0x00000000	0.0
222	0x00000000	0.0
223	0x00000000	0.0
224	0x00000000	0.0
225	0x00000000	0.0
226	0x00000000	0.0
227	0x00000000	0.0
228	0x00000000	0.0
229	0x00000000	0.0
230	0x00000000	0.0
231	0x00000000	0.0
232	0x00000000	0.0
233	0x00000000	0.0
234	0x00000000	0.0
235	0x00000000	0.0
236	0x00000000	0.0
237	0x00000000	0.0
238	0x00000000	0.0
239	0x00000000	0.0
240	0x00000000	0.0
241	0x00000000	0.0
242	0x00000000	0.0
243	0x00000000	0.0
244	0x00000000	0.0
245	0x00000000	0.0
246	0x00000000	0.0
247	0x00000000	0.0
248	0x00000000	0.0
249	0x00000000	0.0
250	0x00000000	0.0
251	0x00000000	0.0
252	0x00000000	0.0
253	0x00000000	0.0
254	0x00000000	0.0
255	0x00000000	0.0

network_body._body_endoder.seq_layers.2.weight f4 [256, 256]
0	0xbc9f5066	-0.019447517
1	0x3d51533f	0.05110478
2	0xbde0ba99	-0.10973091
3	0xbcbb8064	-0.02288837
4	0x3d8f2a68	0.0699051
5	0xbd4a8b30	-0.049449146
6	0x3d4297c8	0.04750803
7	0x3d197046	0.037460588
8	0xbe3ac066	-0.18237457
9	0xbd8cf683	-0.06882956
10	0x3d7b7a14	0.06139572
11	0x3d23b95a	0.039971687
12	0xbd2486fd	-0.040167797
13	0x3e217647	0.15767775
14	0x3c11ce02	0.008899214
15	0x3dbdec15	0.09273545
16	0xbafcb93f	-0.0019281282
17	0xbc177190	-0.009243384
18	0x3c9008a1	0.01758224
19	0xbcdcbddb	-0.026945999
20	0xbdbcbc00	-0.09215546
21	0xbc3d08f2	-0.011537777
22	0x3b3f8c1a	0.0029227794
23	0xbd731993	-0.05935056
24	0x3df0f7a9	0.117659874
25	0xbc357bdf	-0.011076896
26	0xbdee7eff	-0.11645316
27	0xbdbcbda2	-0.09215857
28	0x3d183074	0.037155584
29	0x3d08a66d	0.03336184
30	0xbd395970	-0.04525131
31	0xbd7e8848	-0.062141687
32	0xbd21b746	-0.039481424
33	0xbce5c529	-0.028048115
34	0x3db86b27	0.09004813
35	0xbc81ed1e	-0.015860137
36	0xbdecd927	-0.11564856
37	0xbc6d8492	-0.014496939
38	0xbc302fc7	-0.0107535785
39	0x3d75f61c	0.06004916
40	0x3df9e6d8	0.12202233
41	0xbd58b817	-0.052909937
42	0xbd566148	-0.05233887
43	0xbc392d64	-0.011302326
44	0x3da6c7ae	0.08143555
45	0x3da1e212	0.079044476
46	0x3d03976f	0.03212684
47	0x3dd048a6	0.101701066
48	0x3ca94641	0.020663382
49	0x3e1e80d6	0.15478835
50	0x3e0cb059	0.13739146
51	0x3d1ca658	0.038244575
52	0x3c644715	0.013932963
53	0xbd0cdd8e	-0.03439098
54	0xbd884705	-0.06654171
55	0x3d7c6ae6	0.061625384
56	0x3d5c5119	0.05378828
57	0xbb12ca96	-0.0022398583
58	0xbc49619c	-0.012291338
59	0x3ba00968	0.004883934
60	0x3dd7f490	0.105446935
61	0xbb36bcc1	-0.0027883502
62	0x3d71faae	0.059076957
63	0x3d845cb7	0.064629965
64	0x3da849da	0.08217211
65	0x3da3f70c	0.08006105
66	0xbb6d6e52	-0.0036229086
67	0x3d871cef	0.065973155
68	0xbbc40088	-0.0059815086
69	0xbcf01e82	-0.029311422
70	0x3e0dfacc	0.13865203
71	0x3dcdf2bb	0.10056063
72	0xbb849b9b	-0.00404687
73	0x3da8d04b	0.08242854
74	0x3afdc306	0.001936049
75	0x3d5b34ad	0.053517032
76	0x3d162163	0.036652934
77	0xbd361918	-0.044457525
78	0xbd706a45	-0.058695097
79	0xbd74fd83	-0.05981208
80	0x3ca7dda1	0.020491423
81	0x3c9422ab	0.018082937
82	0xbc50d0dd	-0.012745109
83	0xbd5a295c	-0.0532621
84	0x3c1e2e31	0.009654568
85	0xbdbdacba	-0.092614606
86	0x3d95bfab	0.073119484
87	0x3cefc225	0.02926738
88	0xbd8cfce4	-0.068841726
89	0xbd843c1b	-0.06456777
90	0x3d82620c	0.06366357
91	0x3e00c380	0.12574577
92	0xbd9bab06	-0.076009795
93	0xbd71b018	-0.059005827
94	0x3d9c1e43	0.076229595
95	0x3d852b48	0.06502396
96	0xbbb90358	-0.0056461506
97	0xbcefe658	-0.029284641
98	0xbdc18f3c	-0.09451148
99	0xbb5f69a9	-0.0034090078
100	0x3c930195	0.01794509
101	0x3d68c035	0.056823928
102	0xbca2ae41	-0.019858481
103	0xbd334beb	-0.043773573
104	0xbd241e20	-0.040067792
105	0xbd66cf47	-0.05635002
106	0xbdd0d441	-0.10196734
107	0x3c9da947	0.019245757
108	0x3d0eb800	0.034843445
109	0x3c82d40e	0.015970256
110	0xbc01e066	-0.007927036
111	0xbd78f06f	-0.06077617
112	0xbd0d5ec9	-0.034514222
113	0x3d627868	0.05529061
114	0x3e078b79	0.13236798
115	0xbd966cc2	-0.07344963
116	0x3d0fcb1e	0.035105817
117	0xbc1b0c4d	-0.009463382
118	0xbe28c25a	-0.16480389
119	0xbcae5c45	-0.021284232
120	0x3da3b7c6	0.079940364
121	0xbc97d923	-0.018536156
122	0x3de0f454	0.10984102
123	0xbd059bb8	-0.032619208
124	0x3df18315	0.1179258
125	0xbda65d57	-0.08123272
126	0xbba6e646	-0.0050933687
127	0x3cacf2fd	0.02111196
128	0xbcac82ef	-0.021058528
129	0xbcf09940	-0.02936995
130	0x3c3274b5	0.010892083
131	0xbde99d1c	-0.11406919
132	0x3cb08aa9	0.021550493
133	0x3d6bea93	0.057596754
134	0x3d59570a	0.053061523
135	0xbc6a6a06	-0.0143075045
136	0xbc69c233	-0.014267492
137	0xbd4099b4	-0.047021583
138	0x3b60fe37	0.0034331211
139	0xbd56f526	-0.052479886
140	0xbca32637	-0.019915683
141	0xbc8c1aee	-0.017102685
142	0x3cd8c3b0	0.026460499
143	0xbd5fc503	-0.054631244
144	0x3d35b189	0.044358764
145	0x3c03299f	0.008005529
146	0x3d0ad2f5	0.03389259
147	0x3cf18d91	0.02948645
148	0x3bfa9842	0.007647545
149	0x3dcbd1bf	0.09952115
150	0xbca403e1	-0.02002138
151	0xbc3a39c6	-0.011366313
152	0xbcc39e24	-0.023879118
153	0xbc750552	-0.014954882
154	0x3c95ea6b	0.018300256
155	0xbd9bb082	-0.076020256
156	0xbdb45112	-0.088045254
157	0x3cf65cc5	0.030073533
158	0xbc2bab9c	-0.010477927
159	0xbd6d3d42	-0.057919748
160	0xbc52f3d0	-0.012875512
161	0xbd9ffd28	-0.078119576
162	0x3d63e781	0.0556407
163	0xbbe93e36	-0.007118012
164	0x3d3379ba	0.04381726
165	0x3df3415b	0.118777
166	0x3da46dfa	0.08028789
167	0x3d914976	0.0709409
168	0x3e0b912c	0.13629597
169	0xbd53ca6c	-0.051706716
170	0x3c479191	0.012180702
171	0xbca24873	-0.019809937
172	0x3c422322	0.011849197
173	0x3d116c4d	0.035503674
174	0xbda3a3e8	-0.07990247
175	0x3c1786c6	0.009248441
176	0x3d383f7c	0.04498242
177	0xbbcd8b03	-0.006272675
178	0xbd0fb6ed	-0.03508656
179	0x3d54f0ae	0.051987343
180	0xbc277be1	-0.010222406
181	0x3d9d7b36	0.07689516
182	0x3d1b1614	0.037862852
183	0x3d7ba62a	0.061437763
184	0x3ce10b68	0.02747126
185	0xbb70909c	-0.0036707288
186	0xbd24ca71	-0.040232126
187	0xbd16d00c	-0.036819503
188	0xbc710e12	-0.014712827
189	0xbd837557	-0.06418865
190	0x3d016524	0.031590596
191	0x3d7b76cd	0.061392594
192	0x3d61f06e	0.055160932
193	0xbc518d09	-0.012789973
194	0xbd4351dd	-0.047685493
195	0xbd91a648	-0.07111794
196	0x3cd9bb3a	0.026578534
197	0xbdb3eda5	-0.087855615
198	0x3c89896d	0.016789163
199	0x3d8b3e70	0.067990184
200	0xbddf64cc	-0.10907897
201	0x3af7a152	0.0018892682
202	0xbd694f72	-0.05696053
203	0xbd82119a	-0.063510135
204	0xbc5e45fd	-0.013566491
205	0xbde8c52e	-0.11365734
206	0xbe19cdd7	-0.15019928
207	0x3bb83fbd	0.0056228326
208	0xbd901fe4	-0.07037333
209	0x3dbbfca4	0.09179047
210	0x3df3b9b8	0.119006574
211	0x3b58dca2	0.0033090492
212	0x3d042957	0.032265987
213	0x3d585c61	0.052822474
214	0x3d4a6ce4	0.049420252
215	0xbbe60354	-0.0070194397
216	0xbdc22cf8	-0.09481233
217	0x3c4f8229	0.01266531
218	0x3d9b7b8c	0.07591924
219	0x3d0162e4	0.03158845
220	0xbc33209c	-0.010933068
221	0x3dcc5316	0.09976785
222	0xbd645c85	-0.055752296
223	0x3ca5b103	0.020226007
224	0x3df9651a	0.12177487
225	0xbcb17d0b	-0.02166607
226	0x3ccdce56	0.025122803
227	0xbd363d1b	-0.04449187
228	0xbca5bd94	-0.020232
229	0xbde2999c	-0.11064455
230	0xbd035b84	-0.032069698
231	0x3d496aec	0.049174234
232	0x3d56916b	0.052384775
233	0xbd92c8ef	-0.07167231
234	0x3cb6281a	0.022235919
235	0xbb2ec304	-0.0026666531
236	0x3d726ea5	0.05918755
237	0xbdbc7597	-0.09202116
238	0xbdd210e1	-0.10257126
239	0xbd9dad91	-0.07699121
240	0xbde5d99d	-0.11223147
241	0x3cf58200	0.029969215
242	0x3cbc84d3	0.023012554
243	0x3dcabc9f	0.09899258
244	0xbd260985	-0.040536422
245	0x3bac3d95	0.0052563646
246	0x3d23235e	0.03982865
247	0xbd7fce06	-0.06245234
248	0x3c1f9f26	0.009742534
249	0x3c9c23a4	0.019059964
250	0x3da0da4f	0.07854139
251	0x3c4defdb	0.012569393
252	0x3d6d43f2	0.057926126
253	0x3d43d12e	0.04780691
254	0xbcaffc48	-0.021482602
255	0xbd69c9f4	-0.057077363

network_body._body_endoder.seq_layers.2.bias f4 [256]
0	0x00000000	0.0
1	0x00000000	0.0
2	0x00000000	0.0
3	0x00000000	0.0
4	0x00000000	0.0
5	0x00000000	0.0
6	0x00000000	0.0
7	0x00000000	0.0
8	0x00000000	0.0
9	0x00000000	0.0
10	0x00000000	0.0
11	0x00000000	0.0
12	0x00000000	0.0
13	0x00000000	0.0
14	0x00000000	0.0
15	0x00000000	0.0
16	0x00000000	0.0
17	0x00000000	0.0
18	0x00000000	0.0
19	0x00000000	0.0
20	0x00000000	0.0
21	0x00000000	0.0
22	0x00000000	0.0
23	0x00000000	0.0
24	0x00000000	0.0
25	0x00000000	0.0
26	0x00000000	0.0
27	0x00000000	0.0
28	0x00000000	0.0
29	0x00000000	0.0
30	0x00000000	0.0
31	0x00000000	0.0
32	0x00000000	0.0
33	0x00000000	0.0
34	0x00000000	0.0
35	0x00000000	0.0
36	0x00000000	0.0
37	0x00000000	0.0
38	0x00000000	0.0
39	0x00000000	0.0
40	0x00000000	0.0
41	0x00000000	0.0
42	0x00000000	0.0
43	0x00000000	0.0
44	0x00000000	0.0
45	0x00000000	0.0
46	0x00000000	0.0
47	0x00000000	0.0
48	0x00000000	0.0
49	0x00000000	0.0
50	0x00000000	0.0
51	0x00000000	0.0
52	0x00000000	0.0
53	0x00000000	0.0
54	0x00000000	0.0
55	0x00000000	0.0
56	0x00000000	0.0
57	0x00000000	0.0
58	0x00000000	0.0
59	0x00000000	0.0
60	0x00000000	0.0
61	0x00000000	0.0
62	0x00000000	0.0
63	0x00000000	0.0
64	0x00000000	0.0
65	0x00000000	0.0
66	0x00000000	0.0
67	0x00000000	0.0
68	0x00000000	0.0
69	0x00000000	0.0
70	0x00000000	0.0
71	0x00000000	0.0
72	0x00000000	0.0
73	0x00000000	0.0
74	0x00000000	0.0
75	0x00000000	0.0
76	0x00000000	0.0
77	0x00000000	0.0
78	0x00000000	0.0
79	0x00000000	0.0
80	0x00000000	0.0
81	0x00000000	0.0
82	0x00000000	0.0
83	0x00000000	0.0
84	0x00000000	0.0
85	0x00000000	0.0
86	0x00000000	0.0
87	0x00000000	0.0
88	0x00000000	0.0
89	0x00000000	0.0
90	0x00000000	0.0
91	0x00000000	0.0
92	0x00000000	0.0
93	0x00000000	0.0
94	0x00000000	0.0
95	0x00000000	0.0
96	0x00000000	0.0
97	0x00000000	0.0
98	0x00000000	0.0
99	0x00000000	0.0
100	0x00000000	0.0
101	0x00000000	0.0
102	0x00000000	0.0
103	0x00000000	0.0
104	0x00000000	0.0
105	0x00000000	0.0
106	0x00000000	0.0
107	0x00000000	0.0
108	0x00000000	0.0
109	0x00000000	0.0
110	0x00000000	0.0
111	0x00000000	0.0
112	0x00000000	0.0
113	0x00000000	0.0
114	0x00000000	0.0
115	0x00000000	0.0
116	0x00000000	0.0
117	0x00000000	0.0
118	0x00000000	0.0
119	0x00000000	0.0
120	0x00000000	0.0
121	0x00000000	0.0
122	0x00000000	0.0
123	0x00000000	0.0
124	0x00000000	0.0
125	0x00000000	0.0
126	0x00000000	0.0
127	0x00000000	0.0
128	0x00000000	0.0
129	0x00000000	0.0
130	0x00000000	0.0
131	0x00000000	0.0
132	0x00000000	0.0
133	0x00000000	0.0
134	0x00000000	0.0
135	0x00000000	0.0
136	0x00000000	0.0
137	0x00000000	0.0
138	0x00000000	0.0
139	0x00000000	0.0
140	0x00000000	0.0
141	0x00000000	0.0
142	0x00000000	0.0
143	0x00000000	0.0
144	0x00000000	0.0
145	0x00000000	0.0
146	0x00000000	0.0
147	0x00000000	0.0
148	0x00000000	0.0
149	0x00000000	0.0
150	0x00000000	0.0
151	0x00000000	0.0
152	0x00000000	0.0
153	0x00000000	0.0
154	0x00000000	0.0
155	0x00000000	0.0
156	0x00000000	0.0
157	0x00000000	0.0
158	0x00000000	0.0
159	0x00000000	0.0
160	0x00000000	0.0
161	0x00000000	0.0
162	0x00000000	0.0
163	0x00000000	0.0
164	0x00000000	0.0
165	0x00000000	0.0
166	0x00000000	0.0
167	0x00000000	0.0
168	0x00000000	0.0
169	0x00000000	0.0
170	0x00000000	0.0
171	0x00000000	0.0
172	0x00000000	0.0
173	0x00000000	0.0
174	0x00000000	0.0
175	0x00000000	0.0
176	0x00000000	0.0
177	0x00000000	0.0
178	0x00000000	0.0
179	0x00000000	0.0
180	0x00000000	0.0
181	0x00000000	0.0
182	0x00000000	0.0
183	0x00000000	0.0
184	0x00000000	0.0
185	0x00000000	0.0
186	0x00000000	0.0
187	0x00000000	0.0
188	0x00000000	0.0
189	0x00000000	0.0
190	0x00000000	0.0
191	0x00000000	0.0
192	0x00000000	0.0
193	0x00000000	0.0
194	0x00000000	0.0
195	0x00000000	0.0
196	0x00000000	0.0
197	0x00000000	0.0
198	0x00000000	0.0
199	0x00000000	0.0
200	0x00000000	0.0
201	0x00000000	0.0
202	0x00000000	0.0
203	0x00000000	0.0
204	0x00000000	0.0
205	0x00000000	0.0
206	0x00000000	0.0
207	0x00000000	0.0
208	0x00000000	0.0
209	0x00000000	0.0
210	0x00000000	0.0
211	0x00000000	0.0
212	0x00000000	0.0
213	0x00000000	0.0
214	0x00000000	0.0
215	0x00000000	0.0
216	0x00000000	0.0
217	0x00000000	0.0
218	0x00000000	0.0
219	0x00000000	0.0
220	0x00000000	0.0
221	0x00000000	0.0
222	0x00000000	0.0
223	0x00000000	0.0
224	0x00000000	0.0
225	0x00000000	0.0
226	0x00000000	0.0
227	0x00000000	0.0
228	0x00000000	0.0
229	0x00000000	0.0
230	0x00000000	0.0
231	0x00000000	0.0
232	0x00000000	0.0
233	0x00000000	0.0
234	0x00000000	0.0
235	0x00000000	0.0
236	0x00000000	0.0
237	0x00000000	0.0
238	0x00000000	0.0
239	0x00000000	0.0
240	0x00000000	0.0
241	0x00000000	0.0
242	0x00000000	0.0
243	0x00000000	0.0
244	0x00000000	0.0
245	0x00000000	0.0
246	0x00000000	0.0
247	0x00000000	0.0
248	0x00000000	0.0
249	0x00000000	0.0
250	0x00000000	0.0
251	0x00000000	0.0
252	0x00000000	0.0
253	0x00000000	0.0
254	0x00000000	0.0
255	0x00000000	0.0

action_model._continuous_distribution.log_sigma f4 [1, 3]
0	0x00000000	0.0
1	0x00000000	0.0
2	0x00000000	0.0

action_model._continuous_distribution.mu.weight f4 [3, 256]
0	0x3af08a27	0.001835172
1	0xba546997	-0.00081028923
2	0x3b6737b0	0.0035280995
3	0xba92f480	-0.0011211783
4	0x3a4844f3	0.0007639669
5	0x3b956c4a	0.004560028
6	0x3b0ca00d	0.0021457702
7	0xbbc5e4fd	-0.0060392604
8	0xbb728f0b	-0.003701153
9	0xbc201175	-0.009769787
10	0xba1ff494	-0.00061018136
11	0xbc93dfdc	-0.01805108
12	0x3c803b18	0.015653178
13	0xbc818382	-0.015809778
14	0xbc8cb54e	-0.017176297
15	0xbbbf41ae	-0.005836687
16	0x3c7159ef	0.0147309145
17	0xbc087a1a	-0.0083298925
18	0x3b98a23e	0.0046580127
19	0x3b873f70	0.0041274354
20	0xbbb67383	-0.0055679693
21	0x3cce0e32	0.025153253
22	0x3c2d327c	0.010571118
23	0xbccee89b	-0.0252574
24	0x3be99145	0.007127913
25	0x3c178903	0.009248975
26	0x3c0894e7	0.008336282
27	0xbbd2f995	-0.006438444
28	0xbb2f0c89	-0.0026710352
29	0x3a41d225	0.00073936797
30	0xbbe772c8	-0.0070632435
31	0x39a99617	0.00032346018
32	0xbbb1310a	-0.0054074572
33	0xbc1b94df	-0.009495943
34	0xbc06cd27	-0.008227623
35	0x3b23d39d	0.0024997958
36	0x3c3ecacc	0.01164503
37	0xbcbe6d77	-0.023245556
38	0xbb8d7789	-0.004317228
39	0x3a49dc87	0.00077004026
40	0x3cc2151b	0.023691704
41	0xbcab0f03	-0.020881182
42	0x3c4ad6cb	0.012380312
43	0x3cbb76bb	0.022883764
44	0xbc075c7f	-0.008261799
45	0xbc4639b7	-0.012098721
46	0xbc6f54ca	-0.014607618
47	0x3b6c6a88	0.003607424
48	0x3c06e1c8	0.008232541
49	0xbc313663	-0.010816189
50	0x3b886f15	0.0041636326
51	0x3c31f88e	0.010862483
52	0x3a512f88	0.00079798
53	0x3a91a936	0.0011113051
54	0x3b431348	0.0029766131
55	0x3c11d005	0.008899693
56	0xbc0501cb	-0.008118103
57	0xbc97afd3	-0.018516457
58	0x3ccbd476	0.024881583
59	0xbc0b9c68	-0.008521177
60	0x3c24ea9f	0.010065704
61	0x3c6ea01b	0.014564539
62	0xbbbe70b0	-0.0058117732
63	0x3bb3960d	0.005480534
64	0x3bd858ef	0.0066023986
65	0xbb2c9ddc	-0.0026339209
66	0xbc95db24	-0.018292971
67	0xbb29080b	-0.0025792147
68	0x3c6c7b30	0.014433667
69	0x3bf4f538	0.0074755214
70	0xbbdea400	-0.0067944527
71	0xbbc0c2f4	-0.005882615
72	0xbc2ff651	-0.010739879
73	0x3c4dbfc8	0.012557931
74	0x3c357023	0.011074099
75	0xbbd0712a	-0.0063611465
76	0xbb97fc7f	-0.004638254
77	0xbb3b6476	-0.0028593815
78	0xbcc1eb80	-0.023671865
79	0xbc642208	-0.013924129
80	0xbb7b4e4f	-0.0038346236
81	0x3c82832d	0.01593169
82	0xbc876247	-0.016526354
83	0xbb0ab57f	-0.002116531
84	0x365d0708	3.293566e-06
85	0x3ae58a67	0.0017512561
86	0x3aa1d39f	0.0012346393
87	0x3bbe1f93	0.005802104
88	0x3b664112	0.0035134
89	0x3cbd8d6f	0.02313873
90	0x3c7a90ab	0.015293281
91	0x3c1c5b71	0.009543286
92	0x3c04731a	0.008084083
93	0xbc472b82	-0.012156369
94	0xbb5b2495	-0.0033438553
95	0xbbda6270	-0.0066645667
96	0xbc3e0dcd	-0.01159997
97	0x3cad3b70	0.021146506
98	0x3c4ceb5b	0.012507285
99	0x3baf49f4	0.005349392
100	0x3c432ef1	0.011913047
101	0x3cece1d0	0.02891627
102	0xbc6ba473	-0.0143824695
103	0x3bf3a45d	0.007435365
104	0x3c16b558	0.009198509
105	0x39c7dde1	0.0003812155
106	0x3bba2604	0.0056808013
107	0x3b46d667	0.0030340196
108	0xbcb97811	-0.02264026
109	0xbb7baa8f	-0.0038401221
110	0x3c829a4c	0.015942715
111	0xbc05a92f	-0.008158012
112	0xbc8be58b	-0.017077228
113	0x3c7b1898	0.015325688
114	0xbc45909f	-0.012058406
115	0x3c0756d5	0.008260448
116	0x3c5092d7	0.012730322
117	0xbc1aef6c	-0.009456497
118	0x3cb314b6	0.021860462
119	0x3ba151fc	0.0049231034
120	0xb9ed98b5	-0.00045317938
121	0x3b8b0d44	0.0042435247
122	0xbc59b530	-0.013287827
123	0x3bf25a03	0.007395984
124	0x3baaa3cf	0.005207516
125	0xbbb4463d	-0.005501537
126	0x3b6dccb2	0.0036285338
127	0xbc4f7403	-0.012661937
128	0xbc9e347a	-0.019312132
129	0x3c8c662c	0.017138563
130	0xbccf0fc3	-0.02527607
131	0xbbfe05bd	-0.007752149
132	0xbbd2e49a	-0.006435943
133	0xbace5660	-0.0015742294
134	0xbbdc07e3	-0.0067148074
135	0xbbb2f097	-0.0054608095
136	0xbcc87adf	-0.024472652
137	0xbc149c7a	-0.00907051
138	0x3b803a83	0.003913225
139	0x3caa5347	0.020791663
140	0xbc8d084b	-0.017215868
141	0xbc4f500d	-0.012653363
142	0x3c8c6bf3	0.017141318
143	0x3c03c891	0.008043424
144	0x3c06ce4f	0.008227899
145	0xbc79830b	-0.015228997
146	0x3b383e33	0.0028113245
147	0xbac54bbe	-0.001505248
148	0xbb56d8dd	-0.003278307
149	0x3cb5e10c	0.022202037
150	0x3c05a597	0.0081571555
151	0xbb70e305	-0.0036756408
152	0x3ac5114a	0.001503506
153	0xba68950f	-0.0008872309
154	0xbbb2b3e2	-0.0054535726
155	0x3b0b1754	0.0021223621
156	0x3b1ac4c3	0.0023615814
157	0xba6d185b	-0.0009044462
158	0xbb8d4ff3	-0.004312509
159	0xbc80ea12	-0.015736613
160	0xbba565bf	-0.0050475295
161	0xbc9de7b0	-0.019275516
162	0xbacda4e5	-0.0015689401
163	0x3c2eca35	0.010668327
164	0xbbf1db43	-0.0073808744
165	0xbc71f6e2	-0.014768334
166	0x3c3ca463	0.011513802
167	0xbcabcd48	-0.02097191
168	0x3c182b6b	0.009287695
169	0x3a949929	0.0011337149
170	0xbc15c4e3	-0.00914118
171	0x3c815806	0.015789043
172	0x3cb388df	0.021915851
173	0x3c019052	0.007907944
174	0xbbe481a5	-0.0069734626
175	0x3c009310	0.007847562
176	0x3b3cc918	0.0028806385
177	0x3c6b6578	0.014367454
178	0x3bc500a5	0.0060120397
179	0xbb742672	-0.003725436
180	0x3c60058a	0.013673196
181	0xba0f299b	-0.0005461217
182	0x3a339483	0.0006850438
183	0xbcd15943	-0.025555259
184	0x3af38e53	0.0018581845
185	0x3c7d4a00	0.0154595375
186	0x3b7c34a8	0.0038483534
187	0xbc4a2892	-0.012338774
188	0x3cde4ff0	0.027137727
189	0xbcb5352b	-0.022120079
190	0x3b389951	0.0028167556
191	0xbc1e4130	-0.009659097
192	0xbb04a679	-0.0020240827
193	0x3c1a0aaf	0.009401961
194	0xbc1d3f21	-0.009597571
195	0x3be7f418	0.007078659
196	0x3c288b77	0.010287157
197	0xbb98789f	-0.004653051
198	0xbbfc1d4f	-0.0076939235
199	0x3c2fda38	0.01073318
200	0x3c862b82	0.016378168
201	0xbc17e925	-0.009271895
202	0x3c00de9f	0.007865577
203	0xbbd85935	-0.006602431
204	0x3baa6e3e	0.00520113
205	0x3c5d90c2	0.0135232825
206	0x3b84be5b	0.0040510125
207	0x3b31b241	0.0027114304
208	0xbb29a6e4	-0.0025886828
209	0xbbd5c148	-0.006523285
210	0xbbcb5f46	-0.006206426
211	0x3c03278d	0.008005035
212	0xbba24fc9	-0.004953359
213	0x3b5d1c28	0.0033738706
214	0x3c9e8a04	0.01935292
215	0x3c0fca1b	0.008776213
216	0x3a8586ba	0.0010187246
217	0x3aa70662	0.0012742991
218	0xbb62af63	-0.0034589402
219	0xbc9ad9df	-0.018902717
220	0xbca9a1db	-0.020707062
221	0x3b96d811	0.004603394
222	0x3c3ba594	0.011453051
223	0xbba689f3	-0.005082363
224	0x3b043cb3	0.002017778
225	0x3b4b47be	0.0031018103
226	0xbc82af63	-0.015952772
227	0xbc6453af	-0.013935967
228	0xbc269f39	-0.010169798
229	0x3bccf5eb	0.0062549016
230	0x3a4b573c	0.00077568344
231	0xbbda92ab	-0.006670316
232	0xbbea12fa	-0.0071433755
233	0x3bd12742	0.0063828537
234	0xbb1c774b	-0.0023874815
235	0x3bf3bcdb	0.007438285
236	0xbc3e19b0	-0.011602804
237	0xbac54024	-0.0015049023
238	0x3b3074ef	0.0026925167
239	0x3be40358	0.0069584064
240	0xbc0ee342	-0.008721175
241	0x3c666900	0.01406312
242	0xbbaec660	-0.0053337067
243	0xbc78860f	-0.015168681
244	0x3b329c25	0.0027253714
245	0xbafb797b	-0.0019185984
246	0xbc19ca65	-0.0093866335
247	0x3cefcb87	0.029271854
248	0xbc9a71f3	-0.018853163
249	0xbbddde55	-0.006770889
250	0xbb366581	-0.0027831497
251	0x3acd8152	0.0015678799
252	0x3c7e860b	0.015534888
253	0xbad04483	-0.0015889559
254	0x3b779b03	0.0037781603
255	0xbb775248	-0.0037738252

action_model._continuous_distribution.mu.bias f4 [3]
0	0x00000000	0.0
1	0x00000000	0.0
2	0x00000000	0.0

action_model._discrete_distribution.branches.0.weight f4 [1, 256]
0	0x39c49121	0.00037492163
1	0x3bd387f7	0.0064554173
2	0x39b080fb	0.00033665434
3	0xba63f573	-0.00086959376
4	0xbb969c5b	-0.0045962757
5	0xbbac85a1	-0.0052649532
6	0xbab09636	-0.0013472501
7	0x3b031b42	0.002000526
8	0xbc4aadfa	-0.012370581
9	0x3b8a89a1	0.0042278324
10	0x3bc00643	0.0058601215
11	0xbbb65be2	-0.0055651525
12	0xbb93ebdb	-0.0045142
13	0xb9e8209b	-0.0004427478
14	0xbc5ea805	-0.013589864
15	0xbc695643	-0.014241758
16	0xbbdc186f	-0.00671678
17	0x3c1b517b	0.009479876
18	0x3c0984e4	0.0083935
19	0xbbfee012	-0.007778176
20	0x3bc7378f	0.006079621
21	0xbc249497	-0.010045192
22	0x3b44370f	0.0029940044
23	0xba790bb2	-0.0009500339
24	0x3bb68253	0.005569735
25	0xbbe61840	-0.007021934
26	0xbb3a72d7	-0.0028449798
27	0x3c62fa72	0.013853656
28	0x3c1147e6	0.00886724
29	0x3c4c83c4	0.012482587
30	0xbadf9f4d	-0.0017061025
31	0x3b37d633	0.0028051257
32	0xbb65406d	-0.0034981028
33	0xbb891085	-0.0041828775
34	0x3aa47ddf	0.001254972
35	0x3be2bba7	0.0069193426
36	0x3b84b727	0.004050154
37	0x3b004fdf	0.0019578857
38	0x3bf5a5d5	0.0074965754
39	0xbbb1f29c	-0.0054305326
40	0x3b560d90	0.0032661892
41	0xbbd23233	-0.0064146756
42	0xba944875	-0.0011313098
43	0xbc296136	-0.010338118
44	0x3b836aba	0.0040105255
45	0xbc5f9e02	-0.013648512
46	0x3bd83095	0.0065975883
47	0xbc9aa9e3	-0.018879836
48	0xba80c9d5	-0.0009825776
49	0xbb5475b2	-0.0032418785
50	0xbb3c7882	-0.0028758352
51	0x3ae24d1f	0.0017265416
52	0xbb7fc34f	-0.0039026325
53	0x3b825400	0.0039772987
54	0xb7dd76b8	-2.6400536e-05
55	0x3baf1a33	0.0053436994
56	0x3adac928	0.0016692029
57	0x3bc71bac	0.006076297
58	0x3abbe931	0.0014336464
59	0x3c2fb2e5	0.010723804
60	0x3bea322f	0.0071470956
61	0x3be77890	0.0070639327
62	0xbb0f00ef	-0.0021820625
63	0x3bc74eea	0.0060824053
64	0x3b38a442	0.0028174077
65	0xbb567b8f	-0.0032727455
66	0x3c01fbf3	0.0079336045
67	0xb9ef6b2d	-0.00045665485
68	0xbb3d65db	-0.0028899822
69	0xbba0686b	-0.00489526
70	0x3a14b745	0.0005673061
71	0xbbf1ecfd	-0.0073829875
72	0xbaab4a8b	-0.001306848
73	0x3c43db67	0.011954165
74	0x3b6e3422	0.0036346992
75	0x3afcc6da	0.0019285337
76	0xbb987e4f	-0.004653729
77	0x3b00b1c0	0.0019637197
78	0xbae9be92	-0.0017833284
79	0x3b97c083	0.0046311035
80	0xbb4cf1d8	-0.003127208
81	0x3c04d7df	0.008108108
82	0x3b47d5ee	0.0030492502
83	0xb94cd22f	-0.00019533256
84	0x3b59dadd	0.0033242025
85	0x3bb68d77	0.005571063
86	0xbbfb7355	-0.0076736608
87	0x3a99cc1e	0.0011733805
88	0xbbbbb003	-0.0057277693
89	0xbc25f6c1	-0.0101296315
90	0xbc14fe0c	-0.009093773
91	0x3aec9b98	0.0018051742
92	0xbb835767	-0.004008222
93	0xbacf1f8d	-0.001580225
94	0x3a80bbf5	0.000982164
95	0xbac8b66c	-0.0015313155
96	0x3c19e961	0.009394021
97	0x3beafe0a	0.007171397
98	0xbc1fc52f	-0.009751602
99	0x3c7c9993	0.015417474
100	0xbb2f05a5	-0.0026706245
101	0x3c0dd340	0.008656323
102	0x3bee3918	0.0072699897
103	0x3b971501	0.004610658
104	0xbb85e799	-0.0040864465
105	0x3c64b39a	0.013958836
106	0x3b9a9141	0.0047170226
107	0xbabba4c4	-0.0014316072
108	0x3bef2867	0.0072985175
109	0xbbaecbb4	-0.005334342
110	0xbc2e75b9	-0.010648184
111	0xb9f57ad0	-0.00046821544
112	0x3ad07120	0.0015902855
113	0x3a68a01d	0.00088739564
114	0x3c15a7ea	0.009134272
115	0xbba569b3	-0.0050480007
116	0x3beff9b7	0.0073234695
117	0x3b15fb9c	0.0022885567
118	0x3bf47057	0.007459681
119	0x3c047c43	0.008086267
120	0x3bbec266	0.005821514
121	0x3b4ec753	0.0031551912
122	0x3bc15833	0.0059004067
123	0x3c055e09	0.0081400955
124	0xbb777a52	-0.0037762118
125	0x3c011756	0.007879099
126	0xbc4953ea	-0.012288073
127	0x3b369b08	0.0027863402
128	0xbb1d6fd2	-0.002402295
129	0xbb905b47	-0.0044054124
130	0x3a586d27	0.0008256011
131	0x3b9e85d2	0.00483773
132	0x3af29957	0.0018508834
133	0xbc0a52b1	-0.008442567
134	0x3a98f2e3	0.0011669066
135	0xba0d0bdf	-0.0005380492
136	0x3c064a67	0.00819645
137	0x3bc9a396	0.006153534
138	0xb9e059ba	-0.0004279146
139	0x3bc76650	0.0060851946
140	0x3bdaba53	0.0066750436
141	0x3a398171	0.0007076478
142	0x3b68b5aa	0.003550867
143	0x3c0e61c0	0.008690298
144	0x3bf9aaba	0.007619229
145	0xbb5b0848	-0.0033421684
146	0xbbd15dd5	-0.0063893595
147	0xbc005148	-0.007831879
148	0xb9e12b6f	-0.00042947705
149	0xbc1bc30f	-0.009506955
150	0x3aaae657	0.0013038617
151	0xbc1530c7	-0.009105868
152	0xbb96e371	-0.00460475
153	0x3a977d5d	0.0011557747
154	0xbbad4184	-0.005287351
155	0xba86da12	-0.0010288379
156	0xba76958f	-0.0009406441
157	0x3bac9382	0.0052666077
158	0xbbe62675	-0.0070236274
159	0x3b82ac29	0.0039878082
160	0x3c23f318	0.010006689
161	0x3bf06dba	0.007337299
162	0x3ba760a9	0.0051079583
163	0xbbef71f3	-0.007307285
164	0xbb6bafa7	-0.0035962851
165	0x3bebe8b7	0.0071993726
166	0xba5cc41a	-0.00084215554
167	0xba8d58db	-0.0010783927
168	0xbbec9190	-0.007219501
169	0xbb90e96f	-0.0044223587
170	0xbb11feee	-0.0022277194
171	0xbb781518	-0.003785437
172	0x3b91a4b3	0.0044446825
173	0xbb5ca0a0	-0.0033665076
174	0x3bc6ff3f	0.006072908
175	0x3bb3e77a	0.0054902406
176	0xbb19b965	-0.002345645
177	0xbbb747eb	-0.00559329
178	0x3b6bf865	0.003600621
179	0x3b9cef08	0.004789237
180	0xbafe28aa	-0.0019390781
181	0xbc0588d7	-0.008150301
182	0x3b7c4837	0.0038495192
183	0x3b020f4b	0.001984554
184	0xbc0e0cc9	-0.00867004
185	0xbba5407b	-0.005043087
186	0x3bea1a07	0.007144216
187	0xbc1bc323	-0.009506973
188	0xbab23c46	-0.0013598285
189	0xbae66f67	-0.0017580808
190	0x3a651ce3	0.0008739961
191	0xbba5925e	-0.0050528487
192	0x3aac1c9b	0.0013131084
193	0xbbf16fdd	-0.0073680715
194	0xbaf17705	-0.0018422311
195	0xbb85cb9b	-0.0040831096
196	0xbb33e37d	-0.0027448826
197	0xbb2081b0	-0.0024491362
198	0x3bf925eb	0.007603397
199	0x3af8e09d	0.0018987838
200	0xbc5833b7	-0.0131959235
201	0xbc03d4ab	-0.008046309
202	0x3bff59d0	0.007792689
203	0xbb97bda4	-0.004630761
204	0x3b8e0d9b	0.004335118
205	0xbc0849ff	-0.008318423
206	0x3b9541ef	0.004554979
207	0xbbcb34b1	-0.0062013497
208	0xba717b20	-0.00092117675
209	0x3c4e7490	0.012601033
210	0xbc01613f	-0.00789672
211	0xbabfc61f	-0.0014631188
212	0xbb264c62	-0.0025375118
213	0x3a3f85bd	0.00073060003
214	0xbc182395	-0.009285827
215	0x3ca550db	0.020180156
216	0xbbed19a3	-0.007235722
217	0xbb84c545	-0.0040518367
218	0x3c7832e5	0.015148853
219	0xbc1c45bb	-0.009538109
220	0xba60e4ab	-0.0008578996
221	0xbbe70830	-0.0070505366
222	0xbb2b98c9	-0.0026183596
223	0xb9cfe2b3	-0.0003965102
224	0x3b30d937	0.002698494
225	0xbc515a63	-0.0127778975
226	0x3b5d26af	0.003374498
227	0xbad623f8	-0.0016337624
228	0x3a90261e	0.0010997688
229	0x3bd0888d	0.0063639344
230	0x3a0a9e40	0.00052878633
231	0xbb86c95b	-0.004113359
232	0xbc2563cf	-0.010094597
233	0xbc6edc35	-0.014578869
234	0x3b3f5df2	0.0029200283
235	0x3b9ffcd3	0.004882434
236	0x3b1718bd	0.0023055517
237	0x399b53ff	0.00029626486
238	0x3a69f608	0.0008924906
239	0xbbde9ecf	-0.006793834
240	0x3b62e4fb	0.0034621346
241	0xbb706cf8	-0.0036686044
242	0xbb3563d4	-0.002767791
243	0x3c682dbd	0.014171061
244	0xbbcc7fae	-0.0062408065
245	0xbb504dc7	-0.003178464
246	0x3bc184d8	0.005905729
247	0x3ab892c8	0.001408183
248	0x3ae92dda	0.0017790154
249	0x3c271fe6	0.010200476
250	0x3ad38b8b	0.001613961
251	0xbbe23042	-0.0069027254
252	0x3b9705cc	0.0046088453
253	0xbbae2875	-0.0053148814
254	0xbbdd3253	-0.006750384
255	0xbbdef1f0	-0.0068037435
