Assets/ML-Agents/AvoidAgent 1.onnx (onnx, 324058 bytes, 12 tensors)

network_body.observation_encoder.processors.0.normalizer.running_mean f4 [36]
00000000: 4738 243e b359 543e 793f 0b3f 448a 313f
00000010: df8f 273e 6517 533e fd92 093f 6200 313f
00000020: 0949 2e3e 36ab 533e 0fad 023f f56b 2b3f
00000030: d935 403e 95b4 4b3e 230b 053f f459 323f
00000040: be85 403e 49fe 4c3e 24fb fd3e 0a9d 2c3f
00000050: 039c 433e 0afe 233e 8b40 0e3f d265 3b3f
00000060: 2b28 413e 5fe3 283e 7f30 083f 7c0e 363f
00000070: 3fee 363e 9f94 033d 9be2 323f 73eb 453f
00000080: 8578 323e 16d0 ff3c 6845 2e3f 1803 413f
0.16037093 0.20737343 0.54393727 0.693516 0.16363476 0.20614393 0.5373991 0.6914121
0.17020048 0.2067078 0.51045316 0.66961604 0.18770541 0.19893105 0.5197012 0.6966851
0.18801019 0.20018877 0.49605668 0.6742712 0.19102482 0.16014877 0.55567235 0.7320224
0.18862979 0.16492985 0.53199 0.7111585 0.17864321 0.032124158 0.6987702 0.7731239
0.17428787 0.031227153 0.68074656 0.75395346

network_body.observation_encoder.processors.1.normalizer.running_mean f4 [13]
00000000: a6df 1dbc 1b23 92bd 0b10 cb3c bc37 63bd
00000010: 0b16 063e 90fe 7f3f 90fe 7f3f 90fe 7f3f
00000020: 90fe 7f3f 90fe 7f3f 90fe 7f3f 90fe 7f3f
00000030: 90fe 7f3f
-0.0096358415 -0.07135602 0.024787923 -0.055473074 0.13094346 0.99997807 0.99997807 0.99997807
0.99997807 0.99997807 0.99997807 0.99997807 0.99997807

network_body._body_endoder.seq_layers.0.weight f4 [256, 49]
00000000: 60f4 3cbd e9e1 cdbd e27b 6ebe 551a 4b3d
00000010: 41d9 0b3d 1fc0 a03d f7b7 6c3d eeef c93d
00000020: 7010 173e 83fb 42bd 97d2 f53d af5b 73bc
00000030: 1e42 8a3d 78f8 fb3d 9cf2 3a3e b0e2 5abe
00000040: 2e05 ab3d 3f8e 7cbd b765 a8bb dea1 073e
00000050: 8596 1e3d e326 33bd 8ced cbbd 71b6 463e
00000060: f2d4 4abe 0a19 c13d 97c5 14be bfb6 2dbe
00000070: 505a dfbe c5c8 253e 0d1e 46bd faea 80bd
00000080: 8c8f 22bf e46c 39bd e9bd 113e 0a30 883b
00000090: 014d 08bb 05e1 e63d 23f5 c6bd f556 e23d
000000a0: de11 1fbe 35c0 0c3d 3f6f 933b a1ba be3b
000000b0: 0088 10be e236 b7bd 7340 4abd d02b e9ba
000000c0: d7ad cf3d 80b5 adbd 508f 70bc 00c9 c9bd
000000d0: 36c9 b93d 7afa a9be a675 4b3e 0b0f 093e
000000e0: 3d61 aabe a3b8 633e 13a4 f33d 8178 66bd
000000f0: b48e 3ebd 8e4a 83bd 9af6 d2bc 0d5a 50be
00000100: a16f 1bbe 361f cb3d 2700 8cbe b6bb e93c
00000110: 57aa ce3d 6763 4a3d 5dbf ad3c 82e5 85be
00000120: 2cc0 e33d 7a1e debb f1fa 033e 7424 c43d
00000130: 45d6 263e 02d2 5cbe 6993 a83d aa63 a0bc
00000140: 6fb9 863e ed3f dcbd ec3f cd3d 01af ff3d
00000150: 5240 50be 424b 8ebe 2777 85be 3666 4d3e
00000160: e6a7 a0bc 99e2 2c3e 938d 1abe e4a0 5ebe
00000170: 78ba 9bbd 1a35 f6bd f47d 5cbe c62f 143e
00000180: 8b24 14bc 2ec0 d23d b144 19be 5865 323e
00000190: 65c5 883d 1dc7 4b3d 0a56 20be f168 4fbd
000001a0: 2d6f 673e 7c79 b53c 7df0 bcbd 8207 843e
000001b0: b688 183e 9591 7cbe 33cf 19be a06e e9bc
000001c0: fc79 4b3e 53a3 0e3d 7fc5 64be 4fb5 033d
000001d0: 0af4 8c3e 9f6c 753e 5200 963d e456 e9bd
000001e0: 8666 dd3d e9e9 c23d 1449 29be ddf0 11be
000001f0: 1fb8 d4bd 1194 15be 948d 8ebe ba21 713d
00000200: 11c6 603d c537 41be 2415 11be 357d 7cbe
00000210: 94d0 4c3e 0d0a 59bd e5dd 8e3c 0df8 b9bd
00000220: a7e6 883c 3da1 97bd caa7 31bd 4268 8d3d
00000230: e7a4 4e3e 3c44 cbbd b6d8 bc3d b682 8b3d
00000240: 9c09 be3d 8003 11bd c793 85bc fb00 f7bd
00000250: 1f37 973e 2e50 71bd a4db 1fbc 5d00 753d
00000260: b460 8c3e c277 1abe 7103 933d ab9f e83d
00000270: 7331 57bd 33c2 52bd c4f7 5dbe ca30 b13d
00000280: d797 1d3e 3b45 2f3d 746c 3b3d 9984 a5bc
00000290: 3eb6 0ebe aff6 643e 8931 17be 853f 1c3d
000002a0: 67f9 61be 4dd4 f03e 2613 b2bd 9632 d0bd
000002b0: 085d 9ebd 02fa f43c a62b 583d b7da 093e
000002c0: f4f9 063e 3cc9 c03d 65af acbd b475 c33c
000002d0: 233b 5b3d 6a7d f9bd d3e7 533e d8fd 093e
000002e0: d7be 44be b2d6 97bd 00af 1c3d 6b48 753d
000002f0: e7b7 50be 5547 1fbe c360 92bd 9b8c 903d
00000300: db3a b63e 5dca a43d b145 a53e b42d ca3c
00000310: b56b 13be d807 23bc 8a11 973d 91c8 c739
00000320: 1be9 85bd e95c 5d3d bbb1 1f3e 4d88 2f3c
00000330: a972 15bd a709 92bd b10f 9e3e 2547 603d
00000340: 0c3f 88bd 1e9b 70bd ee5f 883e fac3 253e
00000350: 4215 eb3c 769b 1e3d e28d 233e 9656 103e
00000360: de00 80be 3cbe eebd 334f 36be d217 64bd
00000370: a368 ba3e 2cb3 f93b 3445 d9bb f327 88bd
00000380: aa1d 61be 2bc8 11be d6d2 1dbe fe3e 0cbe
00000390: c943 0dbe 4abc 7cbb cd24 ca3c 1afd 4a3e
000003a0: e9d2 56bd 95ff 043e e88a bb3d 2218 673e
000003b0: 8eea c13d 8eff 3abe c28a 423d 2a08 133e
000003c0: 5fe0 183e 6ca3 8f3d 8d35 93bd 5aa7 4ebe
000003d0: d6a1 48be 98a5 273d c3e6 913d 54f7 013d
000003e0: ce76 11bd 7121 1f3c 3e78 513e 4584 213d
000003f0: 2896 553d 98d7 42bd 2fa0 4abe 076f a0be
-0.04613149 -0.100528546 -0.23289445 0.04958566 0.034142736 0.07849144 0.05779263 0.09860216
0.14752364 -0.04760314 0.120030575 -0.014853402 0.06750892 0.12303251 0.1825661 -0.21375537
0.08350597 -0.061659094 -0.0051390785 0.13245341 0.038717765 -0.043738257 -0.09957418 0.19405533
-0.19807795 0.09428604 -0.145285 -0.16964243 -0.4362359 0.16189869 -0.048368502 -0.06294818
-0.63500285 -0.04526986 0.14232601 0.0041561173 -0.002079785 0.11273388 -0.09714725 0.11051742
-0.1553416 0.03436299 0.0044993456 0.0058205877 -0.1411438 -0.08946015 -0.04937787 -0.0017789546
0.10140579 -0.08481884 -0.014682606 -0.09852791 0.09071581 -0.3319891 0.19869098 0.13384645
-0.33277312 0.22238402 0.11896529 -0.056267265 -0.04652281 -0.064107046 -0.025752354 -0.20346852
-0.15179302 0.099180624 -0.27343866 0.02853189 0.100910835 0.049411204 0.021209413 -0.26151663
0.11120638 -0.0067785354 0.12888695 0.095772654 0.16292675 -0.21564487 0.08231241 -0.019578774
0.2631335 -0.107543804 0.10021958 0.12484551 -0.20337036 -0.27791792 -0.2606747 0.20058522
-0.01961131 0.16883315 -0.15093069 -0.21741062 -0.076039255 -0.12021847 -0.21532422 0.14471349
-0.009041916 0.102905616 -0.1496761 0.17421472 0.06678275 0.049750436 -0.15657821 -0.05063719
0.22601004 0.022152655 -0.09225557 0.25786978 0.14895901 -0.2466491 -0.15020446 -0.028495133
0.19870752 0.034823727 -0.22340964 0.03215533 0.27529937 0.23967217 0.0732428 -0.11393526
0.108105704 0.09517271 -0.16531783 -0.14252038 -0.10386681 -0.14607264 -0.2784239 0.058870055
0.05487639 -0.1886893 -0.14168221 -0.24657138 0.20001441 -0.0529881 0.017439792 -0.09080515
0.016711546 -0.07403801 -0.043372907 0.06904651 0.20180093 -0.09925124 0.09221022 0.068120405
0.092791766 -0.03540373 -0.016305817 -0.12060734 0.29534242 -0.058914356 -0.009756956 0.0598148
0.2741753 -0.15084746 0.07178391 0.11358579 -0.052537393 -0.051454734 -0.21676546 0.08651884
0.15389954 0.042790633 0.045757726 -0.020204829 -0.13936707 0.22359727 -0.1476499 0.038146514
-0.22067796 0.47036973 -0.086950585 -0.101658985 -0.07732588 0.02990437 0.052776 0.1346234
0.13181287 0.094133824 -0.08431891 0.023859836 0.053523194 -0.12182124 0.20693903 0.1347574
-0.19213425 -0.07413997 0.03825283 0.059883516 -0.20382653 -0.15554555 -0.07147362 0.07058068
0.35591778 0.0804641 0.32279733 0.024679996 -0.14396556 -0.009950601 0.07376392 0.0003810567
-0.06538602 0.054043684 0.15595143 0.010713649 -0.0364863 -0.07130747 0.30871347 0.05475535
-0.0665265 -0.05874168 0.2663569 0.1618804 0.02869666 0.038722478 0.15972093 0.1409553
-0.25000662 -0.11657378 -0.1780365 -0.05568678 0.36407956 0.007620236 -0.006630564 -0.06648245
-0.21983972 -0.14236514 -0.15412459 -0.13695905 -0.13795389 -0.0038564377 0.024675751 0.19823113
-0.052447233 0.12988122 0.09157354 0.225678 0.09468566 -0.18261549 0.04749561 0.14358583
0.14929341 0.07013592 -0.071879484 -0.20181027 -0.19592986 0.040929407 0.071240924 0.03173001
-0.03551369 0.009712563 0.20456025 0.039432783 0.052145153 -0.047568887 -0.19787668 -0.31334707

network_body._body_endoder.seq_layers.0.bias f4 [256]
00000000: 4e1a 193b 48b1 e2bb 1394 cdbb e7f7 a93b
00000010: 5199 19bc f844 193c 20a6 85bb 324a fdbb
00000020: 3598 32bc a55c 82bb e09d 89bb db6f 61bb
00000030: 7041 babb 0e61 a2bc 8c0d 3b3b 5202 a73b
00000040: 5ffb c7bb dc18 19bb caf1 97bc 816f 40bc
00000050: 80f3 7ebb 1c4b d2bb e83d 17bc 5642 a0bc
00000060: 27bb bcbb cad0 9cba 85d9 59bc 4be2 f039
00000070: 281c 033b b9ab 46bb dd31 af39 41e8 33bc
00000080: 668c 09bc 7f9a f7bb edaf 22bc 6b8a bdbb
00000090: 647c dfbb 41d8 24bb 8bcf 73bc 60ba 90bb
000000a0: 49af f339 7489 c3bb 8427 a93a 61c3 65bb
000000b0: 2ab9 9ebb 7aff c4bb 42f2 4ebb e084 e6ba
000000c0: ef3f b7bb 378c 3ebc 30e5 0fbc 57a8 4ebc
000000d0: bb49 f1ba 056a 663b bbe6 a6bc ae2e 67bc
000000e0: 31ec 88bc 6d97 4cbb 3d63 693b 957d 293a
000000f0: 5f90 413b e337 64bb d446 c0bb cf48 b4bb
00000100: 679e 87bc e5a9 bcbb df6e 303b d116 34bb
00000110: b293 7fbc 1936 55b9 abfc aaba ca64 3cbb
00000120: 314c 9bbb e0f0 5abc 7273 dfba fa3d 5cbc
00000130: ba01 9a3a 1d4a 34bb b65e 003b 8bdc 74ba
00000140: a7d9 80bb 59c6 5bbb 9b87 8dbb 7eb6 f5bb
00000150: 8a6f a6ba 3b1a daba 0eb7 6039 6ebf 9ebb
00000160: 45bf f4bb 5181 19bc b70e bcba 7187 86bc
00000170: 9039 c2bb f0d2 66bb 6313 cfbb e8b2 593c
00000180: 8325 80bc b41d b6bc b3f1 c7bb 548d 903a
00000190: 6b48 83bb f0ad cab9 74bb 1cba 26de 09bb
000001a0: 6816 13bc 4b60 f4bb 3e4d 213b f0a8 05bc
000001b0: b34f 13bb 180a 06bc 1389 6cbc a28e a4bb
000001c0: 4676 d5bb dff6 d9bb 25e7 0ebc 8ed9 0a3b
000001d0: 193b 3abb b5f9 debb 336f 89bc d818 31bc
000001e0: dc3e 55bc a3cc 28bc f553 63bc 0944 d03a
000001f0: be1d c6bc 719d 68bb 79dd 83bb ad81 abbb
00000200: 3864 63bc 78e7 b8bb 0b2e 1cbc 8803 8fbc
00000210: 997c 62bb e062 4bbc bdcb 4dbb 238c a03a
00000220: 7a04 4ebc 330e 88bc 75de 3fbb c510 77bc
00000230: d7ad bfbb 37a0 a5bb af85 e5bb 8a47 a9bb
00000240: 914e 10bb 26d1 82bb 822b 59bc e98c a23a
00000250: 4b67 0b3b b67f 07bc f73c 07bc 0bbb 4a3b
00000260: 2c18 cfbb de2d cf3a d3ff 9ebb 4f46 a3bb
00000270: 0861 73bb 13b5 20bb dee8 60bc 95bd ffbb
00000280: fb7b 75bb 7028 2abb 0e2c 54bc 92f8 5abc
00000290: 1388 81bc a8ec e2bb 5f06 2cbc 749c 02bb
000002a0: 08c4 3b3b 288a e3ba c1be 52bc 17a3 13bc
000002b0: c0b2 ccbb 5cdd 08bc 1369 24bb 8d02 e53a
000002c0: 34e7 3dbc 53a0 46b9 93d0 aebb 6712 9bbb
000002d0: 5380 ddbb a5b5 8e3b 95d2 d7bb cd7f 89bb
000002e0: b275 b0bb d778 24bc ec26 06bc 4c6e 53bb
000002f0: 424f 4dbb 3107 c8bc d40d f7bb 66a8 71bc
00000300: dbf5 633c 105c 14bc 2e78 83bc 6708 b3bb
00000310: 7493 bfba d9e9 b3bb 0f0e 41bc 85fd 60bb
00000320: 22c4 bfbb d04a 73bc 7380 433b 751c 73bc
00000330: 14f7 04ba 28a9 00ba 7eeb fabb 9dbe 20bc
00000340: d261 17bb 30e4 a2ba 9cee dfbb cb2c c93a
00000350: 045c 2fbb 25eb 94bb 0d77 a4bc a1e7 34bc
00000360: fe20 6dbb 1f68 46bc eb19 7fba 796c eaba
00000370: d85e 1abc 0473 e73b 63f9 61bc a522 c9bb
00000380: a68a 3fbc e53f 24bc d2db bebb bf44 c83b
00000390: 7d61 c239 08ce f13b 018f 56bb 7a77 0ebc
000003a0: e77c 9d39 14d4 bdbb fc71 28bc 58d4 11bc
000003b0: 03bb 6a3b d11b d2bb b7a6 553b 3eee 50bc
000003c0: 1fa6 15bc ff3a 08bc 85c0 8ebb c66d 953b
000003d0: 6b20 bcba 9500 bbbb 590c 15bc 49ae f2bb
000003e0: 7612 57bc c19d 74ba 5b3c e03b 2f48 4dbc
000003f0: e56a 0a3b 5330 66bc 733d 27bc 8934 d0bb
0.0023361626 -0.006918106 -0.0062737553 0.005187023 -0.009374932 0.009354822 -0.0040786415 -0.007729792
-0.010900547 -0.0039783292 -0.0041997284 -0.0034398946 -0.0056840703 -0.01982167 0.002854201 0.005096712
-0.006102964 -0.0023360765 -0.018547911 -0.011745335 -0.0038902462 -0.006417645 -0.009231068 -0.019562881
-0.005759615 -0.001196408 -0.01329649 0.0004594497 0.0020005796 -0.0030314757 0.00033415752 -0.010980667
-0.00839529 -0.007556259 -0.009929639 -0.005784323 -0.0068202484 -0.0025153311 -0.014881025 -0.004416749
0.0004647917 -0.0059673134 0.0012905453 -0.0035059082 -0.0048438506 -0.0060119005 -0.0031577502 -0.0017587207
-0.0055923383 -0.0116301095 -0.00878267 -0.0126133775 -0.0018408814 0.0035158407 -0.020373693 -0.01411025
-0.016714187 -0.0031218186 0.003561213 0.00064655516 0.0029535515 -0.003482335 -0.0058678184 -0.0055018435
-0.016555024 -0.0057575577 0.0026921553 -0.002747942 -0.015599178 -0.00020333416 -0.0013045272 -0.0028746598
-0.0047393073 -0.013363093 -0.0017047955 -0.013442511 0.0011749782 -0.0027509995 0.0019587702 -0.0009340725
-0.003932196 -0.0033534972 -0.004319144 -0.0074985614 -0.0012698036 -0.0016639897 0.00021430498 -0.0048445975
-0.00746909 -0.00936921 -0.0014347647 -0.016422005 -0.005927272 -0.0035220943 -0.0063194497 0.0132872835
-0.015642887 -0.02223096 -0.006101811 0.0011028447 -0.0040064356 -0.00038658036 -0.00059788604 -0.0021036952
-0.00897751 -0.007457768 0.002461269 -0.008157954 -0.0022477924 -0.0081811175 -0.014436978 -0.005021886
-0.0065143434 -0.006651744 -0.008722101 0.0021186802 -0.0028416573 -0.0068046697 -0.016776657 -0.010809146
-0.013015475 -0.010302695 -0.013874997 0.0015889417 -0.024184104 -0.0035494233 -0.0040242043 -0.0052339644
-0.0138788745 -0.0056428276 -0.009532462 -0.017457739 -0.003455913 -0.01241371 -0.0031401955 0.0012248795
-0.0125743095 -0.016608333 -0.0029276882 -0.015079682 -0.0058495807 -0.0050544995 -0.0070044617 -0.005165999
-0.0022019485 -0.0039922176 -0.013255002 0.0012401614 0.0021271284 -0.008270195 -0.008254281 0.003093424
-0.00632002 0.0015806516 -0.004852274 -0.0049827467 -0.0037136693 -0.002452199 -0.013727395 -0.0078045824
-0.0037457931 -0.0025964044 -0.012949957 -0.013364928 -0.015811956 -0.0069251843 -0.010499566 -0.001992968
0.002865078 -0.0017359899 -0.012862862 -0.009011052 -0.0062468946 -0.008353557 -0.0025087043 0.0017472074
-0.011590768 -0.00018942477 -0.0053349226 -0.0047324183 -0.006759682 0.00435515 -0.0065863826 -0.0041961432
-0.005385124 -0.010038576 -0.008187991 -0.0032261787 -0.003132776 -0.024417492 -0.0075394902 -0.014749622
0.013913597 -0.009055153 -0.016048517 -0.005463648 -0.0014616088 -0.0054905233 -0.011783137 -0.0034330797
-0.0058522383 -0.01484938 0.00298312 -0.014838328 -0.0005072218 -0.0004908019 -0.0076574674 -0.009811071
-0.0023099077 -0.0012427624 -0.0068338644 0.0015348432 -0.0026757726 -0.004544633 -0.0200763 -0.011041553
-0.0036182995 -0.012109785 -0.000973134 -0.001788511 -0.009422027 0.0070632715 -0.013792369 -0.006138163
-0.011690771 -0.010024999 -0.0058245445 0.006111711 0.00037075198 0.007379297 -0.0032739046 -0.008695478
0.00030038433 -0.005793104 -0.010281082 -0.008900724 0.0035817034 -0.0064120074 0.003260059 -0.012752114
-0.009133845 -0.008314847 -0.004356446 0.004560205 -0.0014352923 -0.0057068565 -0.009097182 -0.0074060303
-0.01312696 -0.00093313685 0.0068431324 -0.012529417 0.0021120843 -0.014049607 -0.010207522 -0.006353919

network_body._body_endoder.seq_layers.2.weight f4 [256, 256]
00000000: 713f 393d 3ee0 ca3c 60b7 56bd b018 a1bd
00000010: 8e9f a0bd 70b7 b53c ab00 4d3d e849 d7bd
00000020: b1fe d7bc 3b68 193e c3af a63d f5ba a7bc
00000030: 6bd5 233d af9c 703d d821 713c 38a2 c43c
00000040: 7485 a23d f125 bfbd 01d2 cbbc 6323 4e3c
00000050: 0cfb 193c e59d 423c e445 1dbc 1e95 a53c
00000060: 3a27 74bd c14f 413d 4980 9e3d d221 4c3d
00000070: a1ef a2bd 8d50 29bd 6fc8 18be 9850 82bd
00000080: a66b b83c 11e0 7b3d 0b78 3a3c e7af 573d
00000090: ce59 47bd 42be eb3c 1ca7 67bd 0b72 86bc
000000a0: 3658 02be f9cd 67bd a70c 133d bce9 e4bb
000000b0: f16b 9cbc a844 9f3d 1a3e 1dbd 3542 9abd
000000c0: c776 51bd f8f3 8a3d 3acd 763d b34b 383e
000000d0: 9da4 4a3d 20c1 aabd de10 40bd 8590 883d
000000e0: 91e7 a4bd fb2f e0bd 3470 323e 68c4 e73c
000000f0: 6afa 12bd 7505 dc3c 2bc2 77bd 5157 31bd
00000100: 233d 05bd 9dfa 923d 5049 ad3c d188 50bd
00000110: 3b15 8f3c e500 65bb 7c27 8ebd 075e aabd
00000120: 69d5 c23d 394d 74bd 29a7 8f3d a487 4c3d
00000130: 44e3 c53c 2b5f e93d 015b aabd 9e3f 7dbd
00000140: e611 923c aea6 b23d d7f0 a6bd 92ff 643c
00000150: 0221 203d a279 7d3d fa19 e9bc 4cea 5bbd
00000160: d59b 163d 0b17 8bbd 8dae 65bd ea72 b63d
00000170: d74f c1bd 542a 153c 8a02 3bbd e000 07be
00000180: e9f1 d53d ad7b 803c 5e7d 25be 4039 efbc
00000190: c3eb fe3c 8130 a9bc df19 b23d 392b c6bc
000001a0: 0909 af3c 4cab 5abd cd01 11be e02e 16be
000001b0: a12a acbc 9694 22bd 8c8b 6fba 5fb9 023e
000001c0: c3dd 4e3d 2213 133e 1b0b 8c3d d9c0 98bd
000001d0: b2f6 50bd aa23 abbd e15c d4bc df67 bb3d
000001e0: 2b76 66bd b77c 3bba f19f 2bbd 43f7 973d
000001f0: 0930 053e 7bf9 f93b f079 cc3d a244 de3d
00000200: 201d ecbc 62a5 463d 5945 f3bd 2179 9b3c
00000210: 0c1a b7bd 8148 3abd 336b ed3c 507c f5bd
00000220: feb5 5cbc 58e7 533d 2d8e a33c 023d b6bc
00000230: e45c ac3c 6449 973d 63ad 933c 984a 4cbe
00000240: deb4 66bd e836 7a3d 0ff5 1dbd f8b9 613d
00000250: 4021 e4bd dc8e 4dbd 6e17 9bbd 6f8d cb3c
00000260: 1cc0 b3bc 7935 f3bc e240 403d d07d 9dbd
00000270: 63d6 393c 7980 f63b 4b03 b03d 6a92 b93d
00000280: df66 be3c 47ad 01bc 4579 5bbc 3e53 d9bc
00000290: cdca a83d 5c47 bb3c e108 f53c 2e8f 92bd
000002a0: 0ade a2bd ae06 723d 4399 90bd 78a9 00bd
000002b0: 49a4 d7bd f203 82bc 9a52 1bbd ae8d 283d
000002c0: 7182 8bbc 968a 16be 96a7 a8bb 6266 803d
000002d0: 9e73 78bd 9c7e 7e3c a5da 2cbd 9db9 89bd
000002e0: 76b4 e23c c112 c2bc 4dd8 93bd 9716 173d
000002f0: 7ec5 01bd 1ae0 a73d 51f1 97bc 7177 8bbc
00000300: 419e e5bd e2f6 b7bc 0440 a5bd f451 793d
00000310: f1a8 5fbb 62b1 e5bd 7000 0e3d d738 823d
00000320: 4081 da3d 6ef1 05bd fea1 f6bc 90fa 91bc
00000330: 3bbf 7dbc 902a eebd 557e 1ebd e4f6 fdbc
00000340: 8db3 133b 881b 603c 0f22 23bd 4397 91bd
00000350: d62a 6dbd a1d8 ffbc fca8 0fbd 87d2 b7bc
00000360: 9518 773d 0309 5a3d a6ae 35bd 7394 a5bd
00000370: a390 cfbd b4a0 debd 9abc 27bd 5a30 d13d
00000380: a53b 103d 727c 9d3d fb83 d1bc 5887 01bc
00000390: c73b 223b 8927 15bd 6924 863c e640 27be
000003a0: 5f51 58bc 4d39 d33c 5f58 973d 1af4 1c3c
000003b0: 1718 b23c 6564 1e3d d789 153e 54e1 86bd
000003c0: 25be 30bd 94eb 9b3c 2daa 44bd d3de 2cbd
000003d0: bcea e5b8 f8ca 36bd a910 e53c d580 e6bc
000003e0: 2b29 cabb bba6 c2bc 16ad a5bd c8cd 0abd
000003f0: c3c4 52bb 5615 cf3b 28c5 84bc cc09 813c
0.045226518 0.02476513 -0.052420974 -0.07866037 -0.07842933 0.022182196 0.050049465 -0.105121434
-0.026366564 0.14981167 0.08138993 -0.02047489 0.039998453 0.058743175 0.014717542 0.024003133
0.079356104 -0.093334086 -0.024880411 0.012581679 0.009398233 0.011878465 -0.009599183 0.020212706
-0.059607722 0.0471952 0.07739312 0.04983694 -0.07955862 -0.041336585 -0.1492021 -0.06363028
0.022512268 0.061492983 0.01138116 0.052657988 -0.04866963 0.028777245 -0.056555852 -0.016411802
-0.12728962 -0.056592915 0.035900738 -0.006985871 -0.01909444 0.07776767 -0.038389303 -0.07532159
-0.051138666 0.067848146 0.060254313 0.17997627 0.049473394 -0.08337617 -0.046891086 0.0666819
-0.0805198 -0.109466515 0.17425615 0.028291896 -0.035883345 0.02685807 -0.060487907 -0.043296162
-0.032529008 0.07176707 0.021153122 -0.05091173 0.017466178 -0.003494316 -0.06941125 -0.083187155
0.09513361 -0.059643958 0.07014305 0.049934044 0.02415622 0.11395105 -0.08318139 -0.06182825
0.0178308 0.08723198 -0.08151405 0.013976948 0.03909398 0.061883576 -0.02845477 -0.05369024
0.036769707 -0.067915045 -0.056074668 0.08908637 -0.09439056 0.00910433 -0.04565672 -0.13183928
0.10446531 0.015683973 -0.16161105 -0.029202104 0.03111828 -0.020653011 0.08696341 -0.024190532
0.021366613 -0.053386018 -0.14160843 -0.14666319 -0.02101642 -0.039692484 -0.00091379206 0.12766026
0.050504457 0.14362767 0.06838056 -0.07458658 -0.051016517 -0.08356412 -0.025923194 0.09150671
-0.056265038 -0.0007152068 -0.04190058 0.07420208 0.13006605 0.0076286173 0.09984195 0.108529344
-0.028822482 0.048497565 -0.118784614 0.018978657 -0.08940515 -0.0454793 0.02898178 -0.11986601
-0.013471125 0.0517343 0.019965256 -0.022245888 0.021040387 0.07387045 0.018027013 -0.1995033
-0.056324832 0.06108752 -0.038563784 0.055108994 -0.111391544 -0.05018507 -0.07572828 0.024847714
-0.02194219 -0.029688584 0.046936877 -0.076900125 0.011342618 0.0075226394 0.08594378 0.090611294
0.023242412 -0.007914848 -0.013395612 -0.02652895 0.08241806 0.022861175 0.02991146 -0.071562156
-0.07952507 0.0590884 -0.07060482 -0.031411618 -0.10529382 -0.015871022 -0.037920572 0.04115074
-0.017029973 -0.14701304 -0.005146931 0.06269528 -0.060657136 0.015533116 -0.042200703 -0.06724856
0.027673941 -0.023690583 -0.072189905 0.036886778 -0.031682484 0.08197041 -0.018547686 -0.017024728
-0.11211825 -0.02245659 -0.08068851 0.060869172 -0.0034127797 -0.11215474 0.034668386 0.063584976
0.10669184 -0.03270095 -0.03010654 -0.017819673 -0.015487487 -0.11629212 -0.0386947 -0.031001516
0.002253744 0.013678439 -0.039827403 -0.07108929 -0.05790218 -0.031231226 -0.035073265 -0.022439254
0.060326178 0.05323125 -0.04435601 -0.08084955 -0.10135009 -0.108704954 -0.04095135 0.102143005
0.03521313 0.07689752 -0.025575629 -0.007905804 0.0024754868 -0.036414657 0.016374784 -0.1633335
-0.013202994 0.02578416 0.07389902 0.009579683 0.021740003 0.038669962 0.14603363 -0.06585947
-0.043150086 0.01903323 -0.048013855 -0.04220469 -0.000109632936 -0.04462716 0.027962046 -0.028137604
-0.0061694584 -0.023761144 -0.08089654 -0.033887655 -0.0032160736 0.006319682 -0.016207293 0.015751742

network_body._body_endoder.seq_layers.2.bias f4 [256]
00000000: 9cac bbbb f0b2 98bb 8e2f b9bb f4f5 c9b9
00000010: df6d 94bb 2428 29bc a9ea dfba e786 0abb
00000020: f5c4 a1bb 59b3 24bc 7911 1bb9 bad0 6bb9
00000030: d1bf e0bb 7448 c6bb e0e1 40bb 7cb7 efbb
00000040: 9603 d43a 3032 f4ba 9b06 92b7 bc37 eabb
00000050: e77d 0fbc 691a 57bb 10c7 96bb 501c 76bb
00000060: 42d6 f8bb 0241 97b9 88ed 7bbb 2e81 01bc
00000070: a4e1 22bc 7189 a2bb 67fa 10bc b926 e9bb
00000080: 0f10 aebb d96b 8bbb 2c67 b9bb 7ec6 cd3a
00000090: f9a7 c0bb 8573 a3bb f209 1bba 28b2 c3bb
000000a0: d9f0 d2bb 7d39 2bbc 48d7 47bb 74f4 f8bb
000000b0: da2b 19bc b7eb 1aba a4af 00bb e749 fabb
000000c0: 9377 e1bb 74c6 4dbb 6a55 19bc 4ceb 35bb
000000d0: 114b d6ba 0698 1abc efbb 17bc afad a3bb
000000e0: b3a6 6fbb ea5c 60bb 2301 8cbb ba6e 80bb
000000f0: a796 0b3b 3bdd 00bb 8341 10bb 8646 a1bb
00000100: e938 8fbb d5c5 aabb 40e9 98bb ed32 8dbb
00000110: 0009 89bb 8bc0 ddbb bcbe 89bb 7af6 afbb
00000120: 86d0 e8ba d5b7 c23a ca48 2abb 4968 fbbb
00000130: 91c6 20bb 7cc1 91bb 5800 f1bb 46c6 7cbb
00000140: 4fd2 f5bb 3727 aebb 3bf9 c4bb 82a4 08bb
00000150: 5598 5ebb cdc8 b1bb fd67 04bb da01 833b
00000160: 7c55 90ba bdd0 9dbb 5eb6 b43a 44b2 2cbb
00000170: 461f 05bb 279d 1abb 9957 3f3a efbb cabb
00000180: c154 93bb 5bbb c0bb 95ba b03a cad4 c23a
00000190: 559a 23bc da16 69bb 5668 5cbb 197f a8bb
000001a0: ef38 e83a fd38 393b 54f5 fa3a 743c 16bb
000001b0: 5662 bcbb 5c78 92bb afad b7bb 1354 40bc
000001c0: 89fc 51bc 9334 73bb 74ec 58ba df76 cfbb
000001d0: d441 1e3b 5adc 18bc 0e4c 95bb 2318 06bb
000001e0: 0d0a 0bbc f641 efbb afa7 13ba 0471 78b8
000001f0: 42aa 98bb fe00 cebb bdf4 10bc 511b acba
00000200: 4b36 a6bb c598 ebbb fbb4 97ba 9533 d5bb
00000210: 7956 12bc 6684 06bb bf03 1a39 1d34 56bb
00000220: 4ef9 50b9 7912 03b9 af0a 01bc ffdb a9bb
00000230: 45e4 01bb d5f6 b8bb b86a a9bb 9bc1 63bc
00000240: d4e9 bcbb 1075 02bc 2015 08bb c6ce f5bb
00000250: 9177 2dbb 36c5 0db8 f426 02bc 48e6 f4bb
00000260: 9598 00bc 14da f1bb d857 81bb 98ff cfbb
00000270: afb0 c6bb 9e21 d3ba 2a8c b7bb 8c9f a4ba
00000280: 1d0e f1bb 01e8 07bc 2688 80bb 821a d6bb
00000290: b53d 5cbc 1e18 18bb 3f08 11bb 507f 97bb
000002a0: bad0 973a 7f16 babb 62da 70bb 06e3 e5bb
000002b0: 0047 9cbb 3101 1ebc 1634 13bc 40b3 42bb
000002c0: 2e69 bb3a 0843 e4bb 0755 9639 37e5 26ba
000002d0: e502 bdbb 772c f9bb b61a 25bb 67f8 b13a
000002e0: 382a 66bb e4cb d13a d1e6 02bc 1273 cfbb
000002f0: 0f5f f639 6a03 9cbb 0a5c 3abb 14b5 d6bb
00000300: cf66 7dbb 9cd6 83bb 93ca 113a 64ff e9bb
00000310: 4d74 90ba 56e5 d9ba f8ec f6ba e48d c7bb
00000320: 5804 fbbb 85a7 39bc edd3 9bbb 4bd2 a8bb
00000330: 3441 85bb 331c b0bb a02e b037 c0a0 ebb9
00000340: 6a92 ddbb acfc 06bb b809 debb f1d8 b0bb
00000350: 1784 8fbb 7300 5bbb 9677 dcbb 84cf b3bb
00000360: ca0e d6bb 5d19 e8bb fc7e f2bb 9954 7e3b
00000370: 703d 88ba 4bed 75bb e6a5 11bb 1571 9fbb
00000380: 17e2 a0bb 1618 b0bb cf2f 7c39 c1bc a7bb
00000390: 3d94 7fbb 95b1 dfbb 2b1f 6dbb 60d6 bfbb
000003a0: 3b5f 09bc fe3f e9bb 64a3 6cbb ce29 b93a
000003b0: b954 0abc 3832 9e3a a7d2 31bc 7692 b7bb
000003c0: 0324 7eba e495 9cbb 3185 04bc ab0a 3bbb
000003d0: a09d 80bb e92d 073b d181 afbb fbfb 93bb
000003e0: e49d d7bb 1a5d adbb c8f1 babb 60a3 fcbb
000003f0: 8bc0 e5bb c4e0 cabb 14f0 f6bb ff88 d0bb
-0.0057273638 -0.004660003 -0.005651421 -0.00038520957 -0.004529699 -0.010324512 -0.0017083484 -0.0021137537
-0.004936809 -0.010052525 -0.00014788461 -0.00022489103 -0.006858804 -0.0060511176 -0.0029431507 -0.007315574
0.0016175385 -0.001863068 -1.7407632e-05 -0.0071477573 -0.008758045 -0.0032822138 -0.004601367 -0.0037553497
-0.007593901 -0.000288494 -0.003844114 -0.007904334 -0.009941492 -0.004960232 -0.008848763 -0.007115212
-0.005311973 -0.0042548 -0.005658051 0.0015699414 -0.005879399 -0.0049881362 -0.0005914263 -0.0059721656
-0.0064374027 -0.010450718 -0.0030493308 -0.0075975005 -0.009348834 -0.0005909758 -0.001963594 -0.0076382044
-0.0068807094 -0.0031398805 -0.009358743 -0.0027758656 -0.0016349276 -0.009435659 -0.009261115 -0.00499507
-0.0036567866 -0.0034235069 -0.0042725964 -0.0039194496 0.0021299513 -0.0019663114 -0.0022011704 -0.004921737
-0.004370798 -0.0052115717 -0.0046664774 -0.0043090493 -0.004181981 -0.0067673377 -0.0042036455 -0.0053699585
-0.001776234 0.0014855812 -0.0025983327 -0.007672344 -0.0024532417 -0.004448114 -0.0073547773 -0.0038570329
-0.0075018774 -0.0053147334 -0.006011156 -0.0020850007 -0.0033965309 -0.0054255486 -0.0020203583 0.0039980235
-0.0011011804 -0.0048161433 0.001378726 -0.0026351372 -0.002031283 -0.0023592205 0.0007299125 -0.006186954
-0.0044961874 -0.0058817095 0.001348334 0.0014864441 -0.009985526 -0.00355666 -0.0033631525 -0.0051421043
0.0017717163 0.0028262727 0.00191466 -0.0022924216 -0.0057490272 -0.0044699144 -0.0056054215 -0.011738795
-0.012816557 -0.0037110194 -0.00082749804 -0.006331309 0.0024148123 -0.00932988 -0.0045561856 -0.0020461164
-0.008486283 -0.0073015643 -0.0005632592 -5.923306e-05 -0.004658968 -0.0062867394 -0.008847413 -0.00131307
-0.00507239 -0.0071898424 -0.0011574322 -0.006506393 -0.0089317495 -0.0020525693 0.0001468798 -0.003268487
-0.00019929299 -0.00012500015 -0.007876082 -0.0051836963 -0.0019819897 -0.005644659 -0.0051701926 -0.01390114
-0.005765179 -0.00796248 -0.0020764545 -0.007501456 -0.0026468972 -3.3800687e-05 -0.007943857 -0.0074737407
-0.007848878 -0.0073807333 -0.0039472394 -0.006347608 -0.006063543 -0.0016108041 -0.0056014257 -0.0012559756
-0.0073564188 -0.00829506 -0.00392248 -0.0065339217 -0.0134424465 -0.0023207734 -0.002213016 -0.004623331
0.0011582591 -0.0056789513 -0.003675126 -0.0070155887 -0.004769206 -0.009643839 -0.008984586 -0.0029708892
0.0014298314 -0.0069659986 0.0002867358 -0.0006366553 -0.0057681673 -0.0076041776 -0.0025192923 0.0013578058
-0.003512038 0.0016006199 -0.007989601 -0.006330856 0.000469916 -0.004761149 -0.0028436207 -0.006552348
-0.0038666015 -0.004023386 0.0005561497 -0.0071410406 -0.0011020988 -0.0016624134 -0.0018838933 -0.0060899127
-0.00766043 -0.011331444 -0.004755488 -0.005152022 -0.0040666107 -0.0053744554 2.1002546e-05 -0.0004494246
-0.0067618387 -0.0020597382 -0.006776061 -0.005396955 -0.00437976 -0.0033417016 -0.006728123 -0.0054873843
-0.0065325247 -0.0070831017 -0.0074003916 0.0038807748 -0.0010394286 -0.003752547 -0.0022224127 -0.0048657754
-0.0049097645 -0.005373965 0.00024050403 -0.0051189368 -0.003899827 -0.0068265893 -0.0036181908 -0.005854413
-0.008384521 -0.007118224 -0.003610813 0.0014126839 -0.008443051 0.001206941 -0.010853446 -0.0056021763
-0.0009694697 -0.0047786105 -0.008088396 -0.0028540294 -0.0039250404 0.002062673 -0.0053560515 -0.0045161224
-0.0065801013 -0.0052906396 -0.005705092 -0.0077099055 -0.0070114783 -0.006191345 -0.0075359438 -0.0063639875

action_model._continuous_distribution.log_sigma f4 [1, 3]
00000000: 94cc 61bc 4f83 43bc b400 8abc
-0.013781685 -0.011933162 -0.016846038

action_model._continuous_distribution.mu.weight f4 [3, 256]
00000000: fe34 c33c c083 0abc 122e a03c 62f2 5cbc
00000010: 232b c83a aa09 9b3b 60fe 68bc 2235 32bc
00000020: 7ce1 873c db81 823c b72e c8bb e0b8 c93b
00000030: 94bb 3c3c 68ee 1b3c e86a a6ba 879f 893c
00000040: ba25 2fbc 4eaa 40bc 3c23 8fbc 1df9 21bb
00000050: 8950 89b9 2b39 96b9 9753 ddbb b468 e13b
00000060: fba4 153a af4d 38bc 74a2 fa3a 554d 7b3b
00000070: 0c1c 0d3b 9c62 62bb dd98 793b 8b0b 84ba
00000080: b47b 14bb 1d6d 68bb 8472 423c a30c e4bc
00000090: db9b f937 c814 463b 87eb 0bbb 766b dc3b
000000a0: 735a 2b3b 899c 923b 2085 1fbc 84db d23c
000000b0: acee dfba 825c a0bb 581c 82bc e0d2 063b
000000c0: 978e 393c bfaa c03c 95be 993c 3582 4ebc
000000d0: bee5 38bc d021 713c 9ca8 d33a 5a6c 7abb
000000e0: 8b83 ab3c 3eb7 df3b afcb 15bc 243f c53b
000000f0: f975 c8bc d1b4 fe3b a23a 2bbc 95ba 313a
00000100: fbcc a9bb dbc3 6f3b ee62 f83c 109e 89bb
00000110: 7f3e b13c 1d7b a9ba f9b7 ef3b bbbb 3f3c
00000120: 3731 80bc 71c1 1abc d108 25bc 229d 893c
00000130: df72 11bc 2d1c f63b 3735 363a 3a90 9a3b
00000140: c96c 92ba 66ed 14bb 7e62 d13b 8d6f 09bb
00000150: 369f c43b 957e 8e3a f0e1 513b d77b b9bc
00000160: f3cb 85bb f846 123b 9d53 95bb f54d 0f3c
00000170: bf7c c2bc 3b91 903c 27d4 31bc c274 613c
00000180: b3cb 953a bd7f 833c ddcd 94bc a615 b2bc
00000190: 8b10 193b c1fa 1ebc 91f2 64ba 2577 323c
000001a0: 9a07 99bb 6c95 cabb 24e7 bebb 8360 313c
000001b0: 9487 d3bb 202a cf3c b66e b73b 6c50 c53b
000001c0: 3461 5bba e2bd a5ba 03c3 a9bc f9d9 ed3b
000001d0: 30da b1bc e7cb 203c 972a 66bb da6d 6d3b
000001e0: 1ae7 abbb c91f b23b fced 27bc fe43 8d3b
000001f0: e4c5 fa3b fdfb 3bbc 17fc c03a 07f0 92bc
00000200: 1ee4 493b 7589 c83a d9ad 9bbc 982f 8c3c
00000210: dbb2 3f3c cefa 26bc 4dac 09bd 32e0 333c
00000220: 3ec8 8cbc 95de bcba 7939 5f3c 9e9f 393b
00000230: 0312 1e3c c2ff b3ba e67a 22bc 5f89 773a
00000240: 1ad8 a93c 46f5 f53b b983 d3bb abd8 2c39
00000250: 3601 2abc 2b10 7abc fabc 44bb 6b8e cd3a
00000260: f964 7d3c e643 9439 2350 04bc 9e47 753c
00000270: 2e22 a23c 4d66 53bc 6cef 073b 3df8 f6bb
00000280: c702 fcba a5e2 a23c f66b de3a 9949 2ebb
00000290: f3de df3a 0f17 eaba cb02 2ebc 2cb1 d5ba
000002a0: b837 36bc d94f b63b a822 ab3a ad9c cfba
000002b0: d295 b23b 5d74 1a3c 7f6b 333a 2f1b 10bc
000002c0: 545c 2ebc 13a6 843c a04e a838 7a72 3c3c
000002d0: d075 933c 5e88 b13a 2cda 013c 8f36 843a
000002e0: 44fe 783c 6ef3 e8bc 2f16 573c b0f0 2b3a
000002f0: 20ab 99bc 3ce3 943c 797f 5ebc ab48 293b
00000300: ac17 76bb 5002 fc3c af1f 6dbc e943 443b
00000310: d9af c4b9 77f3 3bbc 1e73 8bbc aacf 41bb
00000320: 53c7 cd3c 8bba 923c 579a 813b 50dd a6ba
00000330: c45a 9438 94e2 68bb 88eb 56bc 839f ddbb
00000340: 9953 703c 0b11 2dbc 02c0 963c 35a5 013c
00000350: 4811 843b c0b7 82b9 af76 2bbc 8e71 66bb
00000360: 34b6 a13c 7f41 4b3c 4dd5 d5bb 298f 05bd
00000370: 3036 35bc 5dad 4ebc 5236 0abc 3671 d03b
00000380: 3e34 6d3a 0827 97ba f27e f43b 6dc8 10bb
00000390: 61ea 80bb 42ba 393c 7a7c 27bc c625 18bb
000003a0: e43e 593c dd23 17ba 099b 113a d3e2 90bc
000003b0: 1fe0 6c3c 5aad 5bbc 0da7 c73c 1329 2e3b
000003c0: 00a5 7cba 684d 523b 3b57 be3c fc38 263b
000003d0: 973d a9bb a4f0 3cbc a8d9 ca3b d70b 18bb
000003e0: f59d 483c 1941 743b 5879 263c a8c8 f73b
000003f0: 59f0 393b 37ac 2b3c 7a82 523c 150d 013c
0.02382898 -0.008454263 0.019553218 -0.013485523 0.0015271645 0.0047313767 -0.014220804 -0.010876926
0.016587012 0.01593106 -0.0061090845 0.006156072 0.0115193315 0.00951729 -0.0012696655 0.016799701
-0.010690147 -0.011759354 -0.017472856 -0.0024715133 -0.0002619068 -0.00028652823 -0.0067543495 0.0068789367
0.0005708483 -0.01124899 0.0019121901 0.0038345654 0.002153161 -0.003454364 0.0038085498 -0.0010074241
-0.002265674 -0.0035465427 0.011868123 -0.027838057 2.9755689e-05 0.003022479 -0.0021350102 0.0067266775
0.0026146441 0.004474227 -0.009736329 0.025739439 -0.001708468 -0.0048938403 -0.015882656 0.0020572469
0.0113255 0.023518918 0.018767634 -0.012604286 -0.011285244 0.014717534 0.0016148272 -0.0038211555
0.020936748 0.006827264 -0.0091428 0.00601949 -0.024470316 0.00777302 -0.010450991 0.0006779817
-0.0051819063 0.0036585245 0.03032061 -0.0041997507 0.021636246 -0.0012930367 0.0073156324 0.011702473
-0.015648467 -0.009445534 -0.010072903 0.01679856 -0.008877485 0.007510683 0.00069506787 0.0047169
-0.0011171337 -0.0022724508 0.006389915 -0.002097103 0.0060004247 0.0010871465 0.0032025538 -0.02264206
-0.0040831505 0.0022320133 -0.0045570866 0.008746614 -0.023741124 0.017647376 -0.010853804 0.013760747
0.0011428505 0.016052121 -0.01816457 -0.021738838 0.0023355808 -0.009703339 -0.0008733655 0.010892664
-0.0046700956 -0.0061823633 -0.005825894 0.010826233 -0.006455371 0.025288641 0.0055979146 0.00602155
-0.00083686714 -0.001264509 -0.020722872 0.0072586504 -0.021710485 0.009814239 -0.00351206 0.0036228807
-0.0052460553 0.005435918 -0.010249611 0.004311084 0.007652985 -0.011473653 0.0014723566 -0.01793672
0.0030806134 0.0015299754 -0.019003795 0.017112538 0.011700357 -0.010191632 -0.033611584 0.010978745
-0.017185327 -0.0014409596 0.013624542 0.00283239 0.009647849 -0.0013732838 -0.009916997 0.0009442772
0.020732928 0.0075060455 -0.0064549115 0.00016483913 -0.010376265 -0.015262644 -0.0030019865 0.0015682703
0.015465968 0.00028279348 -0.008075747 0.014970688 0.019791689 -0.012902808 0.0020742072 -0.0075369165
-0.0019226902 0.019883463 0.0016969431 -0.002659416 0.0017079994 -0.0017859655 -0.010620783 -0.0016303412
-0.011121683 0.005563718 0.0013056593 -0.001583954 0.005449989 0.009427157 0.0006844326 -0.008795544
-0.01064213 0.016192472 8.025509e-05 0.011501903 0.018000513 0.0013544669 0.007925551 0.001008706
0.01519734 -0.028436389 0.013127848 0.00065589976 -0.018758357 0.01817476 -0.013580197 0.0025830667
-0.003755073 0.030762821 -0.014472886 0.0029947704 -0.0003751505 -0.011471621 -0.017022666 -0.002957324
0.02511946 0.017911216 0.0039551663 -0.0012730751 7.074096e-05 -0.0035535442 -0.013117678 -0.0067634
0.014668369 -0.010563145 0.018402103 0.007912924 0.0040303804 -0.00024932437 -0.010465308 -0.0035162899
0.019740202 0.012405752 -0.0065256716 -0.03260723 -0.011060283 -0.012614575 -0.0084358025 0.006361152
0.0009048617 -0.0011532018 0.007461422 -0.002209212 -0.00393419 0.011335911 -0.010222549 -0.0023215874
0.013259623 -0.0005765537 0.0005554413 -0.017686283 0.0144577315 -0.013408029 0.024371648 0.0026574775
-0.0009637624 0.0032089595 0.023234954 0.0025363555 -0.005164813 -0.011531983 0.0061904974 -0.0023200416
0.012244691 0.0037270247 0.010160767 0.007561762 0.0028372018 0.010478071 0.012848491 0.007876654

action_model._continuous_distribution.mu.bias f4 [3]
00000000: 2df4 96bb bbd3 4639 72d6 0eb9
-0.0046067447 0.00018961627 -0.00013622062

action_model._discrete_distribution.branches.0.weight f4 [1, 256]
00000000: 64b8 183b 6a5a 1ebc 4389 833b 56de 973a
00000010: e30e 393b 2fea 5abb 25b2 bd3b 128e 52bb
00000020: 0da5 673b 0053 c33b 4433 19bc ffac ebbb
00000030: 7b23 e33b 0577 7abb d5de e43b c442 25bb
00000040: 12b0 b8bb 8b02 243b 5fbd 343b a090 bcba
00000050: f27e 9f3b 1748 5fbb d3ed 483c 92cb c13b
00000060: 6a3f fe3b cf7f ea3a df2e c33a 1cfa b03b
00000070: 5609 92bb 085f 833b 7bfd 963b 849a 463b
00000080: da46 e2bb ecd8 143b 67c4 17bb 7d03 e13b
00000090: 87b7 f3ba c933 20bb 104d 1cba e9ed 8dbb
000000a0: daa3 48ba c70f 27bc 108e 57bb 48d7 083c
000000b0: 6236 e53b d255 d63b 0b95 d8bb 1254 473c
000000c0: 7336 a7bb 5229 b0bb b33b 76bb c9b3 9dbb
000000d0: 32d6 36b9 bd18 a53b f241 603c 4a79 7d3b
000000e0: 97ee 23bc 56ec 2d3b 9179 18bc fb58 e1bb
000000f0: 2706 b63a 17ba c83a ab4e a0bb a587 e7bb
00000100: 14b4 003c 8d5b 613c b8a7 4fbb f2a1 9639
00000110: 6fd8 ef3a 607c 613a 80ba f23b 1fe8 89bb
00000120: 8953 87ba 730e f8ba 4b4a ca3b b7af 813b
00000130: 79a8 80ba 72ac d93b f035 f4bb 1052 22bb
00000140: de0f 43bc 9aee 5ebb 653f cbbb 9856 34ba
00000150: 3ce3 c1bb f7f4 3a3b 2ab2 42bc c2bc 4f3a
00000160: 770d 9cbb a2cd 06bc 79ce 1a3b 65dd a6b8
00000170: a13a 85bb f27c 493b fcd4 31bb 467b 2d3b
00000180: b785 ba3a 1f5f a0ba 1594 e9bb c55e e7b9
00000190: 69e8 293c c308 413c 3fd4 e2b9 6dae 36bb
000001a0: 431d 323b 032c abbb d329 fbbb 4b4c 8e3b
000001b0: 3ec6 b53b 54da a73b c332 ecbb e833 733a
000001c0: 2577 d139 962c 08bc 2755 723b 3219 91bb
000001d0: a9e9 bdba cd94 75bb ff4e 8a3b 42ba 623b
000001e0: e904 0a38 24f7 843b 3dcf e239 3e82 86bb
000001f0: 5669 9239 abd0 b83b 2b11 7abb 7d05 5c3b
00000200: 58db a53b b9f8 873a b097 0ebb e382 b8ba
00000210: 2632 abbb 6ea0 40bb cde9 ec3a 05da e3ba
00000220: 9ffd 86ba 965b 35bc db43 a93b d10e 2d3a
00000230: 6a36 133c fe7c 8e3b 1d08 5b3a 11f0 00bc
00000240: 2fe4 99bb 929a 4938 e0d8 beba 149d 9a3b
00000250: 6299 cc3b fdb4 7139 4a03 9f3a bff2 7a3b
00000260: c59c 3eba 89f0 cbbb f111 c13a 6ff1 7e3b
00000270: 3cbe 31ba d714 04bb d5c9 dc3b 971c bbbb
00000280: 63e6 faba d4a8 883b a5cd 1fbb 5160 8abb
00000290: 9915 cabb 7001 953b fb7f 553a 406f 283b
000002a0: 3beb d73b 1da1 68ba 3bac 31bc 880e a73a
000002b0: 2f6e c1ba 6d31 013b ae04 49bb f5ec 47bb
000002c0: 7d3b 103c be82 9d3b 0bfc 773c 3b74 ef39
000002d0: 8123 053c 80d0 06bc 471f 0bbc cf7c b03a
000002e0: 367b 14bc 1731 b5bb 7a3e 533c 5081 7f3b
000002f0: 68ee 513b 63b2 923b 50cf ea3b ca1d 5fbc
00000300: 0114 203c 135b 853c c0cd 50bc 3937 103b
00000310: ba9d e53b 13b2 a83b e04b b63b 8ad9 e23b
00000320: f267 de3b 9356 f83b 374a 1a3b b56a 173c
00000330: 5fd1 84b6 2db5 7ebb e55c c8bb ee70 94bb
00000340: 8be9 a5bb 7ad0 04bc 4756 d13a e976 caba
00000350: 1bc2 13bb c37d 54bb 3afd 8d3b f3c9 0ebb
00000360: e7a1 a83a 350b cb3b fd5d cfba 8cce 143b
00000370: 4970 b7ba c5a3 6bbb 230a 8a3b 5497 b8bb
00000380: 4f8e 2bbc 8437 2ebb f249 14bc bf32 2dbb
00000390: f606 933b 5e53 39bb 45ea e439 5cf7 90bb
000003a0: d366 073b ed4a f93b c7f7 adba f384 2dbb
000003b0: c049 e2bb 170b 8f3c 5f1a e53b fef4 a3bb
000003c0: b27f 233c 99fc 1a3c 95b2 193c e598 03bc
000003d0: 4829 113b 3399 26b9 6fc4 6f3b c28a 6a3b
000003e0: bc2f 29bb 32c0 f9ba 7234 163b 0579 9cba
000003f0: aec1 b7bb 573e 16bb 60b6 1a3c 606b 183c
0.0023303265 -0.009665111 0.0040141656 0.0011586647 0.0028237633 -0.0033403744 0.0057890587 -0.0032128138
0.003534618 0.005960822 -0.009350602 -0.0071922536 0.00693172 -0.0038217914 0.0069845715 -0.0025216797
-0.0056362236 0.002502593 0.0027578694 -0.0014386363 0.004867428 -0.0034070069 0.012263733 0.00591416
0.0077590244 0.0017890873 0.0014891288 0.005400909 -0.0044566793 0.0040091313 0.004607854 0.00303045
-0.006905419 0.0022712303 -0.0023157836 0.006866871 -0.0018594124 -0.002444493 -0.0005962411 -0.0043313396
-0.00076538103 -0.010196633 -0.0032891072 0.008352108 0.0069950083 0.0065409923 -0.006609564 0.01216604
-0.0051029264 -0.0053760195 -0.0037572205 -0.004812692 -0.00017436667 0.0050383494 0.013687598 0.003867703
-0.010005615 0.0026538572 -0.009306327 -0.0068770624 0.0013887332 0.0015314248 -0.0048921905 -0.0070657306
0.007855434 0.013754738 -0.0031685662 0.00028730888 0.0018298755 0.0008601602 0.0074074864 -0.004208579
-0.0010324578 -0.0018925205 0.006173407 0.0039577144 -0.0009815834 0.0066428715 -0.007452719 -0.0024768151
-0.0119056385 -0.003401673 -0.0062026256 -0.00068793586 -0.005916981 0.0028527358 -0.011883298 0.00079245504
-0.0047623473 -0.008227738 0.0023621602 -7.956735e-05 -0.004065827 0.003074464 -0.0027135005 0.0026471182
0.0014230524 -0.001223538 -0.0071282485 -0.00044130362 0.010370352 0.011781874 -0.00043264215 -0.0027874962
0.0027178086 -0.0052237525 -0.007664898 0.004342591 0.005547314 0.0051224623 -0.0072081997 0.0009277449
0.00039952356 -0.008311411 0.0036977024 -0.0044280523 -0.0014489192 -0.0037472725 0.004220843 0.0034595882
3.2906337e-05 0.004057782 0.00043260484 -0.0041048815 0.0002792577 0.0056401095 -0.0038157206 0.0033572607
0.005061548 0.0010373808 -0.0021757893 -0.0014077093 -0.005224484 -0.0029392499 0.0018075049 -0.00173837
-0.0010298974 -0.011069199 0.0051655597 0.0006601634 0.008985141 0.0043483963 0.0008355396 -0.007869736
-0.004696391 4.806609e-05 -0.0014560483 0.004718432 0.0062438706 0.00023050974 0.0012131718 0.003829166
-0.0007271285 -0.0062237424 0.0014730078 0.003890123 -0.0006780361 -0.0020154023 0.0067379274 -0.0057101953
-0.0019142147 0.0041705165 -0.0024384048 -0.0042229076 -0.0061671254 0.0045472905 0.0008144376 0.0025701076
0.006589321 -0.00088741054 -0.010844286 0.001274542 -0.0014757569 0.0019713298 -0.0030672955 -0.0030506228
0.008803246 0.0048068454 0.015135775 0.0004567223 0.008126141 -0.008228421 -0.008491344 0.001346493
-0.009062579 -0.0055295336 0.012893314 0.0038986988 0.003203297 0.0044768318 0.007165827 -0.013617942
0.009770394 0.01627878 -0.012744367 0.0022005572 0.007007328 0.005148181 0.005563244 0.0069229053
0.0067872936 0.00757868 0.002354277 0.0092417495 -3.9582806e-06 -0.0038865313 -0.0061145895 -0.004530064
-0.005063241 -0.008106345 0.0015971147 -0.0015446815 -0.0022546116 -0.0032423593 0.0043331655 -0.0021787852
0.0012865633 0.0061964043 -0.0015820857 0.002270612 -0.0013995256 -0.0035955769 0.004212634 -0.005633274
-0.010470941 -0.0026583383 -0.009050833 -0.0026427952 0.004486914 -0.002827845 0.00043662093 -0.004424019
0.0020660653 0.007607809 -0.0013272696 -0.002647695 -0.0069057643 0.017461343 0.006991669 -0.0050035706
0.009979175 0.009459638 0.009380956 -0.008032058 0.002214985 -0.00015888065 0.003658559 0.0035788273
-0.0025815805 -0.0019054471 0.0022919443 -0.0011937922 -0.005607805 -0.002292534 0.009442896 0.009302944

onnx::Div_80 f4 [36]
00000000: 7ce2 bb3e 5d95 cf3e b303 ff3e 5a97 ba3e
00000010: f86a bd3e b420 cf3e 9b49 ff3e 0c36 bb3e
00000020: 976b c03e 5256 cf3e def2 ff3e 1576 be3e
00000030: 1fee c73e ef64 cc3e 50ce ff3e 66f3 b93e
00000040: 0c0e c83e e2e0 cc3e 25ff ff3e ba5c be3e
00000050: 0f47 c93e 8ec7 bb3e b469 fe3e 8878 ba3e
00000060: cd4e c83e bd04 be3e e17a ff3e f90f c03e
00000070: 2121 c43e a996 343e 3ae8 ea3e 53f3 bb3e
00000080: 9b3c c23e f221 323e 5fb1 ee3e 1cf7 c23e
0.3669623 0.40543643 0.4980751 0.36443597 0.36995673 0.40454638 0.49860844 0.36564672
0.37582085 0.40495545 0.4998998 0.37199464 0.3904886 0.39920756 0.4996209 0.3631851
0.39073217 0.40015322 0.49999347 0.3718012 0.39312026 0.36675686 0.4969002 0.36420083
0.3912262 0.3711299 0.49898437 0.37512186 0.38306525 0.17635597 0.458803 0.3670908
0.37936863 0.17395762 0.46619698 0.38079154

onnx::Div_83 f4 [13]
00000000: 7993 643f 3120 d53f 7c47 643f e346 833f
00000010: 08ef 8d3f aeea 8c3b aeea 8c3b aeea 8c3b
00000020: aeea 8c3b aeea 8c3b aeea 8c3b aeea 8c3b
00000030: aeea 8c3b
0.89287525 1.6650449 0.89171576 1.0256008 1.1088572 0.004300437 0.004300437 0.004300437
0.004300437 0.004300437 0.004300437 0.004300437 0.004300437
