results/run1/AvoidAgent/AvoidAgent-104799.onnx (onnx, 324058 bytes, 12 tensors)

network_body.observation_encoder.processors.0.normalizer.running_mean f4 [36]
00000000: f363 263e 82af 513e e64e 0a3f db64 313f
00000010: 4df8 253e 41f7 4f3e 10e6 083f 1d99 303f
00000020: 14af 203e 6050 513e e672 063f 42fc 2e3f
00000030: 8d36 323e 223a 4b3e 759d 063f 1ce7 333f
00000040: fcd0 2a3e 4101 4d3e cdf8 033f 8391 313f
00000050: 3d5a 373e 1b0f 1d3e aef0 103f deda 3d3f
00000060: e121 2d3e 39d7 1d3e 7a94 0f3f 80a0 3b3f
00000070: 1dda 2b3e 70df c23c 3a71 353f 77ed 483f
00000080: d719 1f3e e8e2 db3c 2bc2 343f 8a44 473f
0.16249065 0.20477107 0.5402664 0.6929452 0.16208 0.20309164 0.5347605 0.6898363
0.15691787 0.20440817 0.5251907 0.68353665 0.17403622 0.19846395 0.5258401 0.7027452
0.16681284 0.2002001 0.51551515 0.6936266 0.17905517 0.15337794 0.5661725 0.7416209
0.16907455 0.15414132 0.5608593 0.7329178 0.16782422 0.023788184 0.70875895 0.7848734
0.15537201 0.026841596 0.70608777 0.7783896

network_body.observation_encoder.processors.1.normalizer.running_mean f4 [13]
00000000: e7fe 15bd b7e4 e8c2 dcd2 7b3d 71c5 da3e
00000010: 8c1f b040 8bfe 7f3f 8bfe 7f3f 8bfe 7f3f
00000020: 8bfe 7f3f 8bfe 7f3f 8bfe 7f3f 8bfe 7f3f
00000030: 8bfe 7f3f
-0.036620047 -116.44671 0.061480388 0.4272876 5.503851 0.99997777 0.99997777 0.99997777
0.99997777 0.99997777 0.99997777 0.99997777 0.99997777

network_body._body_endoder.seq_layers.0.weight f4 [256, 49]
00000000: f4ca f93d c5a1 b13d 8188 1bbe 0fd6 b8bb
00000010: f4ff 4abd c5d8 703d bcbc 923d d41f e9bc
00000020: ae4c b23b b0dc e43c 7157 303d ae84 393e
00000030: d541 cd3d 8457 1bbe f88f b7bd 653f a7bd
00000040: e188 ec3d 85d9 9fba c97d b23c a5f0 7a3d
00000050: 7b61 05be 0c21 4d3e 1b61 12bd 345d 073e
00000060: d9ee 703e ead8 4e3d 6dff 4f3e ce3f 94bd
00000070: 45a7 a43d d431 bebd 68b6 dfbd f8e8 82be
00000080: 8003 ad3d 15f0 32be 3fac cbbe fdd6 b03d
00000090: e793 07be 08d6 123e 3449 49bd e88e 47bd
000000a0: 9e32 143e 5b75 13be b24b d33c 54f6 5abe
000000b0: 6a65 97bc 9249 b23b 4148 67be fb91 33bd
000000c0: ad67 22bd bf8d f23c 369c f1bc 8776 3d3e
000000d0: c6dc adbd f719 8abe d72f e6bc 38b4 4b3e
000000e0: b4af a2be f9f5 663d e777 0cbe c464 963e
000000f0: b78e 84be fe32 1ebd 7ea5 f3bd 06b0 463e
00000100: c698 0e3e 754b b73d 441b fb3d 21e5 4c3d
00000110: e573 053e 30cb 353b 6aa5 923c 7d8a 213d
00000120: eb51 ad3d feb9 023e 127c c83d 07be 413e
00000130: fa02 303e d03f 76bd ef54 bf3d f315 9a3c
00000140: 1bd7 a7bb e598 fcbd b79a ed3d 0c5e f63d
00000150: cfc9 1dbd da32 e8bd 1d4d f1bc f92e c8bd
00000160: a927 e2b9 2856 293e 3f8a 2e3d 32fb a23d
00000170: 3a94 5d3e 9c35 9e3d be41 b8bc 9782 573d
00000180: 6349 4fbd d3cf a73d 8a1b afbd cdbb ed3d
00000190: 5bee 30be f057 923d e8d2 43bd 3794 02be
000001a0: 14f5 aa3d 796b bf3d 4e24 9abe dd8e f33d
000001b0: dee3 50be 38be 66bc fe8c ecbd d90a cb3c
000001c0: e02a 2ebe 0118 ed3c a25a e0bb a930 093e
000001d0: 9217 da3d 1e3a 323b 2a97 313e 4843 083d
000001e0: 8b31 31bd e3ca d9ba cf35 103d 8bc7 953d
000001f0: 7d71 853b 8eaa a73e 2355 83bb 38a4 b03d
00000200: b7f4 503e 5c2d 0d3d 5123 78bd 38fc 243e
00000210: de20 ac3e 1423 96bb 1528 e1bd 7e6b 09be
00000220: 7de4 ca3c 0134 97be d344 723d 7a5a f63d
00000230: 1e94 1dbe ba0a be3c 7624 55be f88b 153e
00000240: 142b 13be ee2d 6bbe 6868 71bd 1625 9c3e
00000250: 3702 25bc ea7f e3bc e0b9 173e f8bb 88bd
00000260: 1c4d cbbd b80a 363e 8c29 0bbc 8eed 213e
00000270: 7edc 3f3b 7e0b 21be 9cfd ed3c 8218 aa3d
00000280: 92df 34be 97b2 aebc b531 62be 121f 7e3e
00000290: 137f b0bc 3709 093d 857a 26be ee04 5cbe
000002a0: d417 21bd 6cc6 92be 5542 143d 830a 14be
000002b0: 2eee a13d 8cea 543e b463 75bd 427e 4d3e
000002c0: 6939 2e3c ce38 b13d 0995 763d 0db4 543d
000002d0: 7b68 1e3d 724f 01be 7ea2 473d dece 123d
000002e0: 5c7c 2b3e 810f c43e 2202 b8bd cc3d 9bbd
000002f0: e780 27bd 2ee8 e43d de5c 00be 2cd7 7bbe
00000300: 7ac1 94bd 0b5e 4ebd bcc0 66be 6569 ac3d
00000310: 8139 46bd 53dd fe3a 3ab3 ef3d 48fd d1bd
00000320: 139d 7fbd 9370 9e3c 3c4b ee3c eca4 d9bd
00000330: 00a6 343e 6bbc c7bd 4de3 84be 0d82 1abe
00000340: 76dc 423e f9a7 38be a073 2fbd 89df 043d
00000350: af5a f8bd c3a3 973e 8b2c df3d 0277 053e
00000360: 44d7 24bb d710 aabd 85dc ebbd 472a 933c
00000370: 7abb ed3d 155a 513e 786a d73d 665e 31bd
00000380: 0cbb 10be d65b d83d 9c1e 05be f1bc 273e
00000390: 4fa6 8ebd 99d5 d93d 5769 993c 9c4f 5bbe
000003a0: 8b3c 96bd f447 cf3d 0da8 30bd f722 1a3d
000003b0: 7fe4 d63d 993d 8b3e 9bec d43d b52d 1c3e
000003c0: c168 83be d774 103e f93c 40be 3ada 023d
000003d0: 6771 45bd fdbe 10bd ef68 8fbb 3117 85bd
000003e0: e4ee 72bd a4a1 5d3d 19c8 1cbe 8448 5f3e
000003f0: 3953 be3d c435 e5bd fcf0 623d 197f 6cbe
0.12196913 0.08673433 -0.15188791 -0.005640752 -0.049560502 0.058800478 0.071649045 -0.02845756
0.00544127 0.027937263 0.04305214 0.1811702 0.10022322 -0.15170103 -0.08963007 -0.081663884
0.11549545 -0.0012195563 0.021788495 0.061264653 -0.13025467 0.20032138 -0.03573714 0.13219148
0.23528613 0.050499834 0.20312281 -0.07238732 0.08039717 -0.09286848 -0.10923463 -0.25568366
0.08447933 -0.17474397 -0.3977985 0.08634756 -0.13240014 0.14339459 -0.049142078 -0.04872027
0.14472434 -0.14400236 0.02579293 -0.21383029 -0.018480975 0.005440899 -0.22586156 -0.04384039
-0.039649654 0.029608605 -0.029493432 0.18502246 -0.08489375 -0.26972935 -0.028098984 0.19892967
-0.31774676 0.05638692 -0.13717614 0.29373753 -0.25890133 -0.03862285 -0.118967995 0.19403085
0.13925466 0.08949939 0.1226106 0.0500232 0.13032492 0.0027739517 0.017901141 0.039438713
0.0846289 0.12766263 0.097892895 0.18920146 0.17188635 -0.06011945 0.09342372 0.018809294
-0.005122078 -0.1233385 0.11601775 0.12029657 -0.038522538 -0.11337824 -0.029455716 -0.09774584
-0.00043135628 0.16536772 0.04261231 0.07958068 0.21638575 0.07725069 -0.022492286 0.052614775
-0.050607096 0.08193936 -0.085501745 0.11608086 -0.17278425 0.07145679 -0.047808558 -0.12751852
0.08347526 0.09346671 -0.30105823 0.118924834 -0.20399424 -0.014083438 -0.115503296 0.024785446
-0.17008543 0.02894211 -0.006846742 0.13397469 0.10649027 0.0027195285 0.17342821 0.03326729
-0.04326014 -0.0016616251 0.035207566 0.073134504 0.0040723667 0.3274731 -0.004007952 0.08625072
0.20405851 0.034467086 -0.060580555 0.16111839 0.33618826 -0.0045818184 -0.10993973 -0.13419911
0.024767155 -0.29531863 0.059147667 0.12028976 -0.15388533 0.023198474 -0.2081469 0.14604175
-0.14371902 -0.2296674 -0.05893746 0.30497044 -0.010071329 -0.027770955 0.14817 -0.06676477
-0.09926817 0.17777526 -0.008493792 0.15813276 0.002927571 -0.1572704 0.029051594 0.08305456
-0.1766341 -0.021325393 -0.22089274 0.2481654 -0.021544969 0.033456054 -0.16257675 -0.21486256
-0.039329365 -0.2866701 0.03619607 -0.14457135 0.07906757 0.20792598 -0.059909537 0.20067695
0.010633805 0.08653413 0.060200725 0.051929522 0.03867386 -0.12627962 0.04873895 0.035841815
0.16746658 0.3829308 -0.08984782 -0.07580146 -0.040894415 0.11177097 -0.12535426 -0.245938
-0.07263465 -0.050382655 -0.2253446 0.0841854 -0.048394684 0.0019444622 0.11704107 -0.10253388
-0.062405657 0.019340789 0.029088609 -0.106271595 0.17641449 -0.09752735 -0.25954667 -0.15088673
0.19029412 -0.18032826 -0.042834878 0.032439742 -0.121266715 0.29617128 0.10897168 0.13033679
-0.0025152722 -0.08303993 -0.1151667 0.017964495 0.11608024 0.2044452 0.10518354 -0.043302916
-0.14133853 0.10564391 -0.12999958 0.16380669 -0.069653146 0.10636444 0.018726988 -0.21417087
-0.073357664 0.10121146 -0.043129016 0.037631 0.10492801 0.27195433 0.103966914 0.15251811
-0.25665858 0.14107071 -0.18773259 0.0319464 -0.048203852 -0.03533839 -0.0043765227 -0.06498564
-0.059309855 0.05410923 -0.15310706 0.21805006 0.09293217 -0.111918956 0.0554056 -0.23095359

network_body._body_endoder.seq_layers.0.bias f4 [256]
00000000: 062d 053c 12ff 2dba b6eb c439 aa41 88bc
00000010: b3b7 11bc bd59 46bc a2b5 54bc 85b5 cb3b
00000020: bfa1 43bc fc4c 55bc 709b 83ba 46d6 0ebc
00000030: 1690 1dbc e34e 61bb b044 c0bb 34f0 3ebc
00000040: f0d4 093a c9fe 8b3a 4427 883b 776b c9bb
00000050: bde8 28bc fe90 28bc 5f3c 10b9 5f3d 48bc
00000060: 3ff2 5bbc 88f9 c3bb 3082 c139 d58d c9b9
00000070: 3274 22bc bd77 36bc e4d1 3b3b 14b8 b5bb
00000080: df36 e0bb 5e92 c23a 650b b1bb 1433 1a3b
00000090: 5210 48bc 5b52 b03b 6e9f c3ba 7174 973b
000000a0: 0533 b1bb 7bae 2ebc 86e3 b1ba c703 05bc
000000b0: e567 533b 8e63 1abc e022 823b 29a5 32bc
000000c0: a8c5 793b f4b5 06bc 3c93 c63b 6024 73bb
000000d0: fc80 9f3b 8025 98bc 2416 23bc a88c d83a
000000e0: 1d4c 1fbb f6fa 59bb b2c4 24bc dad9 1dbc
000000f0: 3594 c3bc b071 0ebb e519 d73b 0e88 b6ba
00000100: 86a9 03bc d091 82bb 3381 cfba b1c0 28bc
00000110: 8373 6e3a e225 0fba aa56 81bb f554 14bb
00000120: 6eb6 febb 9ace 5dbc a759 7a3b 75e2 71bb
00000130: 6392 edbb 60db 543a cf68 633b 5815 2a39
00000140: 6f13 9fbc 4c79 b73a 9617 aabb 91d8 57bc
00000150: d212 c83b 7d22 4ebc 9340 053b 2ff9 63bc
00000160: aa40 39bc 39c1 6fbc c342 1dbc 7cf2 903b
00000170: 10ea b5ba 755b 18ba 48c5 e8bb 41f0 a639
00000180: fd15 19bc 2a7b 8539 4fbb 7bbc 88a3 41bc
00000190: 4a7f 2fbb ef95 ef3b c600 3fbc 4a67 9a3b
000001a0: 48e8 45bb 094d 27ba 446d 073c 875b 47bc
000001b0: 2be6 79bb 4c8c bdbb 10ef 943b 046e 0dbc
000001c0: e45f dbba d74d 9dba e2df d439 ef42 98bb
000001d0: 7ba3 43bc 639c fdbb c0a0 6fbb 9cc8 b83a
000001e0: 1de4 81bb 545e a9bb dc4d 783b fe0d 97b9
000001f0: 4504 a0bb 515a 54bc c77f 5eb9 051a c6ba
00000200: b39b feba 95d8 a3bc f63a b2bb a907 17bc
00000210: ac27 60bc 9171 88bb a531 16bc 108e cebb
00000220: 51ba 8fbb 847e f7bb 5d66 63bc 2eff 983b
00000230: 8909 93bc 50a2 07bc 38df 18bc f46d f5bb
00000240: 5299 243b f858 01bc a4c0 30bc 40b4 2abc
00000250: c90f bcbb 6fc3 1dbc 16af afba 1674 293c
00000260: 8c63 c9bb 8e7d e0ba ef18 89bc c8d4 3abc
00000270: 21cb 64bc 9fcb 2bbb 6db5 87bc 0931 07bb
00000280: 2081 08bc e931 a7bb da12 ab3a f93b d33a
00000290: f73f 00bc 0107 61bb a2a2 5ebc 6bfc e8ba
000002a0: 0f9c ce3b 5235 4bbb 6cd1 0d3b 2ae8 9bbb
000002b0: 27b8 4d3c e82b 32bc 3585 9db8 4497 63bb
000002c0: 83ec 07bc 7659 b6ba 07da 05bc d236 8bbb
000002d0: 912e 2dbc 0db5 1d3c 9e73 1abb 4fb0 49bc
000002e0: 2f63 7cbc 2415 78bc 5f28 81ba 838e df3b
000002f0: 2b09 bcbb e521 aabb 03c9 99bc 7c45 87bb
00000300: 2131 cebb 38c6 253b b8c0 13bc a556 df3a
00000310: 6f6b 52bc 5cf9 09bc 1b6c 7bbc bdbf debb
00000320: 7d19 8fbc 8578 e9ba 81f1 0abb a7cf f4bb
00000330: b4d6 4b3b bc8d c5bc c6d3 9abc 884c 5bbc
00000340: e7e0 4ebb b07a 5cbb 5752 493a 8d08 84bc
00000350: 3822 a6bb 82da 09bc 92a6 01bc 03a3 6fbb
00000360: 36f6 1dbc 8d42 9fbb 7e90 1eba 7188 a2bb
00000370: 77af 08bc aaa3 f3bb ceaf 8e3b 21ca 36bb
00000380: c940 20bc cd57 4fbb a6f0 9f3b 0643 85bc
00000390: 2d7b 49bc b5c2 cfbc e2c9 f8bb 8864 c3bb
000003a0: 634d 193c 8d0d 2a3b bff4 b8bb 6a4a 02bc
000003b0: 8251 66bc dc16 34bb 2a9e 95b9 bf09 213b
000003c0: 080b d9ba 0ae7 37bb 2935 2d3b 4648 fcb9
000003d0: 8214 afbc 3c19 513b 7d5c f13b 0731 a8b9
000003e0: c708 8c3b 65aa 93bb 9cd8 00b9 089b a0bc
000003f0: 38fd 9838 faca 3ebc 6d79 323b 5713 3abb
0.00812841 -0.00066374347 0.00037559652 -0.016632874 -0.008893895 -0.012106356 -0.012982758 0.006216707
-0.011940419 -0.013018843 -0.0010040831 -0.008718079 -0.009616872 -0.0034379296 -0.005867563 -0.011653949
0.00052578654 0.001068079 0.0041550715 -0.006146844 -0.010309395 -0.010288475 -0.000137554 -0.012221663
-0.013424455 -0.005980674 0.00036908826 -0.0003844338 -0.009915398 -0.011136946 0.002865904 -0.0055456255
-0.0068424786 0.0014844646 -0.0054029697 0.002352898 -0.012210922 0.0053809113 -0.0014924833 0.004622035
-0.0054076933 -0.010661717 -0.0013571836 -0.008118576 0.003225797 -0.00942315 0.0039714426 -0.010903635
0.0038112197 -0.008222092 0.006060032 -0.0037100539 0.004867671 -0.018572569 -0.009954009 0.0016521411
-0.0024306842 -0.0033261157 -0.010056661 -0.009634459 -0.023874382 -0.0021735243 0.006564366 -0.0013926046
-0.008036023 -0.0039846674 -0.0015831351 -0.010299847 0.0009096192 -0.0005460662 -0.0039470987 -0.0022633646
-0.007773212 -0.013538027 0.003820041 -0.003690866 -0.0072501167 0.00081198476 0.0034699922 0.00016220415
-0.019418446 0.0013997941 -0.0051908 -0.013174192 0.006105759 -0.012581465 0.0020332679 -0.0139143905
-0.011306921 -0.01463347 -0.009598437 0.0044234376 -0.001387896 -0.0005811968 -0.007103596 0.0003184099
-0.009343621 0.000254595 -0.015364482 -0.011818774 -0.002677875 0.0073115746 -0.011657899 0.00471202
-0.0030198265 -0.00063820236 0.008265797 -0.012167818 -0.0038131576 -0.005784547 0.0045451 -0.008632187
-0.0016736952 -0.0012001347 0.00040602597 -0.004646651 -0.011940832 -0.00773959 -0.003656432 0.0014097872
-0.003963961 -0.0051687155 0.0037888205 -0.0002881139 -0.0048833215 -0.012960986 -0.0002121917 -0.0015113956
-0.0019425064 -0.020000735 -0.0054391576 -0.009218135 -0.0136813335 -0.004163929 -0.00916711 -0.0063035563
-0.0043862243 -0.0075529236 -0.013879386 0.0046690917 -0.017948883 -0.008278444 -0.009330563 -0.007489914
0.00251158 -0.007894747 -0.010788117 -0.0104189515 -0.0057391864 -0.0096291145 -0.001340362 0.010342618
-0.0061459 -0.0017127262 -0.016735522 -0.01140327 -0.013964445 -0.0026213897 -0.016566003 -0.0020628592
-0.008331567 -0.0051023853 0.0013051883 0.0016115896 -0.00782775 -0.003433645 -0.013588579 -0.0017775422
0.0063052247 -0.0031007123 0.0021639718 -0.0047579007 0.012556112 -0.010874726 -7.511155e-05 -0.0034727613
-0.008296135 -0.001391216 -0.008169658 -0.0042484784 -0.010570184 0.009625685 -0.0023567448 -0.012310102
-0.015404507 -0.015141759 -0.000985395 0.0068224086 -0.0057383976 -0.005192029 -0.018772608 -0.004128156
-0.0062924777 0.002529515 -0.009018116 0.0017039372 -0.012842997 -0.008421268 -0.015345599 -0.0067977593
-0.017468208 -0.0017812407 -0.0021201076 -0.007471043 0.0031103315 -0.024115436 -0.01889981 -0.013384946
-0.0031567158 -0.0033642463 0.0007679811 -0.016117359 -0.005069997 -0.008413913 -0.007913249 -0.0036565668
-0.009641221 -0.0048602284 -0.00060487527 -0.0049601127 -0.008342615 -0.0074352818 0.0043544536 -0.0027891474
-0.009781071 -0.0031638027 0.0048809825 -0.01626731 -0.012297434 -0.025361398 -0.0075924257 -0.005962912
0.009356829 0.0025948018 -0.0056444104 -0.007952312 -0.014057519 -0.0027479446 -0.00028537336 0.002457246
-0.0016559074 -0.0028061294 0.002642939 -0.00048119033 -0.021372084 0.003190591 0.007365762 -0.00032079985
0.0042735073 -0.0045063966 -0.00012287725 -0.019605175 7.2950905e-05 -0.011645073 0.002723302 -0.0028392875

network_body._body_endoder.seq_layers.2.weight f4 [256, 256]
00000000: 24f6 283d 2793 34bd 06f1 993d bcf1 0bbd
00000010: e185 433d e741 033d 01ee 4d3c fe57 31bc
00000020: 5cfe d2bc 58e1 90bd 3b0d e7bc ea47 0bbc
00000030: fb32 383c 740e 56bd f49d 933d 622b 413e
00000040: 9344 ee3c c46a f0bc 295a a53c 4d4e b3bc
00000050: 96de c4bd 8e39 11bd ed74 1dbe 6d3a 31bd
00000060: a4e3 91ba 80b8 edbb 158c 1e3d 2047 ee3c
00000070: f205 9c3d 24e9 0bbd 3363 743d cc6d cdbd
00000080: edae 1ebd 4734 a6bc 9a39 55bd 2783 82bd
00000090: cec0 2b3c faf0 7bbd 1c9a 0b3d 8b24 133d
000000a0: 059e 9fbc 39e7 7c3c 7f20 0abd 7f79 823c
000000b0: 62de e7bc 8b59 8cbc b1ec 87bd 4de3 8dbd
000000c0: 269f ad3b 05d2 863d 86a9 a6bd 9168 d43c
000000d0: dd30 773d 22da 983c 5d09 583c d42b 963c
000000e0: 1808 513c 3ce4 66bc c730 c43d 398e 9ebd
000000f0: 66b5 f33d 350b a1bc 4143 f63c 582f 60bd
00000100: 6089 463d 4005 273e 54aa d8bd 59b9 fe3c
00000110: 25b2 963a edb0 26bd 5fcc 85ba 359a d13c
00000120: 6893 11bd fa3c 87bd c807 19be c246 4fbc
00000130: d9d1 af3d 876e f2bc bd59 a4bd 9c51 c43c
00000140: 0f8c e53d b319 ffbc 1a53 39bd c2c9 473c
00000150: 5568 55bc e3cd 4cbc 7e5e f4bc ad22 83bc
00000160: 0018 a6bc 65af 303e 8607 a83c f681 82bd
00000170: 9679 29bd 40f1 cdbc 7927 ac3c 8d45 25bd
00000180: 440e 5e3d c89c b9bd 8328 72bd 9645 41bd
00000190: 7014 16bd a1e4 e33d 3bd7 19bd 52fc 97bd
000001a0: 4956 2ebd 516f 343d 1630 8fba 8431 14bd
000001b0: 965e 043e 74e4 05bc dc10 49bc 84e1 f7bc
000001c0: 5bbc 99bc f2e3 a4bc 2fe7 06bd 2ecf ac3c
000001d0: b358 d1bd 85d0 f3bc 0be7 d03b 1f7f d3bd
000001e0: 5b4a bf3c 89cb 12bd 0c91 863d 9dcf dcbd
000001f0: be57 e33d 093d 1ebb 1743 463d 70cb 013d
00000200: b6c3 f5bd 8f76 1d3d ea5f 183d 5b75 6cbb
00000210: 6553 b83d d6e3 223d 0dec 41be df7e 70bd
00000220: c312 073e fe5f 0c3d 2ae4 00bd a123 9abd
00000230: e9dc 2d3d 411f 583b c177 a7bd 0a88 a33c
00000240: 92a7 983b bae2 0d3e 8e8b 5dbc ae7b a13d
00000250: 3bd1 9f3c e643 e9bc 0e72 a53d e0fb 83bd
00000260: e02b cd3c e43e 0bbc 814a c5bd 7aa1 00be
00000270: ebca 89bd e869 2a3d 3251 e6bc b655 58bb
00000280: 7e71 7ebc 1f75 96bd 462e 913d 07ea ac3c
00000290: a7b2 69bd f53a b9bd f415 e4bd f313 1bbd
000002a0: de9e a63a a75f fd3c a2b4 44bd 096a 45bd
000002b0: c384 86bd ba1b 58bd 48ee 99bd 9033 a9bd
000002c0: 75b1 923c a49e af3d df11 e1bc af5f 4abd
000002d0: 76c7 83bc d479 403c 87bd c13d c6f2 38b9
000002e0: 317b e13d e9a2 f43c d533 e93d c1ad 8e3c
000002f0: cd53 80bc 29fc 85bd 42dd cf3c 571b fb3b
00000300: c904 183d 7a05 8dbd 10fa 583d 8c7b d53d
00000310: 8d98 e93a 0955 3c3c 65b2 22bd 6deb c6bc
00000320: e39d 443b 1352 a93d befe efbc db15 d3bc
00000330: 6ba7 33be f3d9 05bc f459 da3d e182 823c
00000340: 5858 033d 4fa1 86bb b8cc c23d 3e1f 1f3e
00000350: 078e 26bd b53c 263d 7ae0 9d3c 7f89 9c3d
00000360: c7ce 903c cef3 213c 136a 7abd 2f82 273d
00000370: edb5 33bc 5c30 96bd 0eea 2fbb 1392 23bd
00000380: 75b1 513b 90fb e1bc b731 103d 9618 653d
00000390: f9e1 2f3b 4875 513a b5bf 19bd c9c9 c23d
000003a0: 7f71 493d 9721 de3d 02e2 de3d 9f41 6dbd
000003b0: 4d8c 3dbd 3e99 2bbd f9ab 593d 8ce4 4fbd
000003c0: 0f77 983d 7958 abba c536 8f3c 292b ee3b
000003d0: b962 80bb 9b67 72bd 1ba9 40bd 66db 03be
000003e0: ca6b 0e3b 1b54 f2bc b9ca 53bd e95d debd
000003f0: 3b09 973d 7cfb 0f3d 0e7d d13c 68e0 bd3c
0.041250363 -0.044085648 0.07516675 -0.034166083 0.0477351 0.03204527 0.012568952 -0.010824202
-0.025756054 -0.07074231 -0.028204551 -0.008501032 0.011242623 -0.052259877 0.072078615 0.18864205
0.029085433 -0.029347785 0.020184593 -0.021887923 -0.096127674 -0.03545528 -0.15376635 -0.04326861
-0.0011130464 -0.00725466 0.03870781 0.02908665 0.076183215 -0.034157887 0.059664916 -0.10030708
-0.03874104 -0.0202886 -0.052056886 -0.063726716 0.01048298 -0.06150911 0.034082517 0.035923522
-0.01948453 0.015435987 -0.033722397 0.015927074 -0.028304283 -0.017132541 -0.06636942 -0.0692812
0.005298513 0.06583027 -0.08137803 0.025928767 0.060349334 0.018658701 0.013185826 0.018331446
0.012758277 -0.014092501 0.09579616 -0.077419706 0.118998334 -0.019658664 0.030061366 -0.05473265
0.048470855 0.16310596 -0.105793625 0.03109424 0.0011497183 -0.040696073 -0.0010208002 0.025586227
-0.03554097 -0.06603427 -0.14944375 -0.012651147 0.08584947 -0.02959372 -0.08024929 0.023964696
0.11208355 -0.031140184 -0.045245267 0.012194099 -0.013025363 -0.012500259 -0.029830214 -0.016007746
-0.020275116 0.17254408 0.0205114 -0.06372444 -0.04137572 -0.025139451 0.021014916 -0.040349532
0.054212824 -0.09063107 -0.059120666 -0.047185503 -0.036640584 0.11127592 -0.037558775 -0.07421173
-0.042562757 0.044051472 -0.0010924365 -0.036180034 0.12926707 -0.008172143 -0.012272086 -0.030258901
-0.018766573 -0.020128224 -0.032935318 0.021094885 -0.10221996 -0.029762516 0.0063751987 -0.10326981
0.023350885 -0.035838638 0.06570634 -0.107817866 0.1110072 -0.0024145267 0.048403826 0.031688154
-0.120002195 0.038443144 0.037200846 -0.0036080691 0.09000281 0.039768063 -0.18937702 -0.058714744
0.13190751 0.034271233 -0.031467594 -0.07526327 0.042447004 0.0032977613 -0.08177138 0.01996233
0.004658648 0.1385602 -0.013522042 0.07884918 0.019508949 -0.02847476 0.08078395 -0.06444526
0.025045335 -0.008498881 -0.09633351 -0.12561598 -0.06728157 0.041604906 -0.028114889 -0.0033010072
-0.015529988 -0.07346558 0.07088904 0.021107687 -0.05705514 -0.09044448 -0.11137 -0.037860822
0.0012712141 0.0309294 -0.048023827 -0.048196826 -0.06568291 -0.052760817 -0.07516152 -0.08261788
0.017906884 0.0857518 -0.027474342 -0.049407657 -0.016086321 0.011747796 0.094599776 -0.00017638048
0.11009825 0.029862838 0.11386839 0.017416837 -0.01566496 -0.06542236 0.025374059 0.0076631713
0.03711394 -0.0688581 0.052972853 0.10423955 0.0017821953 0.011494883 -0.03972091 -0.024282182
0.0030001334 0.082676075 -0.029296275 -0.025767257 -0.17544334 -0.008169639 0.106616884 0.015931549
0.032066673 -0.004108585 0.09511703 0.15539262 -0.04066279 0.04058524 0.019272078 0.07643413
0.017676724 0.009884788 -0.061136317 0.040895637 -0.010968667 -0.073334426 -0.0026842388 -0.03993423
0.0031996642 -0.027585775 0.03520366 0.05593165 0.002683757 0.00079901936 -0.03753634 0.09511144
0.049180504 0.108462505 0.10882951 -0.05792391 -0.04627638 -0.04189419 0.05314252 -0.05075507
0.074445836 -0.0013072632 0.01748217 0.0072683287 -0.0039180187 -0.059180837 -0.04703627 -0.12876663
0.0021731728 -0.02958112 -0.051707003 -0.10857756 0.073748074 0.035151944 0.025572326 0.023178294

network_body._body_endoder.seq_layers.2.bias f4 [256]
00000000: 8524 52bc 696a 5ebb ab60 adbb ca75 78bb
00000010: a9f6 41bb df09 5fbc 9b17 853b 0f7a 31bc
00000020: 1939 cabb 21fd 35bb 3741 caba 3566 b83a
00000030: b296 acbb 0adf 9038 d55c 0abc 748c 2cbb
00000040: 7962 54bb d820 f1bb 72e9 4cbc 4bb1 74b9
00000050: f09a d8bb 2e91 14bb e357 c7bb b6c9 a5bb
00000060: c3fa 843b fb15 823b a5f3 d03a f531 8b3b
00000070: a0e3 e839 a044 fd3b 08fe 66bc 152b febb
00000080: e19e c7bb 6759 d4bb 531b 01bc 8629 c2bb
00000090: 9f9c 7fbb bbe7 0d3b 7589 29ba 12a3 f5bb
000000a0: 94e0 46bc ade0 87bc 631f abbb e842 40ba
000000b0: 88e7 403b 8bab 3cbc 14bd cf3a 47f3 89bb
000000c0: 7395 81bc 9b95 eabb b0f9 993a 76b7 3bbb
000000d0: 1f56 13bc a43f debb 5bfe c5bb 6b2b 153a
000000e0: 1975 f2bb ea5d 7cbc 92d0 f339 34dd 9c3b
000000f0: 8f4c 26ba c50d ff3b df35 cbbb e248 053b
00000100: 2e6d c739 6078 37bc 878d a839 fc7d 5dbb
00000110: e6ee 8bbb 060b 12bc 12e8 2bbb 4949 45ba
00000120: 6cca 05bc 6599 a5bb 68d1 893b b607 f8bb
00000130: b9d6 57bc 8303 18bb 0ee4 a9b9 ebd1 c9bb
00000140: a9f4 c33a 9a38 6cba b5e9 6abb 0030 e5b9
00000150: fc7f 05bc 5827 3abc 2262 bbb8 2ad7 99ba
00000160: 5ec2 0fbc a221 843b 05c7 23bc a020 b9b9
00000170: f8b6 42bc 3556 60bc 28aa 733b 7085 f4bb
00000180: 6c59 973b 236b 96bb 12f6 9bbb 8383 703b
00000190: 5c03 0e3a ebed 13bb 21be ce3b fbf0 8fbb
000001a0: 55c1 53bb 859b 91bb 6476 b03a da6d 0abb
000001b0: fd4a 4fba a307 8fbb 78ba 19bb ea79 8abb
000001c0: 8436 3dbc 4742 e3bb 463f d13a 6ffc bbbb
000001d0: df4f 5dbb 1735 50bc 9fa4 41bc c257 84bb
000001e0: 0f2d 39bc bff4 21bc daad c739 702c 4ebc
000001f0: f7c5 af3a 1717 5ebb de84 5bbc 416c cbba
00000200: 255b d1bb 5062 673b 77b8 bfbb 1424 d4b9
00000210: 230e beba cd38 cbbb 9bd5 58bc 615d 23bc
00000220: d647 7fbb 6c9a 10bb d1bc 0ab9 301d 75bb
00000230: ab0e 8dba 1346 3f3b 6bc2 92bb 9d56 993b
00000240: 6fe2 26bc cdbd 3b3b 9f4e 20bb 4b74 0fbc
00000250: 5ac5 7aba cdea b5bb 2c3f 4abc 8189 87bb
00000260: 8c2f 93bb a735 45bc 17b7 90bb ce3d 13bc
00000270: 2048 40bc d7b1 4abc fa0d debb 3b09 1bbc
00000280: b633 e13a 29c5 063b 2e51 17bc 95e6 9c3b
00000290: f60a 28bc ec8f 903a a7ac 1e3b bd3b 37bc
000002a0: c714 9eba 4e75 afbb 5f4d 7739 ec84 e3ba
000002b0: 4870 0fbc 0e61 66bb cf96 26bc ddb4 94bb
000002c0: bac2 fabb 998f 253b d1e9 91bb a9cd d1ba
000002d0: e339 a3b9 c9ed 35bc 5812 42bb 3b92 b6ba
000002e0: 779f c6bb 32cb 07bc 113c 24bb 5c8f 94ba
000002f0: cedb a53a 42c1 18bc 972b 37bc b98e 54bc
00000300: 9bf6 63bc 0ed4 58ba f5f2 1ebc 3c94 b8bb
00000310: 74fb 06b8 385d 21bb 63b0 0f3c 361c 3dbc
00000320: 260b 6cbb 0ae6 bc3a d8bc 4dbb 0414 15bc
00000330: 8680 483b 2179 00bc 0eac 29bc ca1a 1c3b
00000340: 8186 c9bb df46 26bc 579f 053b 253a 26ba
00000350: 5742 79bb 0974 8dbb cd38 883b 9254 32bc
00000360: d789 ba39 67e5 0ab8 ba1e 18bb 68e7 37bc
00000370: 9d90 a9bb 0458 05bb 004a 8fbb 0273 1b3a
00000380: 655a 32bc a81c 00bc 4f3c c7bb b502 5dba
00000390: 1cb7 ce3b cc16 edbb 3d5f 1fbb 116e 6b3b
000003a0: 2f7a 923b 2082 f0bb 33ad 01bc 1b12 c1bb
000003b0: 400a e8bb ea7a 28bc 3544 37bc 95fa e33b
000003c0: 245a 26bc 6fbb 94bb d3d4 aabb 7dd3 94bb
000003d0: fd87 03bc 7a73 44bc 6dbf 50bc 1cde 0bbc
000003e0: 3a2f b8bb ceb6 2bba 0b82 6a3a 8ed6 3abc
000003f0: ce30 723a ab43 a5bb 4437 5d3b 4ab0 943a
-0.01282609 -0.0033937937 -0.0052910647 -0.0037912005 -0.0029596484 -0.013613193 0.004061652 -0.010832324
-0.0061713574 -0.0027769285 -0.0015430812 0.0014068546 -0.0052669877 6.907999e-05 -0.008444984 -0.0026328834
-0.0032407327 -0.0073586516 -0.01250683 -0.000233357 -0.006610267 -0.0022669542 -0.006083475 -0.005059446
0.0040582134 0.0039699054 0.0015941752 0.0042478987 0.00044420082 0.007729128 -0.014098652 -0.0077566006
-0.006091938 -0.006480384 -0.00788005 -0.00592536 -0.0039003266 0.0021653015 -0.0006467321 -0.007496246
-0.012138505 -0.016586626 -0.0052222474 -0.00073341886 0.0029434878 -0.011515508 0.0015849196 -0.004209909
-0.015818333 -0.0071589476 0.0011747386 -0.0028643287 -0.008992701 -0.006782489 -0.0060422844 0.00056903687
-0.007399213 -0.01540325 0.0004650397 0.0047871117 -0.00063438056 0.007783624 -0.0062014903 0.002033763
0.00038037583 -0.011198133 0.00032148903 -0.0033797016 -0.0042704223 -0.008913761 -0.0026230854 -0.0007525874
-0.008165937 -0.0050536864 0.0042058714 -0.0075692786 -0.013173752 -0.0023195453 -0.00032404106 -0.0061590574
0.0014950234 -0.000901112 -0.0035844867 -0.00043714046 -0.00814819 -0.011361919 -8.9351335e-05 -0.0011737098
-0.008774368 0.0040323297 -0.00999618 -0.00035310257 -0.011884443 -0.013692428 0.0037180278 -0.007462196
0.004618814 -0.0045904084 -0.0047595585 0.003669948 0.00054173707 -0.002257223 0.006309286 -0.004392741
-0.003231128 -0.004443588 0.0013463018 -0.0021122606 -0.00079075975 -0.004364924 -0.0023457091 -0.004225959
-0.011548642 -0.006935391 0.0015964292 -0.0057368795 -0.003376953 -0.01270797 -0.011819034 -0.004038782
-0.011302247 -0.009885012 0.00038085767 -0.012583837 0.0013410439 -0.0033888274 -0.013398377 -0.0015519933
-0.006389039 0.0035306402 -0.0058508473 -0.0004046267 -0.0014500063 -0.0062018395 -0.013234521 -0.009970994
-0.003895273 -0.00220647 -0.00013231045 -0.003740143 -0.0010761818 0.0029186055 -0.004478743 0.0046795146
-0.010185822 0.0028647066 -0.0024460924 -0.008755754 -0.0009566151 -0.005551672 -0.012344163 -0.004136265
-0.004491752 -0.0120367175 -0.0044163573 -0.008986903 -0.011735946 -0.012371502 -0.0067765685 -0.00946265
0.0017181549 0.0020564294 -0.009235663 0.0047882297 -0.01025652 0.001102922 0.0024211796 -0.011183676
-0.0012060635 -0.00535456 0.00023584579 -0.0017358339 -0.008754797 -0.0035153064 -0.0101677915 -0.004538162
-0.0076526077 0.0025262593 -0.004452922 -0.0016006726 -0.00031132912 -0.011104056 -0.0029612985 -0.0013929078
-0.00606149 -0.008288192 -0.0025060216 -0.0011334228 0.0012654008 -0.00932342 -0.011179826 -0.012973481
-0.013913776 -0.00082713447 -0.00970148 -0.0056329053 -3.2182274e-05 -0.0024622213 0.008770081 -0.011542371
-0.0036017387 0.0014411819 -0.0031393077 -0.00909901 0.0030594184 -0.007841379 -0.010355962 0.0023819678
-0.0061500673 -0.010148733 0.0020389163 -0.00063410617 -0.0038033926 -0.004316811 0.004157162 -0.010884421
0.00035579383 -3.311541e-05 -0.0023211674 -0.011224605 -0.00517471 -0.002034665 -0.004372835 0.0005929918
-0.01088581 -0.007819332 -0.0060801874 -0.00084308843 0.0063084494 -0.0072353836 -0.002431824 0.003592376
0.004470132 -0.007339731 -0.007914829 -0.005892051 -0.0070813 -0.010283211 -0.011185695 0.006957362
-0.010153327 -0.0045389454 -0.005213359 -0.004541813 -0.008028028 -0.011990422 -0.012740952 -0.008536842
-0.005620864 -0.00065503723 0.00089457695 -0.011403693 0.000923884 -0.005043467 0.0033754865 0.0011344042

action_model._continuous_distribution.log_sigma f4 [1, 3]
00000000: c400 ffba 0214 08bc bc95 bd3b
-0.0019455184 -0.0083055515 0.005785672

action_model._continuous_distribution.mu.weight f4 [3, 256]
00000000: 014d acbb 95d5 233a 5012 0d3b e4ed d43a
00000010: 1956 2dba cdfb 853b e19c c4bb 9963 823c
00000020: e81a b13c 1348 b3bc 2c29 e639 a715 c7bc
00000030: 9920 37bb e260 3d3c 5629 8cbc 455d 5fbc
00000040: 699d 2dbb ab14 95bc f024 2f3b be58 3aba
00000050: d020 86bc aa56 4fbc 2a95 b53c d145 2ebc
00000060: af39 7dbb 7b17 6e3b c6f4 8dba 24de 0dbc
00000070: 8ff9 b63b 46b5 68bb cf53 e33b edba e93b
00000080: ee1d 76bc b8d6 14bc eacd 7939 4378 323b
00000090: 09b1 9ebc d1f5 59bb 4328 b3bc 4e75 58bc
000000a0: 4255 d33b c178 ed3a 8beb 763b 05fc 71bb
000000b0: 75cd cf3b 5561 3bbc 495f da3b efe2 9c3c
000000c0: 3733 383c cd8c 9f3b 36fe 61bc 7cde 9b3b
000000d0: fbd3 bab8 c39d 573c b59b 0c3b d734 a6bc
000000e0: 1042 53b9 cc0c 823b eae6 713c 0763 833a
000000f0: 7c29 0cbc 4d22 47bb a2df 703c 85be 913c
00000100: 8193 6fbc aae7 9b3b 6670 533a 58c4 f5ba
00000110: c393 b73a bc4c a4bb 3a97 c6bb 2852 68bc
00000120: d2b3 943a 49eb 02ba af7e e73b 776e fbba
00000130: 3439 dfbb fb46 943b f9da d0bc 9dde 13bb
00000140: 05bc eebc 3446 b23c 2785 8cbc 4a0b c93a
00000150: 9991 9ebc 1c48 a939 2720 52bb 7a98 92bb
00000160: cae7 8f3c b175 f7bb 27ef 9fba a489 bc3c
00000170: 594b 173c 0094 72b9 8b8d 17bc 2dc9 89bb
00000180: ee8b 9a3a 0e7d 4dbb 99f6 b0bc bbf5 093c
00000190: 3dc3 7a3c a694 803a 6ef3 98bb 3724 973a
000001a0: ebc1 3c3c 504e 7eba 06c4 f03a d3d4 df3b
000001b0: 1871 14bc ff16 d33b f78b 1c3c 3368 a53c
000001c0: 80f3 9c3a a0ac f0b9 9cc1 1dbc 20b0 bc39
000001d0: e968 f9ba 0f1d d339 5145 b5bb 4e61 213c
000001e0: 9c07 55bc c5bb 29bc fe15 20bc 8c3b 2ebc
000001f0: 0175 dfbb b411 a53a e59e 273a fd5c 303b
00000200: 12af 25bb b89f 983c d22f 3a3c 843f 603b
00000210: ae01 87bc 081b 2fbb 192c 02bc 8811 203b
00000220: 3018 673c 03e9 703c 02de 243c 1b8d 8f3c
00000230: d8ed ef3b 9c9b 643c 0edd 503c 1016 d7b9
00000240: 355c dfbb 2c29 063c afdd e5ba f3ff 15bc
00000250: efc6 75bc d56e 163c 4205 eeba 3612 56bc
00000260: 0e07 533b fc80 ffb9 d2f7 5fbc df1e cb3c
00000270: 998a 17bc 2042 a03b 54a8 adbc f6ad 07bb
00000280: 7bc9 1abc 9d18 a5bb fb4c 0abb 6666 373b
00000290: 5df4 983b 750a 83bc 26ce 4e3b 3ec5 093a
000002a0: 2ea7 5c3c ea83 87ba 2d73 3a3c a250 36bc
000002b0: a349 4e3c 5345 993c c41a 34ba 0f22 19bc
000002c0: 87db 963c 9091 563c 4bc2 bcbc 8f38 ffbb
000002d0: 9b0a 85bc ebd2 6b3b 45a7 91ba e3f3 06bd
000002e0: b811 ccbc e798 993a 10f2 d5bb e0d7 a83c
000002f0: 2551 153b 8bf9 3dbc ff21 d43b 2d8b 07bc
00000300: 1a60 a23c 732a 643b ee5e fdbb a695 c73b
00000310: ac73 bb3c 79f1 efbb 01b0 78bb 3a44 913b
00000320: 207e 90bb 500a fabb 6ceb 2d3c 6468 a3bb
00000330: 213b 683b a45c bb3b 3ce5 8e3a 6df9 1ebd
00000340: 2094 1c3d ca77 1c3c 7a17 cd3b aa61 8dbc
00000350: ddd5 3dbc 22a2 d23b f057 1a3c 1151 5dbb
00000360: e111 2bbc 1e92 2d3a 917e b7bc c35f f53b
00000370: 560b a33c 64fc 34bc b049 9b3a a819 483b
00000380: c242 ccba 4a06 8c3c 9d13 4b3c 2341 37bc
00000390: d5ad b1ba d940 82bc c1e5 eeba 46c7 5cba
000003a0: cb24 cf3a 9e54 973c 216c b63b ea24 16bb
000003b0: d3d4 15bc 88b5 10bc 32f5 31bb 1f70 6abb
000003c0: 4d73 bd3c ae7d 543b a377 673b 832d e43a
000003d0: aab3 43bc eb6c 4f3c 7d18 1c3b 9330 8c3c
000003e0: 0536 3539 0daf 38bc 16ee 6abc d7d0 e63b
000003f0: 49ca 7a3c 5ff3 acbc da00 5ebc 34d4 21bc
-0.005258203 0.0006249783 0.0021525808 0.0016245213 -0.0006612256 0.004088855 -0.0060001467 0.015916632
0.021619275 -0.021884954 0.00043899694 -0.024302317 -0.0027943014 0.011558743 -0.017109554 -0.013633077
-0.002649153 -0.018198332 0.0026724897 -0.00071085605 -0.016373068 -0.01265494 0.022165854 -0.010636763
-0.0038639118 0.0036329913 -0.0010830394 -0.0086589195 0.005583949 -0.0035508438 0.006937481 0.007132879
-0.015021784 -0.009084396 0.000238232 0.0027232326 -0.019371526 -0.003325809 -0.021869784 -0.013211561
0.0064493725 0.0018117653 0.0037677016 -0.0036923897 0.006341631 -0.01143678 0.006664191 0.01915118
0.011242679 0.0048690797 -0.013793519 0.004756747 -8.9086556e-05 0.013160172 0.0021455113 -0.020288868
-0.00020147138 0.0039688107 0.014764527 0.0010024019 -0.0085548125 -0.0030385435 0.014701756 0.017791042
-0.01462257 0.004757841 0.000806576 -0.0018750532 0.0014005828 -0.0050140303 -0.006060508 -0.014179744
0.0011345095 -0.00049941667 0.0070646624 -0.0019182701 -0.006812239 0.004525063 -0.02549504 -0.0022563108
-0.02914239 0.021761991 -0.017153336 0.0015338447 -0.019356536 0.00032287918 -0.0032062621 -0.004473743
0.01756658 -0.0075518717 -0.001220201 0.02301485 0.009234273 -0.00023134053 -0.009250055 -0.00420489
0.001179097 -0.0031355056 -0.021601962 0.008420403 0.0153053375 0.0009809926 -0.004667691 0.0011531179
0.011520843 -0.00097010005 0.0018368966 0.0068307905 -0.009060167 0.0064419503 0.009554855 0.020191288
0.0011974424 -0.00045904983 -0.00962868 0.00035989378 -0.0019028458 0.00040266706 -0.005531945 0.009849859
-0.0130023025 -0.010359709 -0.009770868 -0.010634314 -0.006819368 0.0012593777 0.00063942216 0.0026910894
-0.0025281352 0.018630847 0.01136394 0.0034217546 -0.016480293 -0.0026718993 -0.007945084 0.0024424512
0.014104888 0.014703992 0.010062696 0.017523339 0.0073220544 0.013953116 0.012748016 -0.00041024433
-0.006816412 0.008188527 -0.001753738 -0.009155261 -0.015001043 0.009181698 -0.0018159526 -0.013065865
0.003220025 -0.0004873349 -0.013669925 0.024794994 -0.009249353 0.004890695 -0.02119843 -0.0020703054
-0.009447451 -0.0050383345 -0.0021103013 0.0027984618 0.0046678022 -0.015996197 0.003155598 0.00052555266
0.013467593 -0.0010338996 0.011379999 -0.011127623 0.012590799 0.018709814 -0.00068704435 -0.009346499
0.018415226 0.013096228 -0.023041865 -0.0077887247 -0.016240409 0.0035983871 -0.0011112472 -0.032947432
-0.024910793 0.0011718542 -0.0065291002 0.02061075 0.0022783962 -0.01159514 0.006473779 -0.008272928
0.019821215 0.003481534 -0.0077322638 0.0060908375 0.022882305 -0.007322487 -0.0037946703 0.004433182
-0.0044095665 -0.007630624 0.010615211 -0.0049868096 0.0035435634 0.0057178307 0.0010902057 -0.03881209
0.0382272 0.009550044 0.006258902 -0.017258484 -0.0115866335 0.006428019 0.00942038 -0.0033770243
-0.010441274 0.00066211994 -0.022399219 0.0074882223 0.019902866 -0.011046503 0.0011847522 0.003053287
-0.001558386 0.017092843 0.012394813 -0.011184963 -0.0013555834 -0.015900062 -0.0018226431 -0.0008422028
0.0015803812 0.018472966 0.005567089 -0.0022910186 -0.0091449795 -0.008832343 -0.0027154204 -0.0035772396
0.023126269 0.0032423544 0.0035319112 0.0017408583 -0.011944691 0.012660245 0.0023818307 0.017113006
0.00017281629 -0.011272204 -0.014338991 0.0070439386 0.015307018 -0.021112142 -0.013550008 -0.009877253

action_model._continuous_distribution.mu.bias f4 [3]
00000000: 2bce 13bb fd40 053c 20e3 f73b
-0.0022553306 0.00813317 0.007564917

action_model._discrete_distribution.branches.0.weight f4 [1, 256]
00000000: d292 16bc 439e 6139 5cbd 41bc b052 733c
00000010: 3b00 393b e639 84ba c399 003b 5c29 a5bb
00000020: 9d42 8bbb 6eae 8aba ee91 043c 3e69 063c
00000030: 43d5 7ebb f8c3 0f3c 4f3a 59bb a2c8 dfba
00000040: 2f5f b3b9 cf34 73bb e7de d1bb 423d 6f3b
00000050: e2f3 fe3b 68ca 47bc f56e 02bc 6ad9 753b
00000060: d71e f939 7301 4ebb 365e 3a3c 43df 043c
00000070: 6f4f 05bb f826 11bc ed11 d2bb 9401 84bb
00000080: c837 64bb 8cf7 4b3b 9578 bfb9 fc6d 05bb
00000090: 6249 5c3b ae42 8d3c 4291 30ba 6f73 0939
000000a0: 68df ccba 338a 62ba e37b 23bc a358 84bc
000000b0: fa5d c83b de8c b038 0381 ef3b ef5e d1bb
000000c0: ec2e 85bb 22df d137 9064 703b 5c00 9c3a
000000d0: 646a c8bb 731f ce3a 152b 543b b361 f93a
000000e0: 30d9 6f3b 665d 9f3b c452 91bb 7332 61bb
000000f0: b730 ffbb 3ebe 25bc 4b1c 2cba e38b 4dbc
00000100: 67e1 d9bb 5f48 963b a017 d53a b2a8 273c
00000110: 6b53 173c 853f deb9 fac0 17ba d0d4 fdba
00000120: 97e3 ad3b 4521 e03b 0700 aebb 432d a83b
00000130: e030 57b9 9be2 03bc 4bbc 983a 287f fa3a
00000140: 1467 a43b 7daa 513a d0bc 3c3c 49e2 47bc
00000150: 8bde 993c 8830 d13a 66bc 243c c7e2 10bc
00000160: cfc4 373c af75 ff3a 225c 2f3b d351 2939
00000170: ff47 df3b 70fc 6f3a 56b9 0d3c 32b4 c53b
00000180: 863a bdbb 0e63 42bc 5bd1 63bb 2513 383c
00000190: fd71 8dba 30c9 13bc 5d49 e6bb 6f4e f83a
000001a0: d376 e73b 8f35 bf3a ef5f 143c e3d6 f03b
000001b0: c9a8 09bc d27d 583b ac54 13bb 5c85 243c
000001c0: cbdf 223c 9b4f 1539 7754 073c f300 ebbb
000001d0: ecbc 40bb 7080 113c 0c3e 243c d344 d4bb
000001e0: b001 21bc d339 a4bb 0560 54bb 73e8 ab3b
000001f0: cef0 c3ba 2b9f 23bc d331 5b3b 20c7 cd3a
00000200: f020 583b 97d1 023a 6004 acbb 7768 2b3a
00000210: dbf5 abbb 375d e03b d776 52ba c8ab fc3a
00000220: 459e 1e3c 0f63 80ba aa19 4e3b 57cd 10bc
00000230: eed1 c43b a3b7 37bb 5bcc 17bc 0d0d 083c
00000240: 18cc 213b f508 7fbb a832 87bb 15a8 083c
00000250: 35c2 e03b 028b 353a 63cf dd3b efe6 2bbb
00000260: 959f a9bb bf52 babb f543 e73b ca43 aebb
00000270: 531d f6b9 e760 4bba 92c5 f8ba cbc1 9fb8
00000280: ddfa 153c 6859 d7bb c37d 95bb 7126 3dbb
00000290: d566 d4bb 2e88 2fbb 9ff5 5b3c dd3d 083b
000002a0: ebe4 bdbb cbca eb3a 7b52 123c f7e5 1a3a
000002b0: 4a88 21bc 41cf 8aba 7d1c 8d3b 90de da3b
000002c0: db8e 633b 5b9e eebb 60d5 76bc 65da 783b
000002d0: 8b39 fe3a d621 31bc 0da5 32bb 9de1 1a3c
000002e0: 6f63 afbb 1964 0dbb 57e0 4dbc 6722 3eba
000002f0: f357 60bb a728 dcbb 5a87 64ba 257c d7bb
00000300: 2ba5 cdbb 1ff0 1bbc af2b 7dba cb04 71bb
00000310: a50b 5339 0ffc b13b b9a7 2b39 2073 9b3b
00000320: c875 6ebc 8ab4 68bb 97b8 fdba 05f3 b5bb
00000330: e27e 693b 094b 3ebc 47c8 e73a f0b0 443c
00000340: 0321 6d3b a0c9 3dbb 6ab2 ca3a e7b8 d5bb
00000350: 1f1d 493c 15b2 aaba c142 babb 5f49 25bb
00000360: 5f41 a73b 9301 063c 6af7 81bb 0bd2 3739
00000370: aa59 f5bb 175d ea3b e6ff ca39 4b0b 02bb
00000380: 5b52 22bc 516a 15ba 1fe4 5c3b 1753 253b
00000390: e3e9 ab3b b093 62bb 2756 e73a c3b6 7e3b
000003a0: b32c 813b 4f42 babb 875e fa3b 5872 bcba
000003b0: 2066 92b9 8cbd a8bb f92d 083b d227 f0bb
000003c0: 3aca 6ebb fb5b 323a 4f51 acbb 0aed cf3a
000003d0: 15bc 2fbb e538 32ba c5d1 9abb 0224 57bb
000003e0: 6134 a83b 0ba7 7c3a 96c3 a7bb 7feb bf3b
000003f0: 80a4 f338 07bf 16bc f7d0 aabb f690 bc3b
-0.009190278 0.00021516629 -0.011824932 0.014851257 0.0028228897 -0.0010088056 0.00196229 -0.005040331
-0.0042498843 -0.0010580549 0.008091433 0.008203803 -0.0038884438 0.00877475 -0.0033146327 -0.0017073343
-0.00034212458 -0.0037110334 -0.006404746 0.0036505018 0.007780538 -0.0121942535 -0.0079610245 0.0037513622
0.00047515958 -0.003143397 0.011375001 0.00810987 -0.0020341536 -0.0088593885 -0.0064108283 -0.0040285084
-0.0034823287 0.0031122891 -0.000365202 -0.0020359745 0.0033613076 0.01724371 -0.0006735512 0.0001310834
-0.0015630545 -0.0008641809 -0.009978267 -0.016155547 0.0061147185 8.4185725e-05 0.0073090806 -0.006389491
-0.0040644314 2.5018646e-05 0.0036681034 0.0011901963 -0.0061161984 0.0015725925 0.0032374312 0.0019026309
0.003659796 0.004863429 -0.0044349153 -0.0034362345 -0.0077877897 -0.010116158 -0.0006565495 -0.012545559
-0.0066491845 0.004586264 0.0016257651 0.010233091 0.009236197 -0.00042390465 -0.00057889486 -0.0019365791
0.005306672 0.0068399035 -0.005310062 0.0051323487 -0.00020522205 -0.008049632 0.0011652795 0.0019111382
0.0050171707 0.0007998122 0.011519626 -0.012199947 0.018782875 0.0015959898 0.010054683 -0.00884313
0.011216356 0.0019490028 0.0026757796 0.00016147578 0.0068140025 0.00091547426 0.008650145 0.006033444
-0.005774799 -0.011864437 -0.0034762237 0.011235033 -0.0010791417 -0.009020135 -0.0070277886 0.0018944273
0.0070637255 0.0014588105 0.0090560755 0.0073498352 -0.008402058 0.003303398 -0.0022480888 0.010041561
0.009941052 0.00014239403 0.008259884 -0.007171744 -0.0029409481 0.00888072 0.010024559 -0.006477931
-0.0098270625 -0.005011776 -0.0032405865 0.005246216 -0.0014949085 -0.009986679 0.0033446446 0.0015699603
0.0032978617 0.0004990338 -0.005249545 0.0006538699 -0.005247814 0.0068470496 -0.0008028573 0.0019277269
0.009681289 -0.0009795147 0.0031448402 -0.008838019 0.006006471 -0.002803304 -0.009265031 0.008303893
0.00246883 -0.003891525 -0.0041259117 0.008340855 0.006859089 0.0006925316 0.006769107 -0.0026230176
-0.0051764944 -0.0056861336 0.0070576617 -0.0053181397 -0.00046942625 -0.0007758275 -0.0018979779 -7.6178076e-05
0.009154049 -0.0065719374 -0.004562111 -0.0028862024 -0.006481985 -0.002678405 0.01342526 0.0020788827
-0.0057951114 0.0017989514 0.008930798 0.0005908901 -0.009859154 -0.0010590331 0.0043063746 0.0066793635
0.00347226 -0.007282061 -0.015065521 0.003797197 0.0019395811 -0.01081129 -0.0027259022 0.009453204
-0.0053524296 -0.0021574555 -0.012565694 -0.0007253051 -0.003423211 -0.0067187133 -0.0008717679 -0.0065760785
-0.006275793 -0.009517699 -0.00096576934 -0.0036776538 0.00020126866 0.005431659 0.00016370312 0.0047439486
-0.014554448 -0.0035508 -0.001935738 -0.005552652 0.0035628607 -0.011614569 0.0017683589 0.012005076
0.0036183007 -0.002895929 0.0015464548 -0.006522286 0.012275009 -0.0013023043 -0.005684227 -0.0025220735
0.0051042284 0.008179086 -0.0039662616 0.00017530487 -0.0074874954 0.0071522105 0.00038719102 -0.0019843157
-0.00990733 -0.00056997413 0.0033705307 0.0025226527 0.0052463873 -0.0034572892 0.0017649577 0.0038866259
0.003942096 -0.005684174 0.007640663 -0.0014377339 -0.0002792338 -0.005149549 0.0020779355 -0.0073289657
-0.0036436454 0.0006803867 -0.005258716 0.001586349 -0.0026814986 -0.0006798639 -0.0047247135 -0.0032827859
0.005133197 0.00096379285 -0.005119751 0.0058569307 0.000116177835 -0.009200818 -0.005212899 0.0057545854

onnx::Div_80 f4 [36]
00000000: 32e2 bc3e 999d ce3e 632c ff3e f6b9 b93e
00000010: ebb0 bc3e ccfb cd3e ad62 ff3e d825 bb3e
00000020: ab3b ba3e cb7a ce3e fdad ff3e 8db4 bb3e
00000030: 6620 c23e ba36 cc3e b2a9 ff3e 3a1f b93e
00000040: 84e2 be3e 06e2 cc3e a2e1 ff3e 66e2 ba3e
00000050: 704e c43e bd81 b83e c5c0 fd3e 09e2 b73e
00000060: c5e9 bf3e c2e1 b83e fc19 fe3e 76fb ba3e
00000070: a058 bf3e f313 1c3e d59f e83e 70ed b73e
00000080: b57b b93e 8f87 253e 7f3f e93e 52ab bb3e
0.36891323 0.40354612 0.49838552 0.3627469 0.36853728 0.40231168 0.4987997 0.3655231
0.36373648 0.4032806 0.4993743 0.36661187 0.37915343 0.39885503 0.49934155 0.36156636
0.37282193 0.40016192 0.49976832 0.36500853 0.38341093 0.36036482 0.49561134 0.3591464
0.3748304 0.3610974 0.496292 0.36519974 0.37372303 0.15241985 0.45434442 0.35923338
0.36227193 0.16164993 0.45556256 0.36654145

onnx::Div_83 f4 [13]
00000000: c734 693f a03e 1744 cdba 673f 051c 4640
00000010: 672a d241 8825 8f3b 8825 8f3b 8825 8f3b
00000020: 8825 8f3b 8825 8f3b 8825 8f3b 8825 8f3b
00000030: 8825 8f3b
0.91096157 604.9785 0.9051941 3.0954602 26.270704 0.0043684877 0.0043684877 0.0043684877
0.0043684877 0.0043684877 0.0043684877 0.0043684877 0.0043684877
