results/run4/AvoidAgent/AvoidAgent-499945.onnx (onnx, 324058 bytes, 12 tensors)

network_body.observation_encoder.processors.0.normalizer.running_mean f4 [36]
000000 0e 3c 7b 3d 7c 3e 8f 3d c3 f4 4d 3f 70 d8 5c 3f
       0.06133657 0.0699434 0.804516 0.8626776
000010 d3 a4 6a 3d 55 67 8f 3d 6e 01 4d 3f 89 d1 5b 3f
       0.057286095 0.07002131 0.80080307 0.858666
000020 fb 76 7a 3d 84 7a 8e 3d 74 a9 49 3f 22 fd 58 3f
       0.061148625 0.06956962 0.7877419 0.8476125
000030 0a 64 7a 3d 58 1c 8c 3d ac df 4b 3f a0 29 5c 3f
       0.06113056 0.06841344 0.7963817 0.86001015
000040 8d a4 84 3d 99 89 8b 3d be 90 48 3f f6 35 59 3f
       0.06476698 0.06813354 0.7834586 0.8484796
000050 c8 3f 7f 3d 5a 24 6e 3d e7 04 4e 3f a6 52 5f 3f
       0.062316686 0.058140136 0.8047623 0.87235487
000060 88 6c 88 3d 48 12 69 3d 95 f7 4a 3f 32 7c 5c 3f
       0.06661326 0.0569022 0.7928403 0.86127007
000070 f4 da 6e 3d f1 93 26 3c 31 9a 5b 3f 76 8f 63 3f
       0.05831428 0.010167108 0.8578215 0.8889078
000080 50 a7 78 3d f6 da 29 3c 7e c0 58 3f 23 fb 60 3f
       0.060706437 0.010367146 0.8466872 0.87883204

network_body.observation_encoder.processors.1.normalizer.running_mean f4 [13]
000000 1f 83 bf bd f4 1d bf c6 02 9a 64 3d 82 ca d6 c3
       -0.09351181 -24462.977 0.055810936 -429.5821
000010 ca c3 9a 43 8b fe 7f 3f 8b fe 7f 3f 8b fe 7f 3f
       309.5296 0.99997777 0.99997777 0.99997777
000020 8b fe 7f 3f 8b fe 7f 3f 8b fe 7f 3f 8b fe 7f 3f
       0.99997777 0.99997777 0.99997777 0.99997777
000030 8b fe 7f 3f
       0.99997777

network_body._body_endoder.seq_layers.0.weight f4 [256, 49]
000000 df 8e 5e 3d 4c ca 1e 3e 98 88 bb bd af 6e 32 3e
       0.05433547 0.15506858 -0.091569126 0.17425035
000010 a4 10 13 bc 99 35 2f 3b 7b 9f 0c 3e be 85 3e be
       -0.008976135 0.0026734828 0.13732712 -0.18605706
000020 80 7b e4 3d a0 81 89 3e ab 39 b6 bd 27 bb 44 be
       0.11156368 0.2685671 -0.08897718 -0.19212018
000030 94 05 c4 bd 76 48 f3 bc a3 67 d7 3d 5d 6d 98 be
       -0.095713764 -0.029697638 0.10517814 -0.29770938
000040 2e bb a0 bd cb 4e 5c be 1b 11 b9 3d 85 16 07 3e
       -0.07848202 -0.21514432 0.09036466 0.13192184
000050 62 0d 88 3e 89 c7 21 bd f4 0b 8c bc ad cb f4 3d
       0.2657271 -0.039496932 -0.017095543 0.119529106
000060 ba a5 2c be bf b3 61 bd c1 d2 fd 3d 31 f2 32 3e
       -0.16860095 -0.05510306 0.12393714 0.17475201
000070 08 75 4a bb d0 f4 3b 3d 28 5c 36 bd 66 7a 74 3e
       -0.003089251 0.04588777 -0.04452148 0.23874816
000080 26 88 3e bd eb 16 05 3d d6 f8 2a be 43 ba 51 3d
       -0.04651656 0.03249256 -0.16696486 0.051203024
000090 79 3d 9f 3d e9 9b 95 bd 22 8a 9d 3e 23 5f 90 be
       0.07775397 -0.07305128 0.3076945 -0.28197584
0000a0 bd 9f 14 3e c3 0b 51 be c2 79 ab bc c4 6d 44 bc
       0.1451406 -0.20414643 -0.020932082 -0.011989061
0000b0 df 33 f7 3d c3 3b 54 be 7a 06 59 bc 4f 9b 31 be
       0.120704405 -0.20725922 -0.013246173 -0.17344402
0000c0 a5 ff 05 be 16 f1 16 be 07 1a f0 3c a5 76 1c be
       -0.13085802 -0.14740404 0.029309286 -0.15279634
0000d0 23 ad e1 3d 6b b9 d2 3d 50 5b 72 be c4 6a b5 3c
       0.11019351 0.10289272 -0.23667645 0.022145636
0000e0 b3 cb 27 bc 75 d4 41 be 6c a9 15 3d e0 8a 4d 3e
       -0.010241437 -0.18928702 0.036538526 0.20072508
0000f0 b8 66 c4 3d 31 36 1c be 80 af 5f 3e 5f 4a a7 bd
       0.095899045 -0.15255047 0.21844292 -0.08168482
000100 63 23 fd bc 7c c9 e2 3d 0f ef c2 3d 3d 14 50 3d
       -0.030900663 0.11073586 0.09518253 0.05080055
000110 fa 2b 3a 3e 14 ad 4f 3e 91 57 39 be 51 e8 4c 3e
       0.18180838 0.20280868 -0.1809981 0.20010497
000120 94 62 39 3e 5e be a2 3e 7a 36 2f 3e 9b cc c5 3d
       0.18104011 0.31785864 0.17110625 0.09658166
000130 56 f2 c1 3d 87 84 8b bd 6a a5 28 be 6d 6b 52 bd
       0.0947005 -0.06812387 -0.1646935 -0.05137198
000140 e6 5b 26 be 2f 23 ab be 09 14 9c 3d fe a6 57 bd
       -0.16245994 -0.3342528 0.07621009 -0.05264949
000150 3d 45 82 bd 67 b9 3a 3e 6f 00 47 bc d5 a9 3a be
       -0.063608624 0.18234788 -0.0121460995 -0.18228848
000160 8e e3 53 bd 65 d8 6c 3e 9f db 0f 3e 06 27 e0 3c
       -0.051730685 0.23129423 0.14048623 0.027362358
000170 08 58 a1 3d 54 06 ca 3c 8b 5b ca be 5e d3 ea 3d
       0.07878119 0.02466122 -0.39522967 0.11466096
000180 c8 5d fe 3d 65 9b 34 3e 38 9d 08 be 04 5f e2 3d
       0.12420231 0.17637403 -0.13341224 0.11053279
000190 52 ab 05 3e 26 89 1c bd a7 ab 7c bd 6f e0 bc bd
       0.13053635 -0.038216732 -0.061687138 -0.09222495
0001a0 a2 3e 44 3e 96 83 0a 3c ce 0c d9 bd 27 8a b0 bd
       0.19164518 0.008454224 -0.105981454 -0.086201005
0001b0 ce 8f bf bd e3 74 8d 3e 0d 13 83 3d 26 58 88 3e
       -0.093536004 0.2762824 0.06400118 0.26629752
0001c0 91 e5 93 be 86 94 63 3e 9d 0c 0f bf 46 24 3f 3e
       -0.28886083 0.22224626 -0.5587862 0.18666181
0001d0 f7 72 f0 bc 8a 9c 25 bd e4 91 e5 3d f2 2c d5 3d
       -0.029351695 -0.04043249 0.11209467 0.10408963
0001e0 e0 18 5d be 39 24 1e bd 3c d9 8d 3d eb 77 10 bc
       -0.2159152 -0.038608763 0.069262 -0.008817653
0001f0 7e 46 46 3c b3 bb e1 bd fe 93 b4 bd 35 9d 46 3e
       0.012101768 -0.11022129 -0.0881729 0.19395907
000200 ad f2 32 3e ab 2b 67 be 06 18 68 3e 24 77 a3 3d
       0.17475386 -0.22575252 0.22665414 0.07981709
000210 f6 b3 75 be 25 b1 0a 3e ca 4e 73 3c 5e 36 57 3e
       -0.23994431 0.13544138 0.014850328 0.21016833
000220 e0 cc 10 be 8f ca 48 be c4 db 6c 3d 3a 94 aa bd
       -0.14140654 -0.1960852 0.057826772 -0.08329053
000230 59 fb 8c bb 18 4c 08 be 20 97 38 3e f3 2b 9a bc
       -0.004302424 -0.13310277 0.180264 -0.018819785
000240 80 58 bf bd fa 7b e0 3d c0 f6 33 3c 27 3b e4 3b
       -0.09343052 0.10961147 0.010984123 0.0069650593
000250 4f f7 ea bd 60 31 86 bd 3c bf 8f bb c4 c3 29 be
       -0.114729516 -0.06552386 -0.0043868106 -0.16578585
000260 cd b4 99 3e 82 07 93 bd d4 1b 03 be f2 e4 05 be
       0.30020753 -0.071791664 -0.12803584 -0.13075617
000270 fe d5 a3 3d 49 c3 16 3d a6 c9 91 3c e3 06 a1 3e
       0.079998 0.036807332 0.017796349 0.31450567
000280 6e 19 6e 37 f6 11 7f be 26 93 8c 3e e6 31 3d 3e
       1.4191826e-05 -0.24909195 0.27456015 0.18476066
000290 c7 96 17 be d0 e2 c3 bd 4a 1c 34 3e 54 4a 37 be
       -0.1480361 -0.095647454 0.17588916 -0.17899448
0002a0 b8 5b 92 bd b5 69 84 3e 2e 5c 73 3e a1 e0 5d bd
       -0.071464 0.25861898 0.23765633 -0.0541693
0002b0 21 12 b6 bd 18 1f 6b be 54 ed 88 3d 42 13 84 bd
       -0.088901766 -0.2296108 0.06685892 -0.06448986
0002c0 51 eb 9f be b4 f4 94 3d d3 bd a3 3e b8 49 80 bd
       -0.3123422 0.07273236 0.31980762 -0.06264061
0002d0 5c 7d 3d 3e c0 f0 0a 3e f6 d1 1f 3e 17 d6 13 be
       0.18504852 0.13568401 0.15607437 -0.14437138
0002e0 b9 ed c0 bd 45 6a e4 3d 57 87 c3 3d e3 c3 3a 3e
       -0.09420342 0.11153082 0.095472984 0.18238787
0002f0 08 95 26 be 7f 2d 69 bc a8 0b df 3c 23 62 96 ba
       -0.16267788 -0.0142320385 0.027227238 -0.0011473339
000300 2e 74 ec 3c 0a 97 26 3e 6c e7 1e be 0d e5 9f 3d
       0.028863993 0.16268554 -0.15517968 0.0780736
000310 79 9d 1f bd e0 ec 0a bc 9e 12 05 3e b4 5e 8c 3e
       -0.038968537 -0.008479327 0.12995383 0.27416003
000320 18 ec 59 3e 31 44 89 3e 9e 67 38 3d 5d b7 0e bd
       0.21281469 0.26809838 0.045020692 -0.034842838
000330 4c 57 ca be 91 7b 4d be 81 48 b4 3d 86 06 98 bc
       -0.39519727 -0.20066668 0.088028915 -0.018557798
000340 65 f1 21 3e e8 83 1f 3c d6 a1 f5 3d e8 30 28 3a
       0.15814741 0.009736039 0.119937584 0.0006415979
000350 76 02 46 3e 4c 0e 44 3d b3 ac 43 3d 28 6f ad 3d
       0.19336876 0.047865197 0.04777212 0.08468467
000360 a3 ee 7e bc ed e6 cb bd e9 87 1f bd c2 0d 66 be
       -0.015559825 -0.09956155 -0.038947973 -0.22466186
000370 2b cc 62 bd e2 60 1d 3e d0 97 02 be 3c bb 3c 3e
       -0.05537049 0.15368989 -0.12753224 0.18430799
000380 f6 1d 16 be 32 24 12 bd 69 d4 24 bd 09 23 3d 3e
       -0.14659867 -0.03567905 -0.040241633 0.18470396
000390 7a 7f 04 be df b0 25 be 03 6e be be 14 91 9d 3d
       -0.12939253 -0.16180752 -0.37193307 0.07693687
0003a0 b2 9b 5a be 0a 80 8b bd 82 26 e0 bd 3c 63 bb 3d
       -0.21348456 -0.06811531 -0.10944845 0.09149787
0003b0 67 3b 3c be 5d 6b 98 bd d1 3b 9b 3e 81 14 82 bd
       -0.18382035 -0.07442353 0.30319074 -0.06351567
0003c0 be c9 66 bd 18 07 3f bd 19 85 66 be 55 c8 94 3d
       -0.05634474 -0.046637625 -0.2251171 0.07264773
0003d0 73 48 db bd 10 19 65 be cd e5 e5 3c 68 d2 81 be
       -0.10707178 -0.22372842 0.02806368 -0.2535584
0003e0 30 7f 41 3e 26 c6 c9 3a 0a 6f b6 bd 15 0a ad bd
       0.18896174 0.0015394136 -0.08907898 -0.084491886
0003f0 6d 22 ef 3d 4f e7 92 3c bd 79 32 be 58 46 8d 3b
       0.11676488 0.017932562 -0.17429252 0.004311364

network_body._body_endoder.seq_layers.0.bias f4 [256]
000000 7b b0 0d bd 75 a2 e5 3b c5 f4 e9 3c 5e e5 31 bc
       -0.034592133 0.007007892 0.028559098 -0.010857908
000010 c2 a7 d5 bc b4 6f b2 bc c4 22 06 bc 7d 37 38 3c
       -0.02608097 -0.02178178 -0.008187 0.011243698
000020 e3 1f f8 bc 0f 71 c2 3b 2d 37 e4 3b 96 1e 9e 3c
       -0.030288642 0.005933888 0.0069645853 0.019301694
000030 34 a1 f7 bb 47 a4 80 bc 8b 1e b6 bc fd 80 92 bc
       -0.0075570587 -0.015703334 -0.02223136 -0.017883772
000040 1d 94 8e bb d2 19 d5 bc de d8 14 bc b9 10 50 bd
       -0.0043511526 -0.026013289 -0.009084908 -0.050797198
000050 9f 62 62 bb ae f3 a0 3b 24 b7 6a bb 0c 55 c3 ba
       -0.0034543646 0.0049118614 -0.0035814727 -0.0014902665
000060 78 64 25 3c 4c 84 30 bd 27 dd a8 bc 3d 66 64 bc
       0.010094754 -0.043094918 -0.020613266 -0.013940391
000070 e7 dc a9 bc d6 bb 40 bb 23 21 12 ba a4 70 84 3b
       -0.020735217 -0.0029408834 -0.0005574396 0.004041748
000080 78 f0 bb bc 58 f5 57 3c 3c 15 41 3a 1e 5c db bc
       -0.022941813 0.013181053 0.000736553 -0.026777323
000090 5e 3e 0b bd e6 a4 71 b9 b6 db 57 3c 6f 80 ab bb
       -0.033995025 -0.0002304498 0.013174942 -0.0052338163
0000a0 09 e4 c0 bc 87 42 31 bc 61 3b cb ba 67 9a 89 bc
       -0.023546236 -0.010819084 -0.0015505367 -0.016797258
0000b0 e7 e3 de bc 18 ed 91 bc 9f 80 c8 bc a8 63 c5 3b
       -0.027208282 -0.01781325 -0.024475394 0.006023843
0000c0 c0 e3 80 bc 4a 36 ea bc 7d f0 e5 bc 4d 5a 0a bd
       -0.0157336 -0.02859034 -0.028068775 -0.033777524
0000d0 a3 30 1e bc f1 02 4b 3b 10 2f 96 bc 62 e0 18 bd
       -0.009655151 0.0030977095 -0.018332988 -0.037323363
0000e0 2a 97 88 bc 46 94 48 ba 5b ab 89 bc 02 2a 72 bc
       -0.016673643 -0.0007651489 -0.016805341 -0.014780523
0000f0 18 9b a4 bb 1d 18 7a 3c 5d 9d 00 bc f4 9f 68 bc
       -0.0050233714 0.015264538 -0.007850018 -0.014198292
000100 0e 07 03 bc 1a c2 3b bc 73 1f 90 bc a5 74 59 bc
       -0.007997287 -0.011459852 -0.017593121 -0.013272439
000110 bc 53 00 bd 5d 6a e0 bc 56 75 41 3c 09 dd c5 bc
       -0.031329855 -0.027394468 0.01180776 -0.02415325
000120 3d f8 f4 bb 9a cb a7 3c 02 23 b6 bc b4 2f 84 bc
       -0.0074758814 0.020482827 -0.02223349 -0.016136028
000130 d6 71 a0 bc 97 58 f4 3b 16 66 3c bd 57 48 c5 3b
       -0.019585531 0.00745685 -0.045995794 0.0060205865
000140 3c 99 45 3c 0d 5e b3 bc 01 b2 b0 bc 8f 70 80 bb
       0.01206046 -0.021895433 -0.021569254 -0.003919668
000150 33 b7 8a bc 05 92 e7 3a 7f f3 c8 bc 9d 7f db bc
       -0.01693306 0.0017667419 -0.02453017 -0.02679425
000160 3c 55 fa bc ef 08 c0 bb 78 2f 85 3b 5f 31 ff 3b
       -0.030558221 -0.00586044 0.0040644966 0.007787868
000170 e2 10 1f bd 08 c3 30 bb 29 86 ce bb f4 85 c0 bc
       -0.03883446 -0.0026971716 -0.006302614 -0.023501374
000180 56 f3 64 bb 03 29 d9 3a ae 59 43 bb c9 1f 38 bc
       -0.0034935079 0.0016568009 -0.0029808092 -0.011238047
000190 24 59 ee 3b 10 de bd 3b 8b fa 82 3b 3c da b3 bc
       0.00727381 0.005794294 0.003997152 -0.021954648
0001a0 c9 d5 47 bc e3 6a fb ba 1d 23 21 bd 26 8c 9d bc
       -0.012196966 -0.0019181635 -0.039340127 -0.019231867
0001b0 17 37 65 3c a9 f9 7f bb 14 a4 3a bd c0 6c 6a 3c
       0.013990185 -0.003905872 -0.045566633 0.014308155
0001c0 32 36 ad bc c9 7e b6 bc 4a 8d c3 bc 65 b1 b9 bc
       -0.021144006 -0.022277253 -0.023871083 -0.022667596
0001d0 3c 3a 93 bc d7 dd c9 bc 86 75 6b ba 75 01 3e bb
       -0.017972104 -0.024641914 -0.0008982051 -0.0028992568
0001e0 90 9a 9c bc 06 be 6c bc 31 b7 6e bd 5e e7 30 bd
       -0.01911667 -0.014449602 -0.058280174 -0.0431894
0001f0 91 34 d2 bc 88 46 fb bc 2e a0 02 bd 74 e4 a9 bc
       -0.025659831 -0.03067328 -0.03189104 -0.020738818
000200 87 b2 67 3a 20 d5 3c bb 32 1a b4 bc 53 7a 2e bd
       0.00088385533 -0.0028813556 -0.021985147 -0.042597126
000210 34 8b 82 3c 63 31 7f bc 4a 9e c5 bc 5d c6 29 bd
       0.015935518 -0.01557574 -0.02412333 -0.04144894
000220 80 19 fb bb be 37 49 bc fd fe a6 bc ee 86 89 bc
       -0.007662952 -0.012281356 -0.02038526 -0.016787972
000230 ea c0 d7 3c 30 10 14 bd 76 2d 7a bc 7f 33 51 bc
       0.026337106 -0.03614825 -0.015269628 -0.012768625
000240 d7 c8 8c bc 35 fc 45 bb 76 64 9b bc 5e 9a d7 bc
       -0.017185612 -0.0030210142 -0.018968802 -0.026318725
000250 6b 85 03 bc e9 aa d3 bb ba 89 11 bc dc 06 5d bd
       -0.008027415 -0.006459583 -0.008882934 -0.05396162
000260 82 50 d2 3b 0d 48 82 bc 0f 58 b0 bc ec b7 d0 bc
       0.0064182887 -0.015903497 -0.021526365 -0.025478326
000270 29 7a 21 3c 79 25 8f ba ec 3f 01 bc 7b 27 c8 bb
       0.009855785 -0.0010921202 -0.007888775 -0.006108222
000280 0d 77 a5 bc 07 83 e7 bb 32 cd aa 3a 6c 44 cb bc
       -0.02019837 -0.00706518 0.0013031124 -0.0248129
000290 19 ca 21 bc 2e ec a3 bc b3 53 d8 bc 0a 9e 9e bc
       -0.009874844 -0.02001008 -0.026407098 -0.019362468
0002a0 56 46 0e bd 7a 2f 31 3c 8f bd 6f bc ef 09 09 bd
       -0.034735046 0.010814542 -0.014632597 -0.03345674
0002b0 bc 7b c4 bc a0 e5 61 3b a5 59 d2 3b 8a 02 99 bb
       -0.023984782 0.0034469143 0.006419378 -0.004669492
0002c0 89 4e 02 bc b8 e0 3d bc 33 ae 1f 3b de ed 8f bc
       -0.007953295 -0.011589222 0.0024365305 -0.017569479
0002d0 0b 4c ff 3a 5d 6a 54 bc 29 7c 94 b9 7f 86 d9 bc
       0.0019477619 -0.012964812 -0.00028321266 -0.02655339
0002e0 e4 2b 6f bc b0 76 f9 bc 96 61 78 3b b8 14 14 bd
       -0.014597867 -0.030452102 0.0037899963 -0.03615257
0002f0 64 d0 5b 3c bc 28 e3 3b 65 da 94 bc 39 a6 17 bd
       0.013416383 0.006932346 -0.018170545 -0.037023757
000300 90 61 11 b9 73 d5 62 3c 4d 38 fc bc e4 21 c7 3b
       -0.00013864622 0.013844836 -0.030788565 0.006077038
000310 df 2c e3 bc 28 0e e5 bc 39 32 fd bc 23 5a 23 bb
       -0.027731357 -0.027960852 -0.030907737 -0.0024925552
000320 ac 97 bf bc 33 45 2f bd c0 db 7a bc 49 50 88 3c
       -0.023387752 -0.042790603 -0.015311182 0.016639845
000330 8b f8 46 ba dd 1a 72 bc 08 24 29 bd b8 fa 11 bd
       -0.00075901364 -0.0147769125 -0.041294128 -0.035639495
000340 f9 01 f4 bc ce f0 af bc 6b 98 54 bc b0 fc ee bc
       -0.029786097 -0.02147713 -0.012975792 -0.029173225
000350 6e 23 9e 3c 94 df d2 ba a6 95 32 bd 43 1d 2e bb
       0.019304004 -0.001608836 -0.043599747 -0.0026567734
000360 01 d5 3e bc b5 7d 10 bc f7 c9 3e 3c da 7e 12 bd
       -0.011647464 -0.008819033 0.011644832 -0.035765506
000370 9e 99 0e bd 1b 21 21 bd d5 8e 93 bc 33 cd 15 3b
       -0.03481447 -0.039338212 -0.018012444 0.0022857904
000380 cd 9a ea bc 3b 48 07 bb 48 9e 82 bc 15 27 d0 bc
       -0.028638268 -0.0020642418 -0.015944615 -0.02540926
000390 75 83 a0 bc 32 de c7 bc 62 97 48 3c 66 de 6b bc
       -0.019593934 -0.024397943 0.012243124 -0.014396286
0003a0 47 97 22 3b 48 ae 9b bc 1c 1b 00 bd ec 6c eb bc
       0.0024809407 -0.019004002 -0.031275854 -0.028738461
0003b0 57 3b 54 3c a0 7a 06 bd 54 87 90 bb b6 e1 17 bd
       0.012953601 -0.032831788 -0.0044106636 -0.03708049
0003c0 9c 8c 5b 3b 23 9c 2b 3c 49 7d df bc 2e ae 03 bd
       0.0033500558 0.010474238 -0.02728142 -0.032148533
0003d0 1f 07 2f bd 25 7b c8 bc 6d a7 dc bc aa 6a 9f bb
       -0.0427314 -0.024472782 -0.026935304 -0.0048650103
0003e0 d0 d5 88 bc 86 0b 1a bc 82 61 b2 bc 86 ae a9 3c
       -0.016703516 -0.009402161 -0.021775011 0.020713102
0003f0 ce 3a 9b 3c 1b a5 af bc 54 59 09 bc 91 3c 06 bc
       0.018948939 -0.021441033 -0.008383114 -0.008193151

network_body._body_endoder.seq_layers.2.weight f4 [256, 256]
000000 0a 01 2d 3d 15 7b 80 bc cb 05 b6 3d 4b c0 16 3d
       0.04223732 -0.01568369 0.08887824 0.03680448
000010 49 f8 8b 3d d8 88 86 bd 1b ed 70 bc 9f 25 f7 bc
       0.06834466 -0.065690696 -0.014704968 -0.030169306
000020 ca 87 41 bd 89 52 91 bd 4f d0 8b 3d f9 e6 22 bd
       -0.04724864 -0.070958205 0.06826841 -0.039771054
000030 4c 13 70 3d ab 14 a5 bd e8 28 13 bc ea b0 39 3c
       0.058612153 -0.08060583 -0.008981921 0.0113336835
000040 22 c6 24 bd 80 6d 3b bd 06 c9 e4 bc 75 9b 9e bc
       -0.040228017 -0.045758724 -0.027927887 -0.019361237
000050 fd 8f d1 bd f8 5f 7d bd fb e8 87 bc ae 73 88 3c
       -0.10232542 -0.0618591 -0.016590586 0.016656723
000060 71 a8 dc bb ab ca be 3a a5 b9 08 bc f4 b8 15 bb
       -0.006733947 0.0014556249 -0.008345042 -0.0022845836
000070 4e fe 0d 3e 32 a0 43 bd c3 5c ff 39 01 d2 41 bc
       0.13866541 -0.047760196 0.00048706503 -0.011829854
000080 70 89 15 bd f0 37 8c bd 49 c9 84 3c 0c fd 9f ba
       -0.036508024 -0.06846607 0.016209261 -0.0012206151
000090 22 0d c6 3b cd 1b 19 3c 3f 5d af bc 8c 64 cc bd
       0.006044046 0.009345007 -0.021406768 -0.09980115
0000a0 dd 4c 07 bd 1e 04 4a 3d f9 6a b8 bd 56 93 00 be
       -0.033032287 0.049320333 -0.090047784 -0.12556204
0000b0 78 fb 50 bc 9b a2 8b bd bd de bf 3d bf 0c 10 3d
       -0.012755267 -0.06818124 0.09368656 0.035168406
0000c0 c2 fd 98 3c 53 f7 84 bb 80 de 50 bd 0a 99 7f 3d
       0.018675689 -0.0040578037 -0.050993443 0.06240181
0000d0 e6 52 de bd 60 52 a8 bd 58 9d a1 3d e1 6f 9b bb
       -0.10855655 -0.08218837 0.07891339 -0.0047435616
0000e0 03 68 c8 3d 48 90 b5 3d c2 87 ec bd 4b 87 bc bd
       0.09785464 0.0886541 -0.11549331 -0.092054926
0000f0 a3 23 8a 3d 4a 23 8d 3b 26 28 dd bc 7d ef 88 3c
       0.067450784 0.0043071853 -0.026996683 0.01671576
000100 aa b2 3d 3b 70 af e2 3c 1d d1 97 3c df c4 a1 3c
       0.0028945603 0.027671546 0.01853233 0.019747196
000110 be a7 9d bd d5 d4 b6 bd 6a 1f 61 bd 79 37 7c 3b
       -0.0769801 -0.08927313 -0.0549616 0.0038485213
000120 99 8e 54 bd 85 46 8a bd b5 23 81 bc 5e 88 04 bd
       -0.051893804 -0.06751732 -0.015764097 -0.032356612
000130 6b a2 03 bd 69 ea 0c 3a 53 7b 96 3d f6 ce 9c bb
       -0.032137316 0.0005375506 0.07347741 -0.004785414
000140 46 bb 5c 3e 1e 7d 37 3d 73 7a b9 3c b9 1d 47 bd
       0.21555814 0.044797055 0.022641396 -0.04861233
000150 df b9 8c bd 2c ba 18 3d 5d da b2 3d 26 ba af 3d
       -0.068713896 0.037286922 0.08733056 0.08580427
000160 01 45 7d bd ed 4c 10 be cb 56 d0 bc 93 4a 30 bd
       -0.061833385 -0.14091845 -0.025432011 -0.04303987
000170 81 7d d2 3d 2c 2c ba 3d 9d 9a 37 3d 85 03 9f bd
       0.10277844 0.09090456 0.044825185 -0.07764343
000180 54 66 25 be ae f3 07 bd 11 bd e9 3c e2 76 37 bd
       -0.16152316 -0.033191375 0.028532537 -0.04479111
000190 6c ec 80 bc 71 bf fe 3b 8b 9a 97 bd 4d 3b d8 bd
       -0.015737735 0.0077742864 -0.074025236 -0.10558186
0001a0 6d 8a 0b 3d 40 27 8b bb 29 56 1e 3d 98 f5 85 bd
       0.03406756 -0.0042466223 0.038656387 -0.06540984
0001b0 9e 06 44 3c a3 b3 81 bd 5e 86 bf bd 4a 88 77 3d
       0.011964468 -0.06333091 -0.093518004 0.06043271
0001c0 be 85 c4 bc d4 b6 cc 3c c2 ce 5c bd 7c 72 73 bc
       -0.023989554 0.024989523 -0.053908117 -0.014858838
0001d0 00 6a ee 3c 35 bc ba 3d 12 94 ca bd f4 31 16 3d
       0.02910328 0.09117929 -0.098915234 0.036668733
0001e0 97 47 57 3d 04 ca ac 3c 27 b7 26 3d e0 1e 96 bd
       0.052558508 0.021092422 0.04070201 -0.07330108
0001f0 8f 86 82 bd 15 e4 82 bd 0f 2b 75 3b af d9 1b bd
       -0.06373321 -0.063911594 0.0037409698 -0.038049396
000200 17 b6 97 bc 3d 9c 2b bd d7 68 55 bd 2d 26 c0 bd
       -0.018519444 -0.041897047 -0.052101936 -0.093822815
000210 09 29 a4 3d 90 dc 46 bd b9 6d 82 bd 7d cc 4c 3d
       0.08015639 -0.04855019 -0.06368584 0.049999703
000220 cd b5 38 3c 2f 29 8c 3c ff c7 b5 bc 21 6a 95 bd
       0.011273813 0.017109482 -0.022190092 -0.07295633
000230 42 21 0f 3e f9 7a c6 3c 42 cd d4 bd f5 df 2a be
       0.1397753 0.02422856 -0.10390712 -0.16686995
000240 da 9d 7c bd d2 52 9c 3d 49 b2 a8 bc de 54 a5 3d
       -0.061673976 0.07632984 -0.020592825 0.08072828
000250 d7 40 e1 3c 84 29 62 3c 86 a9 87 3d d6 33 5d 3d
       0.027496738 0.013803843 0.06624131 0.054004513
000260 5f 49 11 3c 69 7d 03 be b3 c5 94 bd b6 19 d1 bb
       0.008867591 -0.12840809 -0.07264271 -0.006381239
000270 e1 d3 d8 3d 47 cb b5 3c 9a 42 80 3d 4f 3e 92 bd
       0.10587288 0.022191657 0.06262703 -0.07140791
000280 b7 99 9c 3d c0 63 db bb 70 29 f0 bd a0 53 91 3d
       0.07646506 -0.0066952407 -0.117266536 0.07096028
000290 03 24 75 bd 76 b0 88 3c 16 69 a5 3c 8a 54 4e 3d
       -0.059848797 0.016685706 0.02019171 0.05037359
0002a0 b6 97 14 3d 8f c9 47 3c 59 9f a2 3d 6f 41 43 3d
       0.036277495 0.012194051 0.079405494 0.047669824
0002b0 60 a8 71 3c 92 00 38 3d f9 c2 5e 3d 5b 2c 7d bb
       0.014749616 0.04492242 0.05438516 -0.0038631174
0002c0 2f d9 7a 3b 04 43 a8 bd 46 73 3e 3d e1 2f 7e bc
       0.0038276424 -0.08215907 0.046496652 -0.015514345
0002d0 ba d3 bf bd 50 db 28 bd 7d 38 0b 3e 67 93 1d bd
       -0.093665555 -0.041224778 0.13595767 -0.038470652
0002e0 cd fc 46 3b 44 fb 34 bc 32 cb e3 3c 41 da 1d 3d
       0.0030363083 -0.0110462345 0.027806852 0.03853822
0002f0 f7 09 6f bd 06 7c 08 bd 92 40 b3 ba 00 ab e9 3c
       -0.058359113 -0.033321403 -0.001367586 0.028523922
000300 3c 9f 9a 3d 55 3c 57 3d b1 7f 6a 3d 61 30 de 3c
       0.07549903 0.05254777 0.057250682 0.027122678
000310 ae 13 43 3c 10 12 cc 3a b2 61 8f bc b6 0b cf bc
       0.0119065475 0.0015569348 -0.01750264 -0.025274139
000320 d9 ad 26 3d e3 0f 27 bd e0 fd 50 3c 3b 77 e6 3c
       0.040693138 -0.040786635 0.012755841 0.028133025
000330 63 90 1a 3c 82 a7 fa bd fa 4c 02 bd 47 b0 65 3d
       0.009433839 -0.12238981 -0.03181169 0.056076314
000340 3e 3c 07 bd b9 31 8b bd fd 0e 80 bc 21 55 b6 bc
       -0.033016436 -0.06796593 -0.015632147 -0.02225739
000350 6b 88 81 3d 34 47 81 bd 0c f3 a3 3d 24 f0 19 3c
       0.06324848 -0.06312409 0.08005342 0.009395633
000360 6b 14 3b 3d dc d9 5f 3d 95 22 89 bd 42 b9 72 3d
       0.04567377 0.054651126 -0.06696049 0.059258707
000370 75 02 3d bd 88 d6 78 3c d5 b2 69 bd 31 62 08 bc
       -0.04614492 0.015187867 -0.057055313 -0.008324192
000380 1f 1d 8d bb 6c 4d 09 3c 61 1f 41 bc 1a 13 93 3d
       -0.00430645 0.008380275 -0.0117872665 0.07181378
000390 3c 52 85 3c 7a 03 1a bd 37 9c 4d bd be 4e e4 bc
       0.016274564 -0.03760097 -0.050197806 -0.027869578
0003a0 5f a6 7f 3b c6 4d b2 bd b5 dc 44 be b8 57 c5 3b
       0.0039009077 -0.0870624 -0.19224818 0.00602242
0003b0 92 4a 04 3d 2f 9b 62 ba c0 ef e3 3d 2b aa fc 3d
       0.03229768 -0.000864434 0.11129713 0.123371445
0003c0 a6 67 9d bd 19 d9 fd bc dd 79 f6 3c 25 88 a7 3d
       -0.07685785 -0.03098731 0.030087406 0.081802644
0003d0 4b 4f dd bd eb e2 53 bc d7 db 7a 3c 13 61 a6 bb
       -0.108061396 -0.012932519 0.015311203 -0.00507749
0003e0 da 86 74 bc d5 58 c9 bd 60 e1 14 3d 72 05 4e 3c
       -0.014924729 -0.098313965 0.036347747 0.01257454
0003f0 af 06 25 3e c0 c6 a0 3c 40 aa c2 3c 8e 35 d3 bc
       0.16115831 0.019626021 0.023762822 -0.025782373

network_body._body_endoder.seq_layers.2.bias f4 [256]
000000 f1 10 83 bb 7f 14 64 3b 10 4a c6 b8 83 60 af bc
       -0.0039998223 0.0034802256 -9.455171e-05 -0.021408325
000010 30 65 ef bc df 13 c3 bc bf ad 4e bc 09 7d 32 bc
       -0.029223055 -0.023813186 -0.0126146665 -0.0108940685
000020 6d 3f dd ba cd b2 70 bc 25 e7 4b 3a a6 ec fa bc
       -0.0016879864 -0.014691067 0.00077782787 -0.03063042
000030 9c b3 d3 bc b7 9e 96 bc 93 8e f6 bc 37 95 4d bb
       -0.02584248 -0.018386228 -0.030097282 -0.0031369457
000040 e1 54 02 bd 19 af 71 bc 09 53 f7 bb 50 b2 4a bc
       -0.031819228 -0.014751219 -0.0075477404 -0.012371615
000050 ae c3 c7 3b 8d d9 e5 bc 9e 96 cd bc d8 f0 2b bc
       0.006096325 -0.028057838 -0.025096234 -0.010494433
000060 d4 70 22 3b 7e 5b 8c bc 39 99 7f ba 55 f3 39 bc
       0.002478649 -0.01713347 -0.000975031 -0.011349519
000070 ad 65 52 3c ee 8d 3e 3c e6 5a 92 3b 7b 82 af bc
       0.012841624 0.011630518 0.0044664023 -0.021424523
000080 9d 02 cf bb f6 7b 83 3b 48 86 9b 3b a0 7c ad bc
       -0.00631745 0.00401258 0.004746232 -0.02117759
000090 20 99 e8 bb 5a 74 09 3c 29 4f 00 3c 6a f6 02 bd
       -0.007098332 0.008389557 0.007831373 -0.03197328
0000a0 e3 57 fc bc c3 e6 78 bc bd 07 cf bb 6e 15 92 bc
       -0.030803626 -0.015191737 -0.006318061 -0.017832484
0000b0 86 4b 8f bc 88 b9 67 3a d7 65 c3 bb 85 8a 9c bc
       -0.017492067 0.0008839597 -0.005963068 -0.01910902
0000c0 94 f5 53 bc a5 4d 36 3b 15 0a 83 39 b5 6b 3b bb
       -0.012936968 0.0027817276 0.0002499378 -0.0028598134
0000d0 5f de 85 bc 2c f5 81 bb 2b 44 21 bc fc b9 ac bc
       -0.016341386 -0.0039659943 -0.009842913 -0.021084778
0000e0 0d b7 ca 3b fc a0 c5 bc 63 68 46 bb 77 12 76 bc
       0.006186372 -0.024124615 -0.0030274622 -0.015019051
0000f0 8d 04 df ba 18 dd b5 bc 87 5c 18 bb 37 a0 d4 bc
       -0.0017014906 -0.022200152 -0.002324851 -0.025955303
000100 95 5f d4 bc fb bd 98 bc 7c f5 05 bd 4e 83 8f bc
       -0.025924483 -0.018645277 -0.032704815 -0.017518666
000110 54 7f df bb 92 00 ee ba aa fa b8 bc 65 a7 80 bc
       -0.0068205986 -0.0018158129 -0.022580463 -0.01570482
000120 1e 50 5e bc 64 61 93 bb 89 f2 cb bc 63 85 51 bb
       -0.013568906 -0.004497694 -0.024895923 -0.0031970374
000130 96 a8 46 3c 67 ee 94 bc 0e 7b 40 ba 77 cd 4b 3c
       0.012125155 -0.018180085 -0.00073425553 0.012439123
000140 dc b0 96 bc c7 c7 b7 bc 6f 74 b4 bc b8 d0 cd bc
       -0.01839488 -0.022434128 -0.022028176 -0.025123939
000150 5d eb 44 bb 07 0b 3a bb 20 e5 dd bc 76 bb ca bc
       -0.0030047514 -0.002838792 -0.027086794 -0.024747591
000160 e6 1a d9 3b 0d d3 c7 bc 38 16 b6 b9 e3 6d 95 bc
       0.006625521 -0.024392629 -0.000347303 -0.018240875
000170 48 33 53 bc a1 3e 5e bb a0 94 e4 bc d0 a4 e1 37
       -0.012890644 -0.0033911841 -0.027902901 2.6898837e-05
000180 29 08 60 bc 0d fc e2 bc 33 56 60 bb fe 25 b6 ba
       -0.0136738205 -0.027708078 -0.0034231066 -0.0013896821
000190 4c 13 26 bc be 46 b6 3a e7 8c b3 bb 8c fe 5a b9
       -0.010136437 0.0013906581 -0.0054794434 -0.00020884926
0001a0 57 ba 68 bb 09 c3 61 bc 0d 0c 9b bc db d7 29 3a
       -0.0035511458 -0.01377941 -0.018926645 0.00064790034
0001b0 e3 1a 5d bc ac c4 e9 3a 42 21 b5 bb 0c f3 a6 bc
       -0.01349518 0.0017835102 -0.0055276463 -0.020379566
0001c0 ec d6 59 3c fa 61 15 bb fd 1a 10 3c bc d3 27 bc
       0.01329587 -0.0022793994 0.008795497 -0.0102433525
0001d0 b7 71 08 bc cd 9d b6 bc 97 8e 35 bc 2e 68 1a 3b
       -0.008327893 -0.022292042 -0.011081359 0.002356063
0001e0 b1 9e 21 bb 33 fb 2f 3c 62 b2 c6 bc ca ae 0f bc
       -0.0024661238 0.010741043 -0.024254981 -0.0087697
0001f0 ab b0 c5 bc f5 af bc bc 50 af a0 3b 0d e7 a0 ba
       -0.024132093 -0.023033122 0.0049037114 -0.001227589
000200 1c d1 f3 bb c0 4d 00 bd 2c 40 c2 bc 05 6c af ba
       -0.0074406993 -0.03132415 -0.02371224 -0.0013383633
000210 d0 7a b7 bc d2 58 a6 bc 4d cd b5 bb fd c1 22 39
       -0.022397429 -0.020306025 -0.0055481554 0.0001552179
000220 00 48 58 bc 26 07 56 bc 6b 6c 84 bc ff 37 0d bc
       -0.01320076 -0.013063228 -0.016164979 -0.008619308
000230 03 ea ba bb cc 3c 99 bc 7f 25 26 bc c0 c0 fc bb
       -0.005704166 -0.018705748 -0.010140776 -0.0077134073
000240 00 27 85 bc 47 6a 6f bb 83 94 91 bc 20 29 a3 bc
       -0.016253948 -0.0036531852 -0.017771011 -0.01991707
000250 bb 51 6f bc 93 42 83 bc 08 30 85 bc 5d cb 00 bd
       -0.014606888 -0.016022956 -0.016258255 -0.031443942
000260 f5 6e 7f bc a9 7f 97 bc 85 16 70 bc e6 7d c7 bc
       -0.015590419 -0.01849349 -0.014653807 -0.024352025
000270 f8 d6 a6 bc e2 52 cf bc 3f 95 f4 bc 56 66 2b bc
       -0.020366177 -0.025308076 -0.029856322 -0.0104614105
000280 3a 0f c3 3b 18 18 1f bc a7 40 5f 3c 33 7c cc 3b
       0.005952743 -0.009710334 0.013626254 0.0062403916
000290 c5 93 05 3c b7 0b ea 3a 15 16 d7 ba 63 d9 9d 3b
       0.008152907 0.0017856274 -0.0016409779 0.0048171743
0002a0 91 bc a0 ba f7 0d 00 3b a3 ab c2 bc 87 5b 23 bb
       -0.0012263228 0.0019539574 -0.023763483 -0.002492638
0002b0 d7 7d 6d bc 57 d5 57 bc 6f 8d 95 bb 82 75 a5 bc
       -0.014495335 -0.013173423 -0.0045639793 -0.020197634
0002c0 b5 40 6a 3a ec f1 9c bb a3 38 c4 3b ad 35 9e bc
       0.00089360337 -0.0047895815 0.005988197 -0.019312704
0002d0 48 b0 b6 ba 15 61 29 3c cb 7e de bc b7 c3 53 bb
       -0.0013938034 0.010338088 -0.027160069 -0.00323127
0002e0 79 c4 eb 3b 16 6a a8 bc 66 95 3a bc 44 0c 1d bc
       0.007195052 -0.020558398 -0.011388158 -0.009585444
0002f0 c2 7c cf 3b 8b b5 88 bc c0 eb d9 bc 11 37 e2 ba
       0.006332011 -0.016688129 -0.026601672 -0.0017258843
000300 ca 97 4c bc b9 5a bd bb b9 20 cd bc 01 b4 1c ba
       -0.012487361 -0.0057786372 -0.025040017 -0.00059777504
000310 d5 46 45 3b 78 a0 f5 bc 41 97 44 bb ae bc 91 bc
       0.0030102034 -0.029983744 -0.002999738 -0.017790165
000320 0c 93 98 bb 9b e8 d6 bc 4c a9 9d bc 40 b2 cb bc
       -0.004656201 -0.026233962 -0.019245766 -0.02486527
000330 07 95 8f bc 32 13 d7 3b 84 f1 73 3c 51 48 17 bc
       -0.017527116 0.0065635676 0.014889125 -0.00923355
000340 b1 26 89 bc f6 37 5c bc eb ce 1f bc e5 87 96 bc
       -0.016742082 -0.0134410765 -0.009753923 -0.018375346
000350 c3 e5 47 bc 00 d5 e5 3a fd 69 37 3a 95 89 ed ba
       -0.012200776 0.0017534792 0.00069966895 -0.0018122668
000360 b5 91 a7 bb f5 f2 05 3c ca 25 b8 bc 08 a4 c7 bc
       -0.005113805 0.008175601 -0.022478957 -0.024370208
000370 76 35 9c ba e7 c1 6c bc 2b c2 81 bc 6d 30 4f bc
       -0.0011917788 -0.014450527 -0.015839657 -0.012645823
000380 fd 18 35 3b 56 a0 09 bb d5 cb a4 bb ab 19 a1 3b
       0.0027633302 -0.0021000109 -0.0050291815 0.00491639
000390 d1 57 3d bc bd fc ee bc 28 28 3a bc f8 1c a0 bc
       -0.011556582 -0.02917325 -0.011362113 -0.019545063
0003a0 af cf 96 bb fa 34 d0 bb 05 22 10 bc 27 38 5d bc
       -0.0046023945 -0.0063539715 -0.008797173 -0.013502157
0003b0 c8 be e7 bc 52 08 9f 3a 09 9b 89 bc e2 53 01 bc
       -0.028289214 0.0012133217 -0.01679756 -0.007893534
0003c0 c4 25 77 bc a2 53 a4 bc b4 6f 3c bc 34 04 a4 bc
       -0.015084688 -0.02005941 -0.0115012415 -0.020021535
0003d0 ef 5c 8b bc 65 8c 7b ba 97 b9 5a 3a 97 db 0d bd
       -0.017012088 -0.00095958106 0.0008343695 -0.034633245
0003e0 89 a9 32 bb de 8b dd bc 83 ce 2f bc a8 c0 2c bc
       -0.0027261695 -0.027044233 -0.010730389 -0.01054398
0003f0 18 36 ec 39 5f e4 b3 bc c7 92 b6 bc 09 92 2f 3a
       0.0004505373 -0.021959482 -0.022286786 0.0006697481

action_model._continuous_distribution.log_sigma f4 [1, 3]
000000 c0 a0 3f bd 15 e8 7f bd 55 89 da bc
       -0.046784163 -0.06247719 -0.026676813

action_model._continuous_distribution.mu.weight f4 [3, 256]
000000 3d f8 e9 bc 53 2a b5 bc e7 3c 74 bb 4a ad 0e bc
       -0.028560752 -0.022114908 -0.0037267746 -0.0087083075
000010 27 ab f8 bb 88 ab b3 bb 43 ff 27 bc 21 e8 0d bc
       -0.0075887623 -0.0054830946 -0.01025373 -0.008661301
000020 87 c1 08 bb 8c 1f c8 bb 96 5c 43 3b cb 4e cf 3b
       -0.0020867304 -0.0061072763 0.0029809824 0.0063265315
000030 61 81 29 bc 80 f5 78 bb 96 2c 78 3b 78 86 c1 3c
       -0.010345788 -0.0037988126 0.0037868372 0.02362369
000040 61 7f 36 ba 10 14 0f bc d4 54 84 39 15 31 53 bb
       -0.000696173 -0.008732811 0.00025240204 -0.00322253
000050 c1 c5 8a b8 c7 06 4e 3c 04 07 ea 3c 29 fc 21 3c
       -6.617187e-05 0.012574858 0.028567798 0.00988678
000060 dd a6 a5 3c f5 5f bc bb 40 b5 14 3c 4d 07 f7 3b
       0.020221168 -0.0057487437 0.0090764165 0.007538712
000070 60 5b f6 bb 20 00 b6 bc ad ae 96 3a b3 0f 17 bc
       -0.007518217 -0.022216856 0.0011496149 -0.009220052
000080 15 a5 15 b9 98 1d df bc de 70 a4 3c d1 97 36 bc
       -0.00014271245 -0.027235791 0.02007335 -0.011144594
000090 7b ba 9b 3c ce f9 1c bc 3a ab ec 3b ed d7 76 3c
       0.01900982 -0.009581042 0.0072225602 0.015066129
0000a0 44 17 43 3b d5 4c 22 3b 08 56 80 bc c0 b2 cd 36
       0.0029768506 0.0024765034 -0.015666023 6.1302853e-06
0000b0 3b 5d ec 3c 47 df 25 bb c2 c9 42 3a 8f f6 65 3c
       0.02885305 -0.0025310086 0.0007430577 0.014035835
0000c0 7e a8 92 bb 6f 21 c4 bc e3 8c d2 ba 13 3b 75 3a
       -0.0044756522 -0.023941724 -0.0016063716 0.0009354811
0000d0 d7 38 8e 3c 14 37 4a 3c 3b 91 49 bb f6 5c df 3c
       0.017361088 0.012342233 -0.003075673 0.027266007
0000e0 42 28 17 bc 3a 01 2b bb c0 19 1a 3c c2 82 5d 3c
       -0.009225907 -0.002609326 0.009405553 0.013519945
0000f0 63 8f b3 bc 43 7a e7 bb 41 66 5f ba 70 82 d7 b9
       -0.021918958 -0.0070641353 -0.0008522012 -0.0004110518
000100 79 3c 8c 3a 42 a3 49 3a 33 a7 0c bc d2 c2 09 bc
       0.0010699175 0.0007691869 -0.008584785 -0.008408265
000110 cc 0a 5a bb cb bc c1 ba eb 48 85 bc 9c b2 7d 3c
       -0.0033270596 -0.0014780996 -0.016270122 0.015484478
000120 f3 fa f3 ba 98 0b c2 bc 35 34 ae bb c4 b4 95 3b
       -0.0018614217 -0.023687169 -0.005316282 0.004568668
000130 fc 15 4b 3c 80 cc 9d 3b 19 8a 10 bc 52 c3 3e ba
       0.012395378 0.004815638 -0.008821988 -0.000727703
000140 28 8a b4 bc 31 fe b8 3c 7e a4 51 3c 2f 38 34 3b
       -0.022038534 0.022582145 0.012795566 0.0027499308
000150 21 8e c3 3b a4 f8 31 bb 40 52 d7 ba 6d 52 ab bb
       0.005967871 -0.0027156258 -0.0016427711 -0.005228332
000160 ae 7b 06 bc 4a 97 5e 3a 1a 6e bf bb f6 ee ab bc
       -0.0082081985 0.0008491172 -0.0058419826 -0.020987969
000170 7c 5d 33 3c c8 b5 10 bc d2 a0 09 3c c9 d3 8d 3c
       0.010947581 -0.0088324025 0.008400159 0.017312901
000180 70 57 27 bc 0f 39 d3 ba b9 58 ec bb 52 ea 50 bc
       -0.010213718 -0.0016115027 -0.007212725 -0.012751179
000190 7a d0 12 bc a5 8f 26 3b 51 1e d5 bb d2 5b 89 bc
       -0.0089608375 0.0025415209 -0.006503858 -0.016767416
0001a0 57 a5 14 bc e9 25 6e 3c 2e 23 56 3b ae 15 12 bc
       -0.009072623 0.014535406 0.0032674777 -0.008916302
0001b0 54 ea 11 bc 0c e0 83 bc d8 db b2 bc ef b7 0c 3c
       -0.008905966 -0.016098045 -0.021833345 0.008588775
0001c0 25 74 e6 3a b9 1f 4b 3b 00 fa eb bb df 1b bf bb
       0.0017582221 0.003099425 -0.007201433 -0.00583218
0001d0 3e 45 5f 3b c7 12 c3 3c 91 b6 74 bb ba 9b 94 3c
       0.0034068371 0.023812665 -0.0037340263 0.018140662
0001e0 27 4c 0a ba 0e 4e fa 3a 38 a8 9b b9 7d 1a a5 bb
       -0.000527563 0.0019096748 -0.00029689237 -0.005038558
0001f0 cc f0 ba 3c a2 ef 8b bc d0 0f 0b 3d 03 79 e3 bb
       0.022819899 -0.01708204 0.033950627 -0.006941916
000200 7c a7 71 bb 34 c5 51 3a ad e3 22 bc 53 6f 1a 3c
       -0.003687351 0.0008002103 -0.009941977 0.009425956
000210 d8 5f 0b 3b 90 db 1b b7 f3 5b 5d 3c 23 91 c9 ba
       0.0021266844 -9.289841e-06 0.013510692 -0.0015378337
000220 af e1 55 bc d6 1c 65 bc 87 a0 b1 3c 55 d2 af 3b
       -0.013054295 -0.013983926 0.02168299 0.0053656497
000230 a9 63 85 3c a6 e5 80 ba 8d 29 a9 3a ed b5 84 bc
       0.016282873 -0.0009834066 0.001290606 -0.01620003
000240 ec 52 59 3b 6a 6e 55 bb df f6 5d 39 4d 58 ee ba
       0.0033160998 -0.0032567033 0.00021168169 -0.0018184275
000250 9b 8c bf 3a 85 b8 f3 3b 5d 8b 12 3c ed 05 19 bb
       0.0014614047 0.007437768 0.00894436 -0.002334948
000260 f0 27 90 bc 07 47 6d bb c5 46 b4 bb 57 f9 83 3a
       -0.017597169 -0.0036205666 -0.0055016004 0.0010068816
000270 21 d2 d6 bb 9e c7 86 3a 9e 60 32 3b 74 ef 1e ba
       -0.006555811 0.0010282879 0.0027218233 -0.0006062903
000280 1c 5b d1 ba 72 92 66 3c 30 49 83 3b 79 8f 32 bc
       -0.0015972587 0.014073001 0.0040065274 -0.010898464
000290 a1 a6 49 bc b2 7a 00 bc f7 02 27 3d e1 0f 01 bb
       -0.012307794 -0.007841753 0.040774312 -0.0019693302
0002a0 6b 4f 69 3a 47 40 98 bb 3f 10 a0 3c 96 0a 00 3c
       0.0008900079 -0.0046463343 0.019538997 0.007815024
0002b0 1f 75 46 ba 28 44 b7 bb 49 8e 62 3c f0 c4 6d bb
       -0.0007570553 -0.0055928417 0.013827869 -0.0036280714
0002c0 14 4e 1c bd 4f 66 13 bc 69 b4 80 bb 3c d4 9d bc
       -0.0381604 -0.00899656 -0.0039277566 -0.01926624
0002d0 b9 13 02 bc a0 97 bd 3a dd cf 30 3c 0c 4c 34 3d
       -0.007939273 0.0014464743 0.010791746 0.044017836
0002e0 b3 86 77 3b 8c 02 34 3c 94 b6 96 3c 06 a3 b3 3a
       0.0037769496 0.010986935 0.018397607 0.0013705201
0002f0 43 91 1c bc 2e 40 87 39 d1 08 9a ba e9 60 19 3a
       -0.0095561175 0.00025797024 -0.0011751895 0.00058509276
000300 ab ad 99 3b 3f d5 d7 b8 19 34 b3 ba 85 a6 b1 bb
       0.0046898923 -0.00010291719 -0.0013672143 -0.005421462
000310 bd 64 c8 3c b7 e2 e3 3a 2f a2 e6 3c 29 fd 98 3c
       0.024462098 0.0017386292 0.028153507 0.018675404
000320 c4 97 5f 3a 4e ce 5c 3c 39 47 12 3a 67 ee c2 3b
       0.000852939 0.013476921 0.0005580071 0.00594883
000330 d8 67 0e bc d7 98 e4 ba 8e ba 7a bb e2 cd 15 bc
       -0.0086917505 -0.0017440569 -0.0038258168 -0.009143325
000340 53 9d ea bb 0e db fc bb bf 64 29 3b 94 7b 4b 3b
       -0.007159868 -0.007716543 0.0025847403 0.0031049
000350 9c ce ac ba 59 4d e5 3c b2 e0 1e bc b4 52 14 3c
       -0.0013184133 0.027990984 -0.009697126 0.009052921
000360 bb 41 28 3b 44 a6 09 3a 1e 27 94 bb 51 f6 6b bb
       0.0025673944 0.0005250911 -0.0045212647 -0.003600497
000370 0c 30 34 ba 68 0f 40 3c 4a 46 08 3d c9 62 79 bb
       -0.00068736146 0.011722423 0.033270158 -0.0038053265
000380 c0 78 ad 3a d9 85 d5 bb a5 c0 b1 3b a9 fb 03 bb
       0.0013234839 -0.0065162 0.0054245763 -0.0020139015
000390 e9 af 67 bc 4a c7 3a 3a 45 fe 3b 3a ff d8 2c 3c
       -0.014141061 0.00071250333 0.0007171373 0.010549783
0003a0 a3 31 6e bc aa 44 60 3b ba f0 c7 3b 68 d0 50 bb
       -0.0145382015 0.0034220614 0.006101695 -0.00318625
0003b0 10 5e f9 38 f8 2e 44 bc cd b9 76 bb 6d ea 2c 3b
       0.00011890766 -0.011974089 -0.0037647367 0.0026384846
0003c0 07 f2 20 bc f2 dd 5d bc b8 88 e6 bb f5 13 ee b8
       -0.009823329 -0.013541685 -0.007035341 -0.00011352442
0003d0 96 a0 3e bc f8 31 7a bb 6f a1 6d ba fa 59 b0 3a
       -0.011634966 -0.0038176756 -0.0009064888 0.001345455
0003e0 3a d6 8e bc b4 11 48 3a f1 4b da 3c c6 24 3d 39
       -0.017436136 0.00076320325 0.02664754 0.00018038144
0003f0 59 9b d0 bb a2 c8 3f bb e2 b9 44 3b 4e a8 0f bc
       -0.006366175 -0.0029263874 0.0030018021 -0.008768154

action_model._continuous_distribution.mu.bias f4 [3]
000000 14 56 e3 ba da 5b 57 3c 3c b8 cc 3c
       -0.0017344379 0.013144458 0.024990194

action_model._discrete_distribution.branches.0.weight f4 [1, 256]
000000 03 49 87 3a 67 ce 2d ba 05 c9 ff 3a 3a 7b ee ba
       0.0010321442 -0.00066301826 0.0019514865 -0.0018194683
000010 95 61 04 bc 31 5b 06 3c ba d6 9b bb 81 7c 15 3b
       -0.008079906 0.008200453 -0.004755822 0.0022809806
000020 0a 25 33 3c dd 18 9f ba 73 ab 50 bb 63 95 ff 3b
       0.010934124 -0.0012138147 -0.0031840473 0.0077997907
000030 27 86 02 3b 85 32 d7 3b 5b 42 9d ba 69 c9 a8 bb
       0.0019916387 0.0065673017 -0.0011997925 -0.005150963
000040 67 07 c4 bb a2 a5 af bb 50 fa 10 bb e5 22 72 3a
       -0.0059823277 -0.005360321 -0.0022121854 0.0009236767
000050 8a d1 05 3b 3f a1 8d bb c8 b2 e2 bb 42 0f e2 bb
       0.0020419084 -0.0043222005 -0.006918285 -0.0068987915
000060 b7 9e ee 3b 5a f3 6c bb 99 e2 84 bb 5f 8e 85 3c
       0.007282104 -0.003615579 -0.004055333 0.01630324
000070 f7 86 3f bc 8b a5 85 3c 00 43 32 bb d7 cb f4 ba
       -0.011689893 0.016314289 -0.002720058 -0.0018676472
000080 e4 54 aa 3b 00 46 df 3a ee 88 0a 3b f3 d0 ba 3a
       0.005198108 0.0017034411 0.0021138745 0.0014252946
000090 6f 86 46 bc 2a 56 40 3a 32 2a cd 3b 37 24 09 b9
       -0.012117012 0.0007337058 0.0062611336 -0.00013078829
0000a0 83 1e 8c bb 4a a1 c5 3b 1c 4f b6 bb f0 3c 83 3c
       -0.004276098 0.00603119 -0.00556363 0.016020268
0000b0 cc 85 b4 3b 64 f1 1a 3c 8f 4f fa bb 73 95 81 bb
       0.005509114 0.009456966 -0.0076388787 -0.0039545833
0000c0 28 c3 1f bb 8f 46 f7 bb 54 1d c7 bb cd bf 59 bb
       -0.0024377797 -0.007546253 -0.006076494 -0.0033225894
0000d0 09 c1 c1 ba 63 24 ab 3a 48 a3 bc 3b af 10 9e bb
       -0.001478226 0.0013057109 0.0057567693 -0.004823766
0000e0 4f c3 ab bb 2f 2e 22 bc 21 21 80 bb 35 68 06 3b
       -0.0052417885 -0.009898706 -0.0039101993 0.002050889
0000f0 88 fc 5e 3c 9e 41 80 3a bf ec 55 bb 3b ee 74 3a
       0.013610013 0.000978518 -0.0032642332 0.00093433604
000100 ef a0 a7 3b 5d 38 94 bb 0c 8e 8d bc 43 45 6c bb
       0.0051156203 -0.0045233206 -0.017279647 -0.0036052025
000110 83 7d 2f 3c 3a 40 8f 3c 1f c0 26 3b 58 b2 61 bb
       0.010711077 0.01748668 0.0025444103 -0.0034438577
000120 6e 4c c0 ba ad db 7a 3b 53 e5 52 3b d7 3e 2b b9
       -0.0014671215 0.003827791 0.0032180145 -0.0001633124
000130 3a 0e a2 3a 32 76 1c 3b b6 5d 35 3c 18 3e 74 3c
       0.0012363859 0.002387416 0.011069706 0.014907382
000140 b5 e8 b5 3b 69 94 a1 3b 06 55 29 3a 38 54 68 bb
       0.0055514225 0.004931022 0.0006459508 -0.003545059
000150 2b 17 6a 3b c0 36 2d 3c 17 ae 8d bb cd 07 56 3a
       0.0035719376 0.010572135 -0.0043237316 0.00081646146
000160 cf 2a b8 3a 2b 3a bf ba cf e7 95 ba 42 fb 5a bc
       0.0014050844 -0.0014589479 -0.0011436882 -0.013365569
000170 40 6c 31 3c ea 9a b8 3a 93 11 8d 39 1e 3f 1b bc
       0.0108290315 0.0014084254 0.0002690671 -0.0094754975
000180 2b f0 37 3c d7 3a dd bb 93 c3 ed ba 12 25 62 bb
       0.011226694 -0.006751399 -0.0018139951 -0.003450696
000190 31 55 3e bc 2f c2 2c bb b7 cb 5d bc 05 2c 23 bc
       -0.011616991 -0.002636086 -0.013537339 -0.009959226
0001a0 cf 5c b9 3b 37 80 a9 3b 38 d7 d3 38 83 48 76 bb
       0.0056568156 0.005172755 0.00010101352 -0.0037579841
0001b0 9d d2 5f 3b e1 3f 12 3a a3 e9 c1 3b b8 aa d6 bb
       0.0034152635 0.00055789767 0.0059177442 -0.006551113
0001c0 f5 78 ff ba 67 8e 02 3a 8d 50 18 ba 27 45 78 3a
       -0.0019491004 0.0004980326 -0.0005810343 0.0009470754
0001d0 cf dd de bb 4b b4 2e 3c e4 20 b3 3a aa d1 44 bc
       -0.006801344 0.010663102 0.0013666418 -0.012012878
0001e0 6f c6 a7 3a 7a 2d d5 3b 0d 74 f0 3b e0 20 d4 bb
       0.0012800227 0.0065056654 0.007338053 -0.0064736456
0001f0 17 64 54 3b 2e 29 ca bb 15 ee 9d 3b 60 39 a0 3b
       0.003240829 -0.00616946 0.0048196414 0.004889652
000200 b8 82 82 3b 93 fa f9 bb 42 bc 9b 3c 28 dd e0 3a
       0.003982868 -0.0076287477 0.019010667 0.0017155753
000210 95 78 e9 bb fa 15 ee 3b 9d dd 8c bb 6f 3c 12 3c
       -0.00712497 0.0072658034 -0.0042988793 0.008925541
000220 5f fd 30 3c 1f 36 8a ba 8b f0 06 3a bb 5b af bb
       0.010802596 -0.0010544694 0.0005147538 -0.0053515113
000230 f7 6f 25 3b c2 8f 39 bc a2 80 e5 39 1f ab e2 bb
       0.0025243738 -0.011325778 0.00043774123 -0.006917372
000240 65 8c e8 b8 fc b5 48 bb 34 a3 9e 3b ef e2 0c 3b
       -0.000110887726 -0.003062605 0.0048412327 0.0021497568
000250 71 85 00 3c 01 4e ad bb 57 2a 87 b8 48 69 6f bc
       0.007844315 -0.00528884 -6.445188e-05 -0.014612503
000260 55 7c 5c bc da c1 d9 3b fc 99 9b 3b a3 66 11 bc
       -0.013457377 0.0066454234 0.004748581 -0.008874568
000270 77 2e ea bb c4 59 46 3a 7b e3 4e bc 01 1a a7 ba
       -0.0071466523 0.00075664767 -0.012627478 -0.0012748839
000280 9f 69 8d 3b fd 96 8d 3b 73 cf b7 3b 43 5c 53 bb
       0.0043155695 0.0043209777 0.0056094467 -0.0032251037
000290 3b 3c 6d bb a0 6d 92 3b fd ea 66 bb af 27 b9 bb
       -0.003619923 0.0044686347 -0.0035235279 -0.0056504826
0002a0 db 2b 15 bb e1 e8 b3 3a eb b1 93 bb 62 34 11 ba
       -0.0022761736 0.001372602 -0.0045072935 -0.00055391167
0002b0 cd a9 e8 3b 4f 78 79 3b 03 5d fd 3b e3 e0 6e bb
       0.00710032 0.0038066094 0.007732035 -0.003644996
0002c0 cf 5b 84 3b 7d 24 08 bb 82 33 83 3a fb 32 f2 bb
       0.0040392647 -0.0020773702 0.0010009857 -0.0073913313
0002d0 4d 05 e9 3b 5f 7d 89 bb fd 4b aa b9 ac 60 84 bb
       0.0071112276 -0.0041958536 -0.00032481542 -0.0040398445
0002e0 67 cb eb 39 3c f4 04 bb ab bd 67 3b ea 5a 2e 39
       0.0004497424 -0.0020287177 0.0035360854 0.00016627801
0002f0 3f ac 05 bb df 90 86 bb b8 6b 7a 3b 13 6a 21 3c
       -0.0020396856 -0.0041066254 0.0038211178 0.00985195
000300 ef 2f 6e bc 87 5d 1a 3c 5c 43 03 3c ed 6a 66 bb
       -0.014537795 0.009421713 0.008011665 -0.0035158948
000310 f6 96 20 3c fd 13 12 3c ef 48 88 3c 00 ee 4b b9
       0.009801617 0.008915898 0.01663634 -0.0001944825
000320 cb b7 2c bb 54 99 a1 ba 42 f7 cc bb 96 c3 9d 3b
       -0.0026354666 -0.001232902 -0.0062550614 0.0048145754
000330 77 07 02 3b 97 ce 47 3b 9a 94 c5 b9 bb 9f 09 37
       0.0019840875 0.0030488127 -0.00037685485 8.2030265e-06
000340 c5 f6 9e bb 7f cf 40 bb 56 e4 a6 bb 13 29 6c bb
       -0.0048511946 -0.0029420552 -0.0050931377 -0.0036035224
000350 93 3f e6 3a 40 38 1a bb 3f 57 9d 3b 6b 72 a5 3a
       0.0017566554 -0.0023532063 0.0048016603 0.00126226
000360 f5 16 08 bb 53 7f 1d 3c 12 aa 69 3a 7f 5b a4 bb
       -0.0020765637 0.009612876 0.0008913587 -0.00501579
000370 a3 de 99 3b 78 4d ff 3b 1f 68 55 bc 55 5e f8 3b
       0.00469573 0.0077912174 -0.013025313 0.0075796046
000380 75 e7 92 3a 35 35 d2 3b 88 67 9e 3a b3 4b 99 3b
       0.0011207896 0.006415034 0.0012085298 0.0046782135
000390 4b 95 45 3b 7f 5a 80 3b 33 65 de 3b 3d 5b 61 ba
       0.00301488 0.003917038 0.006786966 -0.00085966644
0003a0 34 2e a5 bb 3f 53 f9 ba b4 6e c5 bb 5d fa 2a 3c
       -0.005040908 -0.0019022002 -0.0060251597 0.010435668
0003b0 aa 7e dc bb 15 b3 54 3b 80 b7 3e 3c c8 30 e7 ba
       -0.0067289667 0.0032455374 0.0116404295 -0.0017638439
0003c0 a6 a3 9b 3b c7 4e 2c b9 d4 a4 49 38 7b ad e2 3b
       0.004749733 -0.00016432545 4.8075643e-05 0.006917653
0003d0 5a 03 e6 3b 17 b0 b9 bb 79 bf bf 3b 5a 62 df bb
       0.0070194425 -0.0056667435 0.0058516827 -0.0068171443
0003e0 74 22 b5 3c 10 c5 a2 bb 2d 2c 56 3b 96 80 14 39
       0.022111155 -0.0049673393 0.003268014 0.00014162282
0003f0 b2 62 da ba 6f 37 4a 3a 31 26 33 bb b7 84 79 bb
       -0.0016661494 0.0007713949 -0.0027335996 -0.003807349

onnx::Div_80 f4 [36]
000000 99 b5 75 3e ab 96 82 3e 05 0c cb 3e 29 bb 96 3e
       0.23995055 0.25505576 0.39657608 0.29439667
000010 5b f8 6d 3e e0 a7 82 3e f8 7d cc 3e 6b 8e 99 3e
       0.23239271 0.25518703 0.39939857 0.2999147
000020 84 5b 75 3e de 43 82 3e 9b 5c d1 3e e2 e7 9e 3e
       0.23960692 0.25442404 0.40890965 0.31036288
000030 cf 52 75 3e 20 42 81 3e 77 2d ce 3e 75 7a 99 3e
       0.2395737 0.25245762 0.40269062 0.2997624
000040 88 06 7c 3e 57 03 81 3e 42 e3 d2 3e 5d 7c 9f 3e
       0.24611866 0.2519786 0.4118901 0.3114957
000050 1c 89 77 3e 11 a1 6f 3e 13 f3 ca 3e b9 34 96 3e
       0.24173397 0.23401286 0.39638576 0.293371
000060 e2 56 7f 3e 35 38 6d 3e 11 80 cf 3e c6 72 9c 3e
       0.24935487 0.23165973 0.40527394 0.30556315
000070 20 f7 6f 3e ec 78 cd 3d e6 ce b2 3e cb a3 92 3e
       0.23434114 0.1003283 0.34923476 0.2864059
000080 c9 86 74 3e 35 76 cf 3d 19 78 b8 3e c1 c0 98 3e
       0.23879541 0.10129968 0.36029127 0.2983456

onnx::Div_83 f4 [13]
000000 d0 f7 71 3f ad 55 e3 46 81 64 6f 3f ba 40 07 44
       0.94518757 29098.838 0.9351273 541.01135
000010 fd e1 96 43 fb 13 03 3b fb 13 03 3b fb 13 03 3b
       301.76553 0.0020000923 0.0020000923 0.0020000923
000020 fb 13 03 3b fb 13 03 3b fb 13 03 3b fb 13 03 3b
       0.0020000923 0.0020000923 0.0020000923 0.0020000923
000030 fb 13 03 3b
       0.0020000923
