results/run5/AvoidAgent.onnx (onnx, 324058 bytes, 12 tensors)

network_body.observation_encoder.processors.0.normalizer.running_mean f4 [36]
000000 0e 7f 92 3d cd b8 3d 3e de bf 2e 3f e9 01 4e 3f
       0.0715314 0.18527527 0.68261516 0.80471665
000010 98 58 93 3d 3a 78 1f 3e f2 b4 34 3f 45 63 51 3f
       0.07194632 0.15573207 0.705886 0.817921
000020 0c e2 90 3d 3b 60 59 3e f8 6d 26 3f f9 a4 4a 3f
       0.07074365 0.21228115 0.6501155 0.7915798
000030 9b c4 9d 3d 38 0d 0e 3e 62 a7 37 3f 0b 66 56 3f
       0.07703515 0.1387223 0.7173978 0.83749455
000040 e7 b4 99 3d b8 76 58 3e bc 65 25 3f db 94 4e 3f
       0.075052075 0.21139038 0.6460836 0.80695885
000050 fc e2 9c 3d 12 f7 bf 3d 6b 6d 43 3f ca 85 5e 3f
       0.07660481 0.09373297 0.76338834 0.86922896
000060 37 71 a3 3d e9 18 24 3e 70 57 31 3f 7d 15 59 3f
       0.079805784 0.16025127 0.69274044 0.84798414
000070 a6 df 8a 3d eb 03 4f 3b ee 4e 5d 3f 5a a5 64 3f
       0.06780939 0.0031588029 0.8644856 0.89314806
000080 66 b1 a2 3d 3d 40 91 3c a0 6c 56 3f cd 6e 62 3f
       0.07943992 0.017730827 0.837595 0.8845032

network_body.observation_encoder.processors.1.normalizer.running_mean f4 [13]
000000 0d 04 50 ba ab d5 26 c7 5d f9 ab 3d 5a 6f 6f c1
       -0.0007935174 -42709.668 0.08397172 -14.964685
000010 65 09 1d 44 92 fe 7f 3f 92 fe 7f 3f 92 fe 7f 3f
       628.1468 0.9999782 0.9999782 0.9999782
000020 92 fe 7f 3f 92 fe 7f 3f 92 fe 7f 3f 92 fe 7f 3f
       0.9999782 0.9999782 0.9999782 0.9999782
000030 92 fe 7f 3f
       0.9999782

network_body._body_endoder.seq_layers.0.weight f4 [256, 49]
000000 6f d9 1e bd 1b fc 3f be 5d 21 d1 3d ce dd 6a 3e
       -0.03878158 -0.18748514 0.10211442 0.22936174
000010 52 8b 40 3e a2 ff 4e 3d 89 61 5d 3e 07 7a 01 be
       0.18803146 0.05053676 0.21619238 -0.12644206
000020 d0 ef 90 3e 43 cd 1e bd 00 c1 88 bc 60 dd 32 bd
       0.28307962 -0.03876997 -0.016693592 -0.04366815
000030 12 05 2a be b4 4e ed bd 83 0a 05 bd 17 c6 0e 3e
       -0.16603497 -0.11587277 -0.032480728 0.13942753
000040 3f b9 74 3e a5 9a 08 3e 33 0d ef bd 49 f4 18 be
       0.23898791 0.13340242 -0.116724394 -0.14936937
000050 95 e6 c9 3b f4 8d dd 3c 9c 25 0a 3e bb 07 02 3e
       0.0061615207 0.027045228 0.1349091 0.12698261
000060 7c 0a b5 be 86 71 0e 3e fa 58 ab 3c e1 f4 91 3e
       -0.3535956 0.13910493 0.02091645 0.2850714
000070 3e 06 e3 3d 4c 7f a1 bd ea c2 5e 3e 52 16 a2 3d
       0.11085175 -0.07885608 0.21754041 0.079144135
000080 10 23 9e bd 00 06 ce 3d d2 08 05 3c d3 1a de 3d
       -0.077215314 0.10059738 0.008119779 0.1084496
000090 31 43 d7 bd df b3 f6 3c 05 a8 c5 bd f5 7d 27 3e
       -0.105108626 0.030115066 -0.09651188 0.16356643
0000a0 25 e5 29 be f7 a8 2b 3d 90 f1 d2 3c a1 1c 67 3d
       -0.16591318 0.041909184 0.025749952 0.056423787
0000b0 a3 a0 87 bd 59 b2 99 bd 52 95 2a bc 5c 23 25 be
       -0.06622436 -0.0750472 -0.010411577 -0.1612677
0000c0 08 5c 23 be 1a 38 41 3e 57 18 2e be b4 8f 64 3e
       -0.15953076 0.18869057 -0.17001472 0.22320443
0000d0 ac 10 91 bd 3b 09 02 3e 05 72 a0 3d 65 47 bb 3e
       -0.07083258 0.12698834 0.078342475 0.36577907
0000e0 d6 a4 9e bd ed c5 2e be c7 95 c0 bc 3d ff 70 3e
       -0.07746284 -0.1706769 -0.02350892 0.23534866
0000f0 72 16 87 3d ad 38 2e 3d 6a 37 3f be e2 49 8e 3d
       0.06596078 0.04253452 -0.18673483 0.06947686
000100 65 d4 db 3d a9 42 66 be 74 1e 0b be 94 05 b5 bd
       0.107338704 -0.22486366 -0.13585836 -0.088389546
000110 7f 06 97 bd 09 83 a0 bd 66 ec 4c 3d 76 30 85 3d
       -0.07374286 -0.07837493 0.050030135 0.06503384
000120 05 2e 84 3e 35 4d b0 bc c7 ca 58 be b7 5e d1 bc
       0.2581636 -0.02152119 -0.21171103 -0.025557859
000130 fa 30 53 bd 61 c6 88 3d 5d 83 c6 be 12 a5 70 3e
       -0.05156038 0.06678463 -0.38772097 0.2350047
000140 3b 90 3a bc 23 b6 60 3d a4 5d cc bb e2 62 85 bc
       -0.011386926 0.0548612 -0.006236749 -0.016282503
000150 85 c3 74 3d b1 14 40 3e 20 3f 5b 3e e0 dd 2c be
       0.059756774 0.18757893 0.21410799 -0.16881514
000160 3f a3 0f 3e 4c b5 40 3e 5b 3f 5a 3b 63 b4 22 3d
       0.14027117 0.1881916 0.0033301923 0.03972281
000170 e6 51 b2 bd 6a 1b ec 3c af 4f 03 be b5 99 1f bd
       -0.08707027 0.028821666 -0.12823366 -0.038964946
000180 ba 2c f9 3a d5 53 1b be 07 d3 07 3e 87 49 a2 bd
       0.0019010522 -0.15168698 0.13264094 -0.079241805
000190 f3 da c7 bd cc fc 84 3e dd a5 11 be 70 5e 1d be
       -0.09758558 0.2597412 -0.14223428 -0.15368056
0001a0 a6 cb de 3c b2 c5 58 3d bb db bb bc 05 9a ab bd
       0.027196717 0.052922912 -0.022931924 -0.08378986
0001b0 41 1a 06 bd b8 fd 80 3c 5a ab 2c bc 36 43 ec 3d
       -0.03273988 0.015745983 -0.0105389 0.11536257
0001c0 01 f4 42 be c5 64 05 bd 09 7b f2 3d 78 10 f5 bd
       -0.19038393 -0.032566804 0.11839873 -0.11966032
0001d0 57 2d 21 be ae 1c 01 3e 5e d0 83 3c 8d c5 8c bd
       -0.15739952 0.12608597 0.016090568 -0.06873617
0001e0 7e fe fc bd cb c5 40 bd 85 f7 1c 3e 47 b6 13 bd
       -0.12353228 -0.04706363 0.15328796 -0.036062505
0001f0 9f a6 27 3e a1 67 81 bd fd b9 31 be 3c 95 81 bd
       0.16372155 -0.06318594 -0.17356105 -0.06327292
000200 a1 7b 77 3d a4 93 15 3d 77 8b 72 bb c5 60 9a bd
       0.060420636 0.036517754 -0.0037009397 -0.075379886
000210 42 ef 2c 3e 6d 14 aa bb 8f cc 1f be ef 43 f9 bd
       0.16888145 -0.005190423 -0.15605377 -0.121711604
000220 8f 62 30 3d 0a 13 7b be ff 32 ae 3d 4f 98 65 3b
       0.043062743 -0.24518982 0.085058205 0.003503341
000230 53 cf 23 be 14 c1 42 3c 88 cf 64 bd 34 ad 91 bc
       -0.15997057 0.011886854 -0.05586198 -0.017782785
000240 54 a6 2e 3d 60 a4 f2 3d db 57 13 be b8 5b 25 3d
       0.04263909 0.11847758 -0.14388983 0.040370673
000250 a7 ac 9c 3d 15 ba a2 be 48 eb a0 3b 59 7e e6 3d
       0.07650118 -0.31782594 0.00491086 0.11254568
000260 40 10 33 be e9 b8 14 bc 73 ab 46 be 59 50 01 be
       -0.17486668 -0.009077289 -0.1940134 -0.12628306
000270 5d a6 d8 bc 59 4b fc 3d ef 38 92 3d 60 20 b0 3e
       -0.026446516 0.12319059 0.071397655 0.343997
000280 85 22 70 3d 32 34 ac bd 54 7e 20 3e ba 34 12 3e
       0.05862667 -0.08408393 0.1567319 0.14277926
000290 3c 4e 85 bd 6b f2 15 3d 4a 58 85 3b d8 6f bf 3d
       -0.06509063 0.03660814 0.0040693628 0.093475044
0002a0 5c f6 14 3e 64 a1 88 3d 60 f2 07 be 94 ac 03 be
       0.14547104 0.06671408 -0.13276052 -0.12858802
0002b0 9a e8 06 be e1 10 1a 3c 80 5a 87 bd 75 19 d3 3c
       -0.13174668 0.009403438 -0.066090584 0.025768975
0002c0 d3 29 a7 3e ba 57 fe 3d 51 bc 10 3e 64 d7 db 3c
       0.32649097 0.12419076 0.14134337 0.026836105
0002d0 45 24 1d be 0a d3 d4 bd 69 d8 5e 3b 90 68 b7 3d
       -0.15345867 -0.10391815 0.0034003502 0.089554906
0002e0 44 6d f5 3c f4 c8 6d be 74 91 17 3e 2d bd a6 bc
       0.029959328 -0.23221189 0.1480158 -0.020353878
0002f0 2e 4b 7a 3d f4 76 27 3e 44 57 8e be 2c ab e3 3c
       0.061106853 0.16353971 -0.27800953 0.027791582
000300 0a 02 03 3b cb 53 81 bd e6 09 19 be 7a 49 7d 3d
       0.001999023 -0.0631481 -0.14945182 0.06183765
000310 b0 c7 b9 3d f4 ee 08 3e 86 ba 89 bb db 2d 12 be
       0.090712905 0.13372403 -0.0042031435 -0.14275305
000320 a5 9f 01 3e 81 3a 80 be d3 68 49 be e9 b7 0d 3e
       0.12658556 -0.25044635 -0.19668894 0.13839687
000330 b2 75 0d 3e 8f de f4 bc ff 66 20 3c 3a b0 89 3d
       0.13814428 -0.02989128 0.009790181 0.06723066
000340 b7 4f 13 be 75 57 92 39 69 e8 dd 3d 9c 31 31 be
       -0.14385878 0.0002791245 0.10835344 -0.1730408
000350 2e ee c9 be f1 c1 82 bc 0e d5 8f 3d 84 89 46 bd
       -0.3943953 -0.01596162 0.07023059 -0.04847099
000360 f4 27 9d bd d7 63 82 bd 8d 38 a3 bc 47 f6 56 bd
       -0.07673636 -0.06366699 -0.019924426 -0.052480962
000370 2e b7 07 be af 5a e4 be b5 06 3c bd 89 2a 22 bd
       -0.13253471 -0.44600436 -0.045904834 -0.039591346
000380 5b ec 68 3d df b0 b9 3d 74 c3 34 3e 66 8a d9 3c
       0.05686603 0.090669386 0.17652684 0.026555251
000390 a7 43 26 bd 31 a7 3f 3d e0 15 2e be d3 7e 14 3e
       -0.040591862 0.046790306 -0.17000532 0.14501505
0003a0 0b 4b 07 be 46 61 76 be e3 a4 73 bd 76 24 c4 bd
       -0.1321222 -0.24060544 -0.05948342 -0.09577267
0003b0 de 15 25 bd b4 a3 01 be c4 16 3b 3d b2 45 3e be
       -0.040304057 -0.12660104 0.045676008 -0.18581274
0003c0 cc 91 2c bd ac f6 04 be 4e 32 5e be 84 d7 47 3e
       -0.04213123 -0.12984723 -0.21698877 0.19515806
0003d0 98 6c 58 3e da 45 bc 3d 91 01 ea 3d 6d f2 a7 3e
       0.21135175 0.09193011 0.1142608 0.32802144
0003e0 04 2b 19 be 22 34 b2 bd 19 56 7e 3e 10 a3 97 3d
       -0.14957815 -0.0870135 0.24837531 0.074041486
0003f0 ec 7a 93 3d 2f 4c 18 be 7f ea 67 3d c2 a7 39 3e
       0.0720118 -0.14872812 0.056620117 0.18130401

network_body._body_endoder.seq_layers.0.bias f4 [256]
000000 24 e2 c5 bc a6 f9 42 bc 2e 9f ab bc 75 ee 04 bd
       -0.024155684 -0.011900341 -0.020949926 -0.032453973
000010 c1 3d bd bb df 75 84 bb 24 72 a7 bc 15 62 64 bc
       -0.005775184 -0.0040423716 -0.020440169 -0.0139394
000020 c3 5a f7 ba 15 db 0c bc 7a a8 87 3c de 1a 92 bc
       -0.0018871654 -0.008597155 0.016559828 -0.017835077
000030 69 c3 ef 3b dc 36 97 bc e4 b6 82 bc c2 c2 97 bc
       0.007316996 -0.018458776 -0.01595635 -0.018525485
000040 79 9e 07 bd c4 1a c8 3a e8 bb 85 bc 7a 38 fb ba
       -0.033110116 0.0015266766 -0.016324952 -0.0019166612
000050 65 98 d1 bc b4 cd 09 bc f6 54 0b bc 7e c4 2f bc
       -0.025585363 -0.00841086 -0.008504143 -0.010728
000060 e6 fc c8 3b d4 06 11 bc 31 13 1b bb a0 b8 81 bb
       0.0061336635 -0.008851726 -0.0023662562 -0.0039587766
000070 cf b9 db bb e1 aa 80 3b 23 d9 0a bb f3 41 57 bc
       -0.0067054997 0.0039266204 -0.0021186552 -0.013138282
000080 48 5b 8b 3a a3 09 23 bd 8f d8 c4 b9 41 75 70 ba
       0.0010632062 -0.039804112 -0.00037545382 -0.00091727456
000090 01 06 45 bc 33 ca 1e bc d6 8c 20 bc c9 87 cb ba
       -0.012025357 -0.009691763 -0.009799203 -0.0015528138
0000a0 fd ac 8b bc fa 3d 9b bb 95 9f 02 3c ca 82 68 bb
       -0.01705026 -0.004737613 0.007972618 -0.0035478347
0000b0 80 92 0e bd c1 a3 a9 3c 83 7b 2e bc 1e 41 84 bc
       -0.034807682 0.020707967 -0.010649565 -0.016144332
0000c0 9b bb ca bc 91 d7 77 3b 72 cd 80 bc 8d 81 be bb
       -0.02474766 0.0037817697 -0.015722964 -0.0058137835
0000d0 a9 29 83 bc e9 12 26 bc 5e 63 64 bb ca 3a 48 3b
       -0.016011076 -0.0101363445 -0.0034849267 0.003055262
0000e0 e5 0d 83 bc ab 68 a2 bb 05 19 97 bc ce fc 9b bb
       -0.015997836 -0.004956325 -0.018444547 -0.0047603613
0000f0 8d 63 10 bc ce 70 ed 3b 3a 56 a0 3c 5b 17 89 bc
       -0.008812797 0.0072461134 0.019572366 -0.01673477
000100 c7 17 28 bb 62 98 1e bb 97 63 39 bc 25 89 8c 3b
       -0.0025648938 -0.0024199714 -0.011315248 0.00428881
000110 b0 54 d8 bc 37 a7 91 bc 98 53 1a bb b7 bf ef bb
       -0.02640757 -0.01777993 -0.002354836 -0.0073165554
000120 e6 ca e7 bb 88 fb b5 bb 52 e2 ca 39 53 37 f8 3a
       -0.007073748 -0.0055536665 0.00038697064 0.0018937386
000130 08 7e 23 3c e9 f1 6a 3c 9c 64 8f bc 8d f3 86 3a
       0.009978779 0.014339902 -0.017504029 0.0010295972
000140 0b e3 63 bc ba 10 81 bc 7f c2 e5 b9 bf fa 11 bc
       -0.013909112 -0.015755046 -0.00043823195 -0.00890988
000150 93 7e 26 3c db 60 2e 3b 92 84 51 3b da 27 04 bc
       0.010162014 0.0026608023 0.0031969887 -0.008066142
000160 57 28 23 bb 64 1a 98 bc fd 9a 72 bc 16 19 a5 bc
       -0.002489587 -0.018567272 -0.01480746 -0.020153563
000170 f9 84 87 3b 7c a8 c3 bb 90 d1 3f bb 0e 95 bb 3b
       0.0041357246 -0.0059710126 -0.0029269196 0.005724556
000180 3d 19 38 3a b3 6d 9e 3b 31 b3 3d bc 58 eb 6f bc
       0.0007022804 0.0048348545 -0.011578367 -0.014643513
000190 28 af dd ba 95 e1 80 bb 33 d7 90 bb ab 56 9e 3c
       -0.0016913163 -0.0039331415 -0.004420185 0.019328436
0001a0 9e e2 43 3c 15 3f 68 bc b8 2b 48 ba 9d 92 a9 3b
       0.011955885 -0.014175196 -0.0007635909 0.0051749484
0001b0 84 0f 60 bc e8 82 ad bc 7b 8d ea bc f3 46 9e 3b
       -0.013675574 -0.021180585 -0.028631916 0.004830235
0001c0 b2 47 dc bc 0e d6 b8 bc d5 2f 48 bc e9 d4 04 bc
       -0.026889656 -0.022563007 -0.012218435 -0.008107402
0001d0 4a 74 72 bb 1a e5 7e b9 14 d2 c1 bc 4c 38 04 bd
       -0.0036995583 -0.00024308675 -0.023659743 -0.03228025
0001e0 02 42 c7 3c 3b 5f b7 3b 89 a5 19 3c 09 9a 88 3b
       0.024323467 0.005596069 0.009377846 0.004168753
0001f0 85 6e 46 3b 4c f9 8d bc c7 f4 79 3c a3 0f b5 bc
       0.0030278277 -0.017330788 0.015256113 -0.022102183
000200 db 89 61 bc df 47 9d 3a e1 d2 12 bc 68 68 93 bc
       -0.013765777 0.0011999569 -0.00896141 -0.01799412
000210 bf b0 e9 3b a4 c9 91 bc 88 6a 8a bb 96 41 9b bc
       0.0071316655 -0.017796345 -0.0042241253 -0.018952172
000220 5b 1a 37 bc 89 aa 71 bc 33 8e 13 3a 77 ef da ba
       -0.011175717 -0.014750131 0.00056287943 -0.0016703446
000230 8b 0e 06 bb 27 06 07 bd f1 b4 2c b9 7d 49 f0 bb
       -0.0020455446 -0.03296485 -0.00016470604 -0.0073329792
000240 96 c8 29 bc e8 db 6a bc 43 c2 c4 bb b4 19 3f bc
       -0.010362765 -0.014334656 -0.006004603 -0.011663843
000250 b3 ec 74 bc f3 6a 69 3b 73 00 70 bc 83 21 28 3c
       -0.014949012 0.0035616725 -0.014648545 0.010261896
000260 b0 c5 b1 bc 9a 91 2f 3c a7 e3 6f bc a8 fb b2 bc
       -0.02170071 0.010715866 -0.014641679 -0.021848515
000270 e9 2b dc bc 88 89 95 bb be 90 00 bc 67 75 81 bc
       -0.026876407 -0.004563514 -0.007847009 -0.015803052
000280 81 48 82 bc a3 20 4e bc 0a 39 48 bc 0b 78 63 bc
       -0.015903713 -0.012581023 -0.01222063 -0.013883601
000290 31 a1 74 bc f2 c1 13 bc 00 22 1b bc a9 1b 0e 3c
       -0.014931009 -0.009018408 -0.009468555 0.008673587
0002a0 56 0a 25 bc 1e a3 9e bc d7 63 02 bc 0b a0 57 bb
       -0.010073265 -0.01936489 -0.007958374 -0.003290179
0002b0 7f 93 41 3c bb 59 1b 3c 16 ff 52 bb db 33 ce bc
       0.011814951 0.009481843 -0.00321955 -0.025171211
0002c0 62 92 69 3a 0c 9b a5 bc 75 50 89 bc 0b 94 e4 bc
       0.00089100574 -0.020215534 -0.016761998 -0.027902624
0002d0 7e 94 04 bd 0e 25 bd bc eb 92 80 bb 08 d1 9f bc
       -0.032368176 -0.023088958 -0.003923764 -0.019508854
0002e0 f6 a4 9f 3b 2e f5 c7 bc d1 77 b2 bc 25 3c 3c bc
       0.00487196 -0.024408903 -0.021785649 -0.011488949
0002f0 ee d1 aa bc a1 8a 88 3b 39 f2 3d 3b de 00 05 bc
       -0.020852055 0.0041669165 0.0028983487 -0.008117883
000300 a9 5b 34 3b b8 cb 08 bc 36 81 01 3c d4 12 6c bc
       0.0027520454 -0.008349352 0.007904341 -0.014408786
000310 7c 5c c0 bb 1c 0a 3b bc 41 ca 52 bc 48 7e c7 ba
       -0.0058704 -0.0114159845 -0.012865604 -0.001522013
000320 f2 4d e6 ba 2b d7 c0 bc 63 80 e9 bc 2f e3 39 3c
       -0.0017570837 -0.0235401 -0.028503602 0.011345669
000330 d5 08 1f bb 8c 72 e5 bb 36 15 20 3b 0b 99 33 3b
       -0.002426674 -0.0070021804 0.0024426705 0.0027404453
000340 11 d3 0e 3c 8a 8e cb bc 73 19 54 bc 34 7f 59 bc
       0.008717314 -0.024848241 -0.012945521 -0.0132749565
000350 00 0e cd bb 8f f4 b7 bc 53 a7 77 bc c2 1e e3 bb
       -0.0062577724 -0.022455482 -0.015115577 -0.006931157
000360 2a dc ca 3b 80 6e b3 bb 07 56 ea bc ff 17 c0 bb
       0.0061907964 -0.005475819 -0.028605474 -0.0058622356
000370 61 14 af bc ad 61 43 3c 12 ff 26 bc e6 fd 9d bc
       -0.021372022 0.011925143 -0.010192649 -0.019286107
000380 ba 7e 5f bc 01 12 80 bc 24 11 dd bc 44 23 d7 39
       -0.013641054 -0.015633585 -0.026985712 0.0004103427
000390 98 9d 0d 3c 51 8d 96 3c 43 eb fb bb 0c e6 6d bb
       0.00864353 0.018377932 -0.0076879575 -0.0036300449
0003a0 cf c3 4e bc 01 65 94 bc ae f3 8d bb d9 e4 b3 3a
       -0.012619927 -0.018114569 -0.0043320274 0.0013724818
0003b0 cc 6c d9 bc 58 03 fd ba dc f9 3e 3c d7 68 f8 bb
       -0.026541136 -0.0019303365 0.011656251 -0.0075808573
0003c0 1e 79 42 ba 34 be 03 bd 72 de 71 bb 5d 5c bd bc
       -0.00074185606 -0.032163814 -0.003690627 -0.023115331
0003d0 98 4a 81 bc 24 db 3e 3b 34 19 7c bc 63 19 c3 bb
       -0.01578264 0.0029122317 -0.015386868 -0.005953954
0003e0 37 9c b5 bb a9 20 89 3c f6 75 21 bc 35 86 d9 bc
       -0.005542304 0.016739206 -0.009854784 -0.026553253
0003f0 b7 7c e6 3a 9a cb c3 bc cf 34 f4 bc fa e3 95 3c
       0.0017584775 -0.023900796 -0.029810337 0.018297184

network_body._body_endoder.seq_layers.2.weight f4 [256, 256]
000000 5a 3f 7a 3d f6 62 81 bd 72 eb 15 3c f1 6a f2 bc
       0.061095573 -0.063177034 0.009150373 -0.02959201
000010 de c0 b5 bc e4 9b 47 bd 4f 35 30 bd 7f 7e b5 bc
       -0.022186693 -0.048732653 -0.04301959 -0.022155045
000020 fc c3 8a 3d da 00 2a 3d ac 2e 1b 3d e6 5d 05 3e
       0.06775662 0.04150472 0.037886307 0.130241
000030 23 cc 9e bd a8 7e 9a 3d d7 f2 87 bd 7b 7c ff 3c
       -0.0775378 0.07543689 -0.06638115 0.031187287
000040 b5 4b 93 bd f5 18 18 bd 8d 30 c3 bd b3 34 9b 3c
       -0.07192174 -0.037133176 -0.09530745 0.018946027
000050 3b a1 1c 3d a8 4d 8b 3d 4a 54 8d bd b0 e8 95 bc
       0.0382397 0.06801921 -0.069008425 -0.01829943
000060 ef cc c9 3c 3e 15 f5 3c 79 67 3f 3b 81 c9 98 3c
       0.024633853 0.029917356 0.0029205962 0.018650772
000070 a0 cb 91 bd e4 69 63 bd 2c 8c d6 3b 0d 4c 46 3d
       -0.071189165 -0.055520907 0.0065474715 0.04841237
000080 fc 9a 0d 3c 81 d0 80 bd 0d 64 01 3d 0a 49 ba bc
       0.008642908 -0.06289769 0.031589556 -0.022739906
000090 4a ff e1 3c 15 ae 86 3d cb c5 d1 bd 97 64 28 bd
       0.027587552 0.06576172 -0.10242804 -0.041111555
0000a0 6d ee 43 3d cf a2 d2 3d 49 d7 6f bd 51 81 9f bc
       0.047834802 0.102849595 -0.05855492 -0.019470843
0000b0 a6 5e 2d 3c 2e cd 07 bd dd 8e 97 3d 85 d1 17 bd
       0.010581648 -0.03315466 0.07400296 -0.037065048
0000c0 82 19 77 bb bf 57 c8 3d d6 50 94 bd 69 61 03 3d
       -0.0037704413 0.09782361 -0.07241981 0.03207532
0000d0 46 53 3d 3d 68 eb 91 3c 58 d9 50 bd 06 f3 a6 bd
       0.046221994 0.017812446 -0.050988525 -0.08151822
0000e0 3b 2b 8d 3d d1 cc 77 bd b2 04 f1 bc 9a 52 be 3c
       0.06893011 -0.060498063 -0.029421184 0.023232747
0000f0 ec 11 7d bd 4e 68 53 3c 8f 3e 3e bc 18 80 93 3d
       -0.06178467 0.012903286 -0.011611595 0.07202166
000100 82 d1 40 3b a0 12 5c 3c 16 31 0b 3d e0 11 16 3e
       0.0029421751 0.013432175 0.03398236 0.14655256
000110 58 ba ec bc e7 d0 d9 3d 84 fa 91 bd d7 30 30 bd
       -0.02889745 0.10635548 -0.0712786 -0.043015327
000120 ea a8 00 be 9d 19 ab 3d 57 88 0d bd a3 65 6d bd
       -0.12564436 0.08354495 -0.034553852 -0.057958256
000130 34 6f 02 bc c5 b8 fe bc 4b 50 8e bd 95 cb a4 bc
       -0.007961083 -0.031093964 -0.069489084 -0.020116607
000140 2a ea 62 bd 1f 21 90 3a 39 58 67 bd c4 d9 cc bb
       -0.055399098 0.0010996199 -0.05648062 -0.0062515456
000150 71 1a 3d 3c c1 f4 ea bb d4 2b 6d 3c 6c ae 9f bc
       0.011541949 -0.00717029 0.0144757815 -0.01949235
000160 0f c5 80 bd e3 c7 91 bc f3 52 94 bd f2 de 86 bb
       -0.06287586 -0.017795509 -0.07242384 -0.0041159326
000170 69 fe f7 bc d8 db 54 bd 72 01 05 3c 00 d9 2b 3d
       -0.03027268 -0.05196747 0.00811802 0.041954994
000180 82 d9 3a bc 1f 59 88 38 57 b4 94 3c 03 23 97 bd
       -0.011404397 6.5015854e-05 0.018152399 -0.07379725
000190 fc 92 4d bd ba a8 87 bd 6b a3 9e 3d 22 89 fc 3b
       -0.050189003 -0.06623979 0.07746013 0.007706777
0001a0 65 e7 fe 3a a4 f7 b8 3a 3d 61 97 3c cc f7 36 3c
       0.0019447623 0.0014111889 0.018478984 0.011167478
0001b0 f8 9d 81 3d 28 04 02 be c4 c3 0b bd 29 de 1b bd
       0.06328958 -0.12696898 -0.034122244 -0.038053665
0001c0 09 b9 7b bd 3c 19 09 3e 62 1c 0a 3d a9 23 81 bc
       -0.06145576 0.13388532 0.033718474 -0.015764074
0001d0 60 11 bd bd 47 8d 6a 3d b1 1c 5e 3d 13 92 74 bd
       -0.0923183 0.05726364 0.05422658 -0.05970962
0001e0 70 66 98 bc e7 39 6e 3c 48 5d 36 3d e7 fc f4 bc
       -0.018603534 0.014540172 0.044522554 -0.02990575
0001f0 2a 40 1b bd 37 98 12 bd f1 d8 b0 bc a8 b4 80 3d
       -0.03790299 -0.035789695 -0.02158782 0.062844574
000200 fc 07 0c 3d 8c 9f f8 3c ef 8f f5 3c 53 78 05 bd
       0.034187302 0.030349515 0.02997586 -0.032585453
000210 7e 2f f6 3d 67 95 a3 3d 22 6f 5f 3d 11 c2 f2 bc
       0.12020777 0.079874806 0.054549344 -0.029633554
000220 ef 51 ad 3d c8 38 ec 3c 72 3e 3e bd 1d 91 75 3b
       0.08462893 0.02883567 -0.04644627 0.0037470527
000230 16 49 66 3d f6 2d 85 3d 3a 52 ca 3d 38 93 22 3e
       0.056222044 0.06502907 0.09878965 0.15876472
000240 88 db e6 bb 51 c2 ea 3c 8e 20 81 bd 9b 19 d7 bc
       -0.007045213 0.02865711 -0.063050374 -0.026257327
000250 a1 48 0a bd 23 dc 76 bc 1c 73 3a 3a f2 9f 5f 3c
       -0.03376067 -0.015067133 0.00071124895 0.013648974
000260 87 1e a5 3c de 65 8d bd 18 a7 02 3c d8 e3 32 be
       0.020156158 -0.06904195 0.007974409 -0.17469728
000270 92 ca 60 bd 2a 1c 51 bd c7 5c dd 3d da 7b 5d 3d
       -0.054880686 -0.05105225 0.108087115 0.054073192
000280 da 8c 97 3d 9d c2 db 3d 76 d4 6d 3b e0 27 dd bd
       0.07399912 0.10730479 0.0036289967 -0.10798621
000290 61 cb 0a 3e 65 f8 44 bd 08 ab 53 bd 53 fe 97 bd
       0.13554145 -0.04808845 -0.05167678 -0.07421555
0002a0 36 d9 46 3d 5a c8 b9 bd cf 5f a7 bd 1c af bb bc
       0.048546992 -0.09071417 -0.08172571 -0.022910647
0002b0 b5 53 b6 3d 76 09 88 bd 6c 6d 96 bd 37 a9 52 bd
       0.089026846 -0.066424295 -0.07345089 -0.051430907
0002c0 45 d3 e4 bc 3f e0 c4 3d f7 63 4e 3c 01 d3 0b 3d
       -0.027932772 0.09613084 0.012597076 0.034136776
0002d0 07 86 c5 3d a0 00 1d 3d 75 51 14 bd 05 d4 7f bd
       0.09644704 0.038330674 -0.036210496 -0.062458057
0002e0 16 c2 80 bc ed 9a f1 ba 89 bf 16 3e d5 cb 44 bd
       -0.015717547 -0.0018433012 0.14721502 -0.048045952
0002f0 c5 ed 8c bd 02 5e 5b bd 98 ab a2 bb 8f 96 59 bd
       -0.068812884 -0.05355645 -0.004964303 -0.0531221
000300 b2 1d ea bb 75 3d 41 bc f3 02 39 bc 64 5b 8c bc
       -0.0071446532 -0.011794438 -0.011292207 -0.017133422
000310 ba eb 28 3d ea 87 94 3d a3 be 8b bd 0f 82 0d bd
       0.04124043 0.07252486 -0.068234704 -0.03454786
000320 5d e7 10 bd 16 19 bc 3c 68 e4 b0 bd 0d 6c 29 bd
       -0.035376895 0.02296118 -0.08637315 -0.04136281
000330 18 48 e1 bc 8d 53 e4 bc 41 bc 3a 3d 2c d8 ce bc
       -0.027500197 -0.027871871 0.04558969 -0.025249563
000340 7c eb 7b bc 25 75 a5 bd 83 8b 9a bd 5b 08 d6 3d
       -0.015375968 -0.08078984 -0.07546141 0.104508124
000350 62 93 05 bd b2 3b 3e 3d 47 72 09 3d d7 03 c3 bd
       -0.03261126 0.04644365 0.03355625 -0.09522217
000360 94 cc 14 bd 43 3e dd bb e8 00 0c bd 35 e8 0a bd
       -0.036327913 -0.006751807 -0.03418055 -0.033912856
000370 bd 74 c5 3b 67 72 b6 bd 34 09 74 bb 26 ef ea bd
       0.006025879 -0.08908539 -0.003723693 -0.11471395
000380 11 66 1c bd 16 03 fd bd b1 2f e2 ba 2e 3d 9a bd
       -0.038183276 -0.12354104 -0.0017256645 -0.075312
000390 02 47 03 3d 0d 6f 91 3c b9 53 de bd 4b 62 69 bd
       0.03205014 0.017753148 -0.108558126 -0.056978505
0003a0 fa c2 d6 bd 9d 78 70 3d e6 6b cd 3d 3e b3 f0 bc
       -0.104864076 0.058708776 0.100303456 -0.029382344
0003b0 86 da df 3c 1e a1 3c bd 52 48 72 bc 9f 57 87 3c
       0.02732588 -0.04605209 -0.01478775 0.016521273
0003c0 3a 2c 43 3d 86 5d 8e 3c 70 bd 07 3d b6 9a ec 3c
       0.0476496 0.01737858 0.033139646 0.028882366
0003d0 2b 8e 4b bc e9 50 1f bd 7a 22 4a bd 46 9d bb bb
       -0.012424032 -0.03889552 -0.049349286 -0.0057255356
0003e0 a1 52 f8 bc cd 4b 18 3c 5b a4 7c bc 16 57 85 bc
       -0.030312838 0.009295416 -0.015420045 -0.016276877
0003f0 07 30 a9 bc cc 32 17 3c 0c 2b 93 3c c2 67 5c 3d
       -0.020652784 0.0092284195 0.017964862 0.05380989

network_body._body_endoder.seq_layers.2.bias f4 [256]
000000 cf 8c 1d bc 5f 87 22 bc 9f ea 89 3b 76 29 ac bc
       -0.009616091 -0.00991997 0.004208877 -0.021015864
000010 60 8b 99 bb f5 ae 96 bc 83 11 0b 3b e7 63 0e bc
       -0.0046858042 -0.018393973 0.0021220155 -0.008690811
000020 9c 46 a9 bb ab e6 4e bc 57 6f 61 bc e2 85 a6 bc
       -0.005165888 -0.012628238 -0.013759456 -0.020327512
000030 29 72 a1 bc c7 a5 80 bc 34 1d aa bc 32 bf 95 bc
       -0.019707756 -0.015704049 -0.020765878 -0.018279646
000040 c4 12 0c bc 0a 3e 4d bc 44 d7 1a bc 87 8d a1 bc
       -0.008549396 -0.012526998 -0.009450737 -0.019720806
000050 00 5a f0 3a f1 76 99 bc e1 ee 93 bc c6 69 b8 bc
       0.0018337369 -0.018733473 -0.018058242 -0.022511374
000060 76 73 84 bb c0 c8 a5 bc 7d d0 62 bb b7 97 99 bc
       -0.0040420843 -0.020237327 -0.0034609132 -0.018749101
000070 5f 28 ff bb 44 92 2e bb 88 02 8b bc 57 d6 47 bb
       -0.007786795 -0.0026637474 -0.01696898 -0.0030492747
000080 eb 84 bb b8 bf 62 46 bc 78 9d 8b bc d4 41 11 bb
       -8.941613e-05 -0.012108504 -0.01704286 -0.002216448
000090 ff e2 9d bc bc 76 7a bc 42 94 97 39 df bc ef 39
       -0.01927328 -0.015287098 0.00028911425 0.00045726352
0000a0 40 5c b6 bc 54 2b 69 3c 4d 51 b4 3a 07 f1 9e bc
       -0.022260785 0.014231522 0.001375714 -0.01940204
0000b0 7e dc 9c bc 11 d7 b0 3b dd 89 00 3b 57 97 12 bc
       -0.019148108 0.0053967317 0.0019613423 -0.008947215
0000c0 29 96 8a bc d9 62 08 bd 0a 7f 60 3c 86 62 41 bc
       -0.016917305 -0.033297393 0.0137021635 -0.011803275
0000d0 33 a1 79 bb 07 91 10 bc 6a cc 07 bc d0 b5 8f bc
       -0.0038090467 -0.00882364 -0.008288482 -0.01754275
0000e0 b3 de cb bc 63 a7 8b bc da b8 c7 bc f6 ba 70 bc
       -0.024886465 -0.01704759 -0.024380136 -0.014693012
0000f0 1d b7 4c ba 44 0b 37 3b 5a f2 01 3c b1 e2 c6 bc
       -0.00078092684 0.0027930299 0.007931316 -0.024278017
000100 4c b3 2b bc 24 f5 24 bc ff bb 5a b9 cd a6 b6 bb
       -0.010479759 -0.010068212 -0.00020860134 -0.0055740834
000110 fe fc bd bc e7 9d f3 bb c6 75 18 bc a6 e1 06 3c
       -0.023191925 -0.007434595 -0.009305423 0.00823251
000120 37 41 bc bc 32 ac 97 bc 0c 1b 70 bc d5 7e 2f 3b
       -0.022980316 -0.018514726 -0.014654886 0.0026778479
000130 c3 2d 26 3c 61 96 57 ba d2 75 cf bc 39 94 7f bc
       0.010142746 -0.00082240073 -0.025324736 -0.015599304
000140 67 3d 6f bb ab 3a 09 bc 91 f0 54 bc 08 e0 61 bc
       -0.0036505105 -0.008375804 -0.012996809 -0.013786323
000150 ad 1b 84 bc 31 52 68 bc 53 fe 2a bc 8b 0f 43 bc
       -0.016126478 -0.014179752 -0.010436612 -0.011905561
000160 ba cb 85 bc 41 6d 85 bc d2 19 4e bb 9d 88 3c bb
       -0.016332496 -0.016287448 -0.0031448496 -0.0028767951
000170 69 c6 bb bb d9 ac 68 bc 4d 7f 03 bc d1 34 7e bc
       -0.0057304394 -0.014201366 -0.008025956 -0.015515522
000180 22 9a dc bc 49 9b 10 bc ab 86 d2 bb f6 c7 2a bc
       -0.026928965 -0.008826085 -0.006424745 -0.010423651
000190 5a 96 de bb 4a b9 be bc dd d0 5b bc 44 58 af bc
       -0.0067928256 -0.023281712 -0.013416496 -0.021404393
0001a0 91 f6 b4 bc 12 d6 89 bc 47 83 d8 3b 54 00 66 bb
       -0.022090228 -0.01682571 0.0066074464 -0.003509541
0001b0 a9 d6 66 bc 4b b3 c6 bc 13 49 df 3b ac 7c 81 bc
       -0.014089265 -0.024255415 0.006814131 -0.015806518
0001c0 72 df 93 3b 43 e5 cd bc ae ea 4e bc e1 70 4f bc
       0.0045127207 -0.025133735 -0.012629194 -0.01266119
0001d0 6a d1 c4 bb f4 37 89 3b 4b 2b 0f 39 96 05 42 bb
       -0.0060064094 0.0041875783 0.0001365367 -0.002960538
0001e0 9c ee bb bb ab 7b b0 bb bc 2a 83 bc 95 fc b1 3b
       -0.0057352316 -0.005385836 -0.016011588 0.0054317215
0001f0 48 d0 a2 ba 99 03 76 bb e1 61 04 bc 20 7b 0e bc
       -0.0012421692 -0.0037538765 -0.008079977 -0.0086963475
000200 33 2c 6d 3a 88 dd 17 bc 79 d8 d4 bc a6 02 b0 3b
       0.0009047419 -0.009269126 -0.025982128 0.0053714095
000210 2d 19 c1 bc 74 2d f7 bb 98 2a 3f ba c5 bc 17 3c
       -0.023571575 -0.00754326 -0.0007292419 0.009261315
000220 89 55 d8 bc 9c 94 66 bc c8 7c 14 3b 44 03 13 bb
       -0.026407974 -0.014073517 0.0022657383 -0.0022432366
000230 99 6a db bc e6 a7 3a 3c 29 c6 b8 bc 69 1c 44 3c
       -0.026784228 0.011392569 -0.022555428 0.011969664
000240 1b e4 c3 bc 45 0b 8d bc 3d 80 14 3c 24 c1 b4 bc
       -0.02391248 -0.017217288 0.0090637775 -0.022064753
000250 41 8b 7b bc 51 55 08 bc ba a3 cd bc be 3f 72 b8
       -0.015353025 -0.008321122 -0.025102485 -5.775666e-05
000260 be b0 c5 3b d3 24 b1 bc 4f cb 66 bb 71 39 88 3b
       0.006033032 -0.021624004 -0.0035216396 0.004157238
000270 ba 46 b8 bc 91 62 ac bc d1 4b 14 bc 8f 67 47 bc
       -0.022494663 -0.021043094 -0.009051279 -0.012170686
000280 bc a9 3f bc 2e 07 56 bc c2 72 9f bc 96 34 97 bc
       -0.011698183 -0.013063235 -0.0194639 -0.018457692
000290 1a 6b df bb 62 e6 62 3a 5d 00 9d bc 6f d2 03 3c
       -0.0068181874 0.00086555455 -0.019165212 0.008045777
0002a0 1b a7 a7 3a 07 51 8f b9 72 93 1b 3c 5b 73 12 bc
       0.001279089 -0.00027335456 0.009495603 -0.008938636
0002b0 69 5a 84 bc 37 8a 2f 3a 2b 5e 91 3b 5b dd 63 bc
       -0.016156392 0.0006696316 0.0044362745 -0.013907756
0002c0 ba 18 81 bc 4f 28 54 bc 4b 22 b0 3b e5 79 19 bc
       -0.01575886 -0.012949063 0.005375182 -0.009367441
0002d0 e3 d2 9c bb 81 ec 78 bc 82 2c b3 3a fc 55 a4 b8
       -0.004785882 -0.015193106 0.001366988 -7.836145e-05
0002e0 3e 4f 9d bb 28 32 55 bb 48 f5 33 bc 1e 7a 03 bc
       -0.004800706 -0.0032531116 -0.010983773 -0.0080247205
0002f0 20 28 a8 bc e5 27 d5 3b 78 df 6f 3a 80 c3 56 3b
       -0.020526946 0.006505 0.0009150426 0.0032770336
000300 9a c4 25 bc 38 2d 3e bc 53 a6 a1 bc 1e 0d b6 39
       -0.010117674 -0.011607461 -0.01973263 0.00034723518
000310 14 24 f9 bc f6 60 d9 bc 61 36 d0 bc 09 15 04 bc
       -0.030412711 -0.026535492 -0.025416555 -0.008061656
000320 cd 7d a0 bc f5 51 85 bc 8d bf c3 bb d9 10 a9 bc
       -0.019591236 -0.016274432 -0.0059737624 -0.020637916
000330 5a 3a 77 3c 98 5b a9 bc e5 6f 85 bb 10 5e dc bc
       0.015089596 -0.020673558 -0.0040721768 -0.026900321
000340 f2 99 04 ba a1 c9 2e 3c 43 0d 0a 3c 75 8e 83 bc
       -0.000505834 0.010668189 0.008426013 -0.01605914
000350 ef fb 57 bc 81 c9 b8 bb fa 7e 8d bc f2 02 04 bc
       -0.013182624 -0.0056392555 -0.017272461 -0.008057343
000360 56 9f cb 3a 9b b7 bb bc 23 ca 3e 3c d1 a1 3e bc
       0.0015535157 -0.022914698 0.011644873 -0.01163526
000370 1d e6 b5 3a 25 1d ab bc 9e bf 5b 3a 6b e6 13 b9
       0.0013877783 -0.02088792 0.000838274 -0.0001410485
000380 80 23 73 bc af c2 94 bc ce 5f f9 bb 9a 10 3c bc
       -0.014840007 -0.018159239 -0.0076102978 -0.0114785675
000390 4c b5 e6 bb 20 5c fb bb 14 33 bd ba 1c 19 82 bc
       -0.0070406552 -0.0076708943 -0.0014434778 -0.015881114
0003a0 c5 70 0c bc 17 e6 e2 3b 0e 19 87 3c 05 c2 5c bb
       -0.008571808 0.0069244015 0.01649144 -0.003368498
0003b0 a0 23 a9 bc 66 10 99 bc ba 64 35 bc f0 01 9a bb
       -0.02064687 -0.018684577 -0.011071378 -0.004699938
0003c0 9f a9 68 bb d2 32 49 3b dd fc f5 bc 1f ba 2d 39
       -0.0035501493 0.0030700457 -0.030027801 0.00016567901
0003d0 5c 58 da 3a fc fe 93 bc 21 d2 60 bb 2e af 34 bc
       0.0016658413 -0.018065922 -0.0034304934 -0.011028094
0003e0 bc c7 00 bc 36 09 0a bc a6 5b d6 3b 58 19 0a bc
       -0.00786012 -0.008425048 0.006541687 -0.008428894
0003f0 e0 a4 2d bc 3d 0a 26 3c 1d 91 c3 bb 0c 17 da bc
       -0.010598391 0.010134277 -0.0059682266 -0.026622318

action_model._continuous_distribution.log_sigma f4 [1, 3]
000000 3b 25 c8 bc 04 11 e6 bc b6 f5 62 3c
       -0.024431815 -0.028084286 0.013852527

action_model._continuous_distribution.mu.weight f4 [3, 256]
000000 b8 89 03 bc d5 29 1a 3c 27 af cd bc 67 10 48 bc
       -0.00802844 0.009409388 -0.025107933 -0.012210942
000010 a7 14 dc bb f7 0b 33 3c 4c 47 d8 3b c9 bc 4d 3b
       -0.006716329 0.010928146 0.006600296 0.0031393042
000020 a8 2d d6 bb 9b 6a 6c 3a 4f 83 a7 b9 f4 b4 62 3c
       -0.0065362044 0.0009018571 -0.00031950555 0.013837088
000030 6b 03 99 bb 3c 15 96 3c bb e8 31 3b 6c a4 e0 3b
       -0.004669597 0.018320672 0.0027146775 0.006855538
000040 b2 0a 78 bc e8 2a 20 bc 8a f5 00 3b 04 26 ea bb
       -0.015139269 -0.009775855 0.0019677603 -0.007145645
000050 2c 71 03 3d 9f fa 28 3b 2b 16 34 bb 4a f0 2d 3c
       0.03209035 0.0025784147 -0.0027479033 0.010616371
000060 cd 22 00 bc 24 22 6b 3c 13 fb 0b bd b5 82 d0 3b
       -0.007820797 0.0143514015 -0.03417499 0.0063632377
000070 f4 09 71 3a 94 d3 84 bb 8e 32 c6 bb d1 6c dc bc
       0.00091949035 -0.0040535424 -0.006048507 -0.026907356
000080 b0 34 c6 3b 05 47 b6 bb 53 83 ab 3c e1 d6 ab bc
       0.0060487613 -0.0055626654 0.020936644 -0.020976486
000090 91 8c 11 bb d0 80 1c ba 80 d3 a5 3b f2 80 49 b9
       -0.0022209028 -0.00059701223 0.005060613 -0.0001921689
0000a0 18 bb 14 bc 56 0f d8 3c 7e 02 d6 3a d3 84 b4 bb
       -0.00907781 0.0263745 0.0016327647 -0.005508998
0000b0 60 dc 25 3b 68 3e e6 bb 35 76 c7 3c 2c 5b c4 3c
       0.0025308356 -0.0070264824 0.024348358 0.023969255
0000c0 29 79 88 bc 8d 2d b8 ba 28 c3 87 3a 04 69 43 3c
       -0.016659336 -0.0014051661 0.0010357844 0.011926893
0000d0 27 ae 84 bc dc ff b5 3c 64 e7 20 3c 98 79 72 3c
       -0.016196324 0.02221673 0.009820793 0.014799498
0000e0 6d cf 0b 3c e7 ce 9d 3c ab d4 bb bb 92 37 1d 3d
       0.008533341 0.019263698 -0.005732139 0.038383074
0000f0 e7 ee e9 3b 35 17 a4 3b e7 7a cb bb 0c 72 bb bc
       0.007139075 0.0050076493 -0.0062097195 -0.02288153
000100 b4 fc 05 bc 61 15 43 bc 04 08 20 bc 81 39 93 bc
       -0.008177925 -0.011906953 -0.009767536 -0.017971756
000110 c9 a9 aa 38 10 91 ac 3c 0b 41 a9 3a f4 4e aa bc
       8.137857e-05 0.021065265 0.0012913061 -0.0207896
000120 d3 57 82 bb 19 a7 91 3b 1c d8 ea 3c 2d 3e b9 3b
       -0.0039777546 0.0044449684 0.028667502 0.005653164
000130 b2 1e 80 bb 5e 77 0c bd 9e 94 61 3b 8b 32 eb 3a
       -0.003909909 -0.034293525 0.0034420858 0.001794414
000140 7a ee 91 3a c8 c9 e7 3c bc f3 c7 3b 99 1a 1d bb
       0.0011133694 0.028294459 0.0061020534 -0.0023972152
000150 51 e0 1b 3c 44 47 1c 3c 93 f5 33 bc 69 5a 88 3c
       0.00951393 0.009538475 -0.010983842 0.016644673
000160 0c d1 b3 3c b5 0f 5e bc d2 f0 b5 bc a1 74 6b 3c
       0.021950267 -0.01355355 -0.022209559 0.014371068
000170 33 9b 9a bc 19 43 04 3b 5e 11 3a 3c e3 b5 37 3c
       -0.018872833 0.0020181595 0.01135668 0.011212799
000180 2c c3 2d bc cb f4 ba 3b 7e f8 52 bc 2d f0 82 3c
       -0.010605615 0.005705451 -0.012876628 0.015983665
000190 8d 5a 4c 3b 77 53 60 3b 50 e8 0e bd 82 49 08 3a
       0.0031181902 0.0034229436 -0.03488952 0.0005198942
0001a0 a0 45 60 bc 46 f6 df 3b c4 00 e9 bb 06 6e f0 3c
       -0.013688475 0.006834778 -0.007110687 0.029349338
0001b0 b2 6e 3e bb 3d a2 26 bc c7 79 0c 3d 33 38 17 3c
       -0.0029057679 -0.010170517 0.034295823 0.0092297075
0001c0 04 50 bc 3a 05 4e 27 3c 53 21 11 bb 80 ef b9 3a
       0.0014367108 0.010211472 -0.0022145107 0.0014185756
0001d0 a3 dd 43 bc e3 df 16 3c ab 86 dc ba e5 57 eb 3b
       -0.011954698 0.009208652 -0.0016824802 0.0071821087
0001e0 97 ab 1d bc 6f 99 09 3c 05 75 53 bb a5 bd 81 3a
       -0.00962343 0.008398398 -0.0032265794 0.0009898437
0001f0 59 f2 62 ba cf 78 2e bc 91 6a c9 3a 1e ee b7 bb
       -0.00086573284 -0.01064892 0.0015366842 -0.0056131026
000200 8c 75 ee 3b 23 fb 37 3b b6 1c 3b bb e8 7a d4 3a
       0.0072771963 0.0028073273 -0.0028551049 0.0016210945
000210 e8 cd 39 bc 0c a2 dc 3c 43 70 61 3c e7 80 8e 3c
       -0.011340596 0.026932739 0.013759675 0.01739545
000220 f1 2c 35 bc 57 da 20 3c 1f f7 09 3d 4b a7 55 bc
       -0.011058078 0.009817681 0.03368294 -0.013040374
000230 2b 58 12 ba 72 35 76 3c 87 15 02 39 7d e0 73 ba
       -0.0005582596 0.015027391 0.00012405786 -0.0009303166
000240 8d 12 18 bc 79 37 03 bb 2c 40 22 3c 2c fb 88 3a
       -0.009281767 -0.0020022078 0.009902995 0.0010450832
000250 b9 31 27 3c 0a cd 15 3d 13 fa 51 bc 0d e5 1a 3b
       0.010204726 0.036572494 -0.01281597 0.002363506
000260 74 09 64 3b c6 5d 5c 3c 8f d6 a1 3b fb f8 57 bb
       0.0034795674 0.013450092 0.0049389075 -0.00329548
000270 3a 91 b6 bb 5d 5b ea ba a2 70 8a 3c c2 c4 31 bc
       -0.0055715116 -0.0017880012 0.01689941 -0.010850133
000280 0d e2 07 3b a8 7a 39 bc 3e b0 9d b9 04 68 ce bb
       0.0020734102 -0.011320747 -0.00030076684 -0.0062990207
000290 25 64 2a bc ae 64 84 bc eb cc 14 bc dc 82 27 bb
       -0.010399853 -0.016161289 -0.009082059 -0.0025560176
0002a0 eb 50 36 3b fa ad d8 3b b9 36 b8 3c 79 d3 82 bc
       0.0027819227 0.0066125365 0.022487031 -0.015969979
0002b0 1b fc 0d 3c ae b4 63 3a 36 a6 f4 3b b6 56 ae bb
       0.008666064 0.0008686286 0.007466103 -0.0053203953
0002c0 9e 3b 38 3c a7 17 52 bc a0 48 7d bc df e9 9d bc
       0.011244683 -0.012823022 -0.01545921 -0.019276557
0002d0 6c 21 89 3c aa 9b c6 3b 69 5c 21 bd 80 2a d6 3c
       0.01673957 0.006061037 -0.03939477 0.026143312
0002e0 a9 74 fb bb 74 24 d5 3c d8 8e 11 3c 41 53 c4 3a
       -0.007673819 0.026018359 0.008884154 0.0014978425
0002f0 f1 15 9b bc 44 8f 10 bc e7 e2 9a bc 1e 11 6f bc
       -0.01893136 -0.00882322 -0.018907024 -0.014591483
000300 f2 5c f0 b9 6a 5e 1c 3d 16 89 b9 bb fd 91 94 bb
       -0.00045845617 0.038175978 -0.005662094 -0.0045340047
000310 48 b9 23 3b aa 34 7e 3c 15 cb 22 bc ae 1a d8 bc
       0.0024982262 0.015515486 -0.009936114 -0.02637991
000320 91 38 f1 bb 0e 96 cd 3c fa 5b ac bb 68 5b 82 ba
       -0.0073614796 0.025095966 -0.005259988 -0.0009945454
000330 27 c3 05 bc 85 b4 c9 3b 64 66 07 3c d7 c8 54 3b
       -0.008164204 0.006155553 0.008264158 0.0032468343
000340 93 e9 25 3c 4e d1 81 bc 7b 36 8c 3a 59 0e 83 3c
       0.010126489 -0.015846875 0.0010697389 0.015998052
000350 de bf 41 3b 1a fd 9e 3c 37 39 b3 bb 5e 39 14 3c
       0.0029563825 0.019407798 -0.005469467 0.0090468805
000360 e2 3d 5f 3c 94 be 45 3c 3b d2 0f bc 64 80 63 bb
       0.013625594 0.012069363 -0.00877815 -0.0034713978
000370 e0 a2 a4 bc b2 ae 54 b9 e4 d8 67 bc c1 2b ab bc
       -0.020097196 -0.00020282975 -0.014150832 -0.020894887
000380 21 5e 95 3b 5d 59 b6 3c 7e 26 92 3c 30 7d bd 3c
       0.00455834 0.022259409 0.01784062 0.023130983
000390 7d 54 c8 3a 11 9f 78 3c 36 11 b5 bc 43 77 95 3c
       0.0015283969 0.015174643 -0.022102933 0.018245345
0003a0 1e 4d 52 3a 34 12 d4 ba 7e ec 38 bb 41 b2 7b 3b
       0.00080223556 -0.0016179741 -0.0028217132 0.0038405808
0003b0 9c 3a 58 bc 3b 15 cd bb 69 35 a9 3c 25 94 2a 3b
       -0.013197567 -0.0062586344 0.02065535 0.0026028242
0003c0 81 a6 a0 3c 65 cd c5 b9 d7 af 2c 3c 02 b0 28 3d
       0.019610645 -0.000377278 0.01053997 0.04118348
0003d0 c5 0f d5 3b ae ec 30 3c 75 54 f9 39 6d 57 08 bc
       0.006502124 0.010798616 0.00047555906 -0.008321625
0003e0 36 e2 f2 39 7a f7 1b 3c f9 e8 0d bc d7 5d 24 3c
       0.00046326377 0.009519452 -0.008661502 0.010032139
0003f0 a3 2f 3e bc df 69 cb 3c 24 79 a6 bb 17 04 97 3b
       -0.011608037 0.024830757 -0.005080359 0.004608642

action_model._continuous_distribution.mu.bias f4 [3]
000000 ba 62 1c bb f1 4f 85 3c 16 96 06 3c
       -0.0023862557 0.01627347 0.008214494

action_model._discrete_distribution.branches.0.weight f4 [1, 256]
000000 e5 4f 5a 3b 4f 07 e0 ba 57 46 98 3b 40 c5 ef 3b
       0.003331178 -0.0017092022 0.004647057 0.007317215
000010 98 6e e3 ba 15 0f 69 ba 29 1c bc bb 6a 8c 2c bc
       -0.0017351685 -0.0008890492 -0.0057406616 -0.010531524
000020 cf 43 df 3a 43 bb 09 bc 1a 76 99 3b ee 43 ae bb
       0.0017033758 -0.008406463 0.0046832683 -0.0053181564
000030 2f 1e 3c 3b bc 1a 16 3c 70 88 8a 3b 12 f1 d1 3b
       0.0028704514 0.009161647 0.0042276904 0.0064069116
000040 8e 0e 81 bb e0 ee 9b ba f5 96 9d bb 45 a1 13 bc
       -0.0039385026 -0.0011896752 -0.0048092552 -0.009010618
000050 00 db 62 bb f1 09 af 39 b1 64 2c bc 59 87 0b bb
       -0.0034615397 0.00033386008 -0.010522054 -0.002129039
000060 eb fa 00 3c 0c 1c 40 3c 1c f1 b5 3b 26 74 31 bb
       0.0078723235 0.011725437 0.005552424 -0.0027077287
000070 cc a3 35 3b e3 ee c0 bb 78 b9 59 3b 6a 2b 5d bc
       0.0027716039 -0.0058878525 0.003322212 -0.01349912
000080 f9 15 0f 3b e3 c5 90 3b 7c f7 3c 3b eb 93 2e bb
       0.0021833165 0.004418121 0.0028834036 -0.002663846
000090 43 7f f5 ba d8 19 75 3b 23 dc 63 bb 62 28 f8 ba
       -0.0018729944 0.0037399437 -0.0034768663 -0.0018932933
0000a0 fc cf 1d 38 c0 5b 9f bb 04 ae 2d bc 83 3a 33 bb
       3.7625417e-05 -0.0048632324 -0.010600571 -0.0027348108
0000b0 9b 67 07 bc 5d 71 97 3b ae 4e 2b 3c 7e 70 44 3c
       -0.008264448 0.0046216683 0.01045577 0.011989711
0000c0 ff 48 4c 3b 69 18 10 3c ed 6c f3 bb 1d 1a c9 ba
       0.0031171439 0.008794882 -0.0074287564 -0.0015342865
0000d0 0d c9 97 3b 2b f3 b7 3b 53 53 12 bb 62 ac bc 3b
       0.0046321214 0.0056137047 -0.0022327497 0.0057578543
0000e0 e1 30 12 bc 40 9a 67 3b 2f 41 a0 3b 6d cc 86 ba
       -0.008922786 0.0035339743 0.004890583 -0.0010284312
0000f0 20 58 53 bc ba 7a e7 3b 88 c2 1c 3a 7d ef 99 ba
       -0.012899429 0.0070641907 0.0005979915 -0.0011744347
000100 aa ed e8 3b fd e0 dd 39 b4 bc 04 3a 33 71 b2 bc
       0.00710841 0.00042320034 0.00050635193 -0.021782493
000110 5f 50 bc 3b db 5a 08 bb ed fe bb bb 87 4c 1b 3c
       0.0057468857 -0.0020806107 -0.0057371766 0.009478695
000120 97 55 87 bb bf 34 04 3b db d7 86 bb c6 97 30 3c
       -0.004130076 0.002017304 -0.0041150874 0.010778373
000130 5b 6d 67 3c 65 56 c8 3b 4e 4b 29 bb 22 b1 89 3b
       0.0141251935 0.0061138147 -0.0025832239 0.004202024
000140 05 a2 70 bb 16 6b 01 3c 1d 67 a5 3a 0a 26 e0 3b
       -0.0036717665 0.007899066 0.0012619231 0.006840472
000150 4a 86 4e 3b 38 ab e8 3b 35 96 7b 3c 9f 08 4b 3b
       0.0031513148 0.007100489 0.015355636 0.003098048
000160 2d 07 6c bb c5 7f c7 bb de 3b 25 ba f7 88 10 3c
       -0.003601502 -0.0060882294 -0.00063031714 0.008821717
000170 cd 63 0e bb 86 6c 9b 39 6f ee 00 bb c6 42 14 ba
       -0.0021726966 0.0002964476 -0.0019673367 -0.0005655702
000180 db 7b 30 bb 83 92 a0 bb fb e6 db 3a a0 fb 2c bb
       -0.0026929292 -0.004900278 0.0016777212 -0.0026395097
000190 cb d5 a7 3b c0 58 d3 3a 2b d8 53 3b dd 39 90 3b
       0.0051219217 0.0016124472 0.003232489 0.004401429
0001a0 1c 1b 95 3c 5d 82 8b ba 8e 46 8a ba 83 58 fd 3b
       0.018201403 -0.001064371 -0.0010549591 0.0077314987
0001b0 a7 96 de ba f3 84 20 bb 0a b5 85 3a 33 5d 4f 3c
       -0.0016982154 -0.0024493306 0.0010201049 0.012656498
0001c0 77 4d 97 ba cf 7c 80 3b dc 96 2c 3b 2f 83 99 b9
       -0.0011543472 0.0039211283 0.0026335036 -0.00029280173
0001d0 c0 89 ce 3b 97 86 9b 3a fa 0f d7 ba 25 f9 ec b9
       0.006303042 0.0011865672 -0.001640796 -0.00045199055
0001e0 b3 40 28 ba 6d 33 90 3b 96 d1 b1 bb 35 b7 7f 3a
       -0.00064183323 0.0044006617 -0.005426596 0.0009754778
0001f0 d8 fa 0a 3b c2 c9 e4 bb 7f 0b 80 ba 74 ff ad 3b
       0.0021206643 -0.006982059 -0.0009769051 0.0053099934
000200 a2 0f 63 3c 7f 92 31 bb e8 ca 96 bb 09 37 06 3c
       0.013858708 -0.0027095375 -0.004601825 0.008191832
000210 05 05 b6 bb de c4 07 bb 97 ac 5d 3b 73 c6 3c 3c
       -0.0055547976 -0.0020716707 0.0033824795 0.011521923
000220 03 57 5b bb 25 c7 b0 ba db 87 9b bb 6b 55 d8 b9
       -0.003346861 -0.0013487084 -0.00474642 -0.00041262372
000230 19 b8 28 bb 69 ed 3e bc 6b 9d 36 bb 02 67 5c 3b
       -0.0025744496 -0.011653283 -0.0027864825 0.0033630733
000240 cc 16 04 ba af 5e a8 b8 01 eb 42 3c 8f 03 1a bb
       -0.00050387974 -8.0285005e-05 0.01189685 -0.0023500656
000250 e7 7e 06 38 88 15 77 3b 9f 7c 39 bb c8 75 76 bb
       3.2066277e-05 0.0037702043 -0.002830304 -0.0037606824
000260 d8 e7 06 3b fb 3e 2f 3c 5d 4c 6d ba d3 10 1d 3c
       0.0020584967 0.010696168 -0.00090522115 0.009586531
000270 4e 4a c7 bb f8 3b ee 38 35 14 ff 3a d3 45 d2 bb
       -0.006081856 0.000113598944 0.0019460978 -0.006417015
000280 9f bd ba 3a 4e 51 1c bb 85 ed a1 bb 66 bd 3e bc
       0.0014247185 -0.0023852172 -0.0049416446 -0.011641836
000290 a1 06 85 3b 40 53 1d 3b 4c 09 99 bb 6f 02 91 3b
       0.004059628 0.002400592 -0.0046702977 0.004425339
0002a0 50 98 8d 3a cb b9 ec bb 4f 0c 23 bc b1 f4 97 bb
       0.0010802839 -0.0072242967 -0.009951665 -0.004637324
0002b0 93 43 da 3b 6c 07 39 bc 78 33 06 bb df a2 87 bb
       0.0066608875 -0.011293273 -0.0020477455 -0.004139289
0002c0 6d 55 67 3a 75 e6 e3 3b fc 4c aa 3a d7 0b 26 bc
       0.000882468 0.006954963 0.0012992914 -0.010134659
0002d0 bf 54 be 3b 4c 14 1a bc 83 89 63 3b b3 7f 90 b9
       0.0058084424 -0.009404253 0.0034719415 -0.00027560964
0002e0 a3 1b 0c bc 10 3f 53 3b 33 05 91 bb d2 4f 79 3c
       -0.008551511 0.0032233633 -0.0044256686 0.015216785
0002f0 e8 36 9d bb 0b 80 e9 ba 27 c6 df 3b 88 bf 26 39
       -0.004797805 -0.0017814649 0.0068290415 0.00015902345
000300 db aa e8 3b 6d 67 f5 3a c5 97 4c 3b b4 61 1f 3c
       0.0071004457 0.001872284 0.0031218391 0.009727884
000310 33 70 13 bc 0a fc 69 3b 16 e1 08 3c 73 0d 0b 3c
       -0.008998918 0.0035703206 0.008354446 0.008487093
000320 aa bf 4d ba 8b fb c0 3b 39 8e c0 3b 9f 90 96 3b
       -0.00078486896 0.0058893613 0.0058763293 0.004594877
000330 5b 8a 3f bb 83 38 3c b9 dd 2d 53 3b e2 ed c2 bb
       -0.0029226753 -0.0001795013 0.0032223382 -0.005948768
000340 9d 77 4e 3a 48 06 16 3b 90 cc cf 3b aa 66 88 3a
       0.00078761 0.0022891928 0.0063415244 0.0010406573
000350 b2 20 e7 bb dc e0 81 ba e7 8b a2 bb 50 0f 10 3c
       -0.007053458 -0.0009908932 -0.0049605253 0.008792713
000360 ba cb d3 bb ab da 61 38 bd c5 01 b9 85 08 6d b9
       -0.006463495 5.384783e-05 -0.00012376062 -0.00022605255
000370 30 bd d4 3b b3 96 b2 b9 41 da 91 ba fb 09 ec 3b
       0.0064922795 -0.00034063085 -0.0011127667 0.007203338
000380 15 68 26 3c 70 9d 68 3c d5 29 28 ba d7 3a ed 3b
       0.010156651 0.014197692 -0.0006414925 0.0072396803
000390 13 6b 1b 3c 4d 86 14 3b f4 4b 41 39 77 e1 36 3c
       0.009485978 0.0022663057 0.00018434209 0.011162153
0003a0 fe 03 a6 bb 31 98 b5 3a b5 53 fd 3b 58 11 0b 3b
       -0.005066394 0.0013854561 0.007730926 0.0021220054
0003b0 58 a3 7b 39 fb 7b 62 bb 88 ab 31 bb 3f 62 2d bb
       0.00023998076 -0.0034558761 -0.0027110297 -0.0026456264
0003c0 83 5c ac bb 1f de 6d 3c 8e c4 c3 ba d0 bb cb 3b
       -0.0052600517 0.01451829 -0.0014935897 0.0062174574
0003d0 31 32 ab 3b 77 54 2b bb c2 e8 1e bc cc 82 28 3b
       0.005224489 -0.0026142874 -0.0096990485 0.0025712727
0003e0 7b e3 a7 3b 93 07 b8 bb 5f f1 85 bb 20 4d bf ba
       0.0051235533 -0.0056161373 -0.0040876116 -0.0014595129
0003f0 1b 1d 4d 3b 7b fe 03 3b fe 8d 3f 3c 92 2d 14 bc
       0.0031297866 0.0020140696 0.011691568 -0.009044068

onnx::Div_80 f4 [36]
000000 de f2 83 3e 5c ec c6 3e a3 50 ee 3e c4 02 a0 3e
       0.2577123 0.38852203 0.46545896 0.3125211
000010 1d 4d 84 3e 03 a7 b9 3e 3d 4a e9 3e 34 ec 9e 3e
       0.25840083 0.36260232 0.45564452 0.31039584
000020 8a 46 83 3e 16 5e d1 3e bf 30 f4 3e 9a 7a a1 3e
       0.25639755 0.40892094 0.4769344 0.3153885
000030 2d 86 88 3e 0f fa b0 3e 2a 89 e6 3e 0c 96 99 3e
       0.26664868 0.3456578 0.45026523 0.2999729
000040 78 e6 86 3e 2e 0c d1 3e 98 d4 f4 3e 61 18 9d 3e
       0.2634771 0.40829605 0.47818446 0.30682662
000050 a0 2c 88 3e 32 3a 95 3e 03 9a d9 3e cf c8 93 3e
       0.26596546 0.29145962 0.42500314 0.28864142
000060 ac bf 8a 3e 85 d2 bb 3e 2e 37 ec 3e cf 5f 97 3e
       0.2709936 0.3668405 0.4613585 0.29565284
000070 43 ba 80 3e d9 e1 65 3d 7f 3e af 3e c2 c6 8f 3e
       0.25142106 0.05612359 0.34227368 0.28081328
000080 4a 75 8a 3e 8d 24 07 3e 73 d6 bc 3e be 2d 92 3e
       0.2704261 0.13197537 0.36882362 0.28550524

onnx::Div_83 f4 [13]
000000 52 b6 70 3f d3 2c 5f 47 64 09 72 3f 1b d3 cd 41
       0.940282 57132.824 0.9454558 25.728079
000010 62 30 45 44 34 5b b9 3a 34 5b b9 3a 34 5b b9 3a
       788.756 0.001414156 0.001414156 0.001414156
000020 34 5b b9 3a 34 5b b9 3a 34 5b b9 3a 34 5b b9 3a
       0.001414156 0.001414156 0.001414156 0.001414156
000030 34 5b b9 3a
       0.001414156
