results/run5/AvoidAgent/AvoidAgent-499958.onnx (onnx, 324058 bytes, 12 tensors)

network_body.observation_encoder.processors.0.normalizer.running_mean f4 [36]
000000 4c 33 fa 3d fd 4e 4d 3e bb 10 12 3f 1a c7 39 3f
       0.12216815 0.20049663 0.5705678 0.7256943
000010 41 8c fb 3d 92 4d 4b 3e 62 93 0f 3f f7 85 38 3f
       0.12282611 0.1985381 0.56084263 0.72079414
000020 09 e7 f8 3d 8b 19 4c 3e a9 6e 0f 3f bb 59 38 3f
       0.121534415 0.19931619 0.5602823 0.7201192
000030 2e 14 07 3e 0f 10 45 3e 7d a9 0e 3f 01 78 3c 3f
       0.13191292 0.19244407 0.5572737 0.7362061
000040 fa 9e 04 3e 4d 63 45 3e 9e b9 0e 3f bf 1c 3c 3f
       0.1295127 0.19276161 0.5575198 0.73481363
000050 ad 54 06 3e 15 c5 0a 3e 1c ac 1d 3f 6e 28 47 3f
       0.13118239 0.13551743 0.61590743 0.77796066
000060 31 92 09 3e b7 a1 07 3e 97 fe 1c 3f e2 e4 45 3f
       0.13434674 0.13245283 0.61325973 0.7730237
000070 9c 5b ed 3d 1d ff 8b 3b 90 e4 43 3f 5a 55 50 3f
       0.11589739 0.004272355 0.76520634 0.81380236
000080 f6 25 f8 3d 14 d2 82 3b 04 24 42 3f f7 c8 4e 3f
       0.121166155 0.0039923284 0.75836205 0.807754

network_body.observation_encoder.processors.1.normalizer.running_mean f4 [13]
000000 67 29 b7 3a ba ef 0e c6 9f 07 6d 3d 95 5b e8 3e
       0.0013974131 -9147.932 0.057868596 0.45382372
000010 54 ad 0b 43 92 fe 7f 3f 92 fe 7f 3f 92 fe 7f 3f
       139.67706 0.9999782 0.9999782 0.9999782
000020 92 fe 7f 3f 92 fe 7f 3f 92 fe 7f 3f 92 fe 7f 3f
       0.9999782 0.9999782 0.9999782 0.9999782
000030 92 fe 7f 3f
       0.9999782

network_body._body_endoder.seq_layers.0.weight f4 [256, 49]
000000 bf 42 59 bd 52 bc 3a be a2 d4 da 3d f4 d4 73 3e
       -0.05304217 -0.18235901 0.10685088 0.23811704
000010 a6 95 33 3e 0f 10 53 3d 34 bb 60 3e 4b 46 e9 bd
       0.17537555 0.051528987 0.21946412 -0.113903604
000020 95 42 8f 3e e8 2d 20 bd 93 ab 60 bc 39 a9 17 bd
       0.27980486 -0.03910628 -0.0137127815 -0.037026618
000030 18 09 2e be 2f 49 f6 bd f2 10 e9 bc f2 c8 1b 3e
       -0.16995656 -0.120256774 -0.028450463 0.15213373
000040 95 41 6d 3e a0 8b 07 3e 83 cb dd bd a1 e3 0f be
       0.23169549 0.13236856 -0.108298324 -0.14051677
000050 4a a8 b1 3b 8e a5 99 3c 98 18 0e 3e b9 59 01 3e
       0.005421673 0.0187557 0.1387657 0.12631883
000060 d0 f1 b2 be 05 44 09 3e 2a cb da 3c f2 11 94 3e
       -0.34950113 0.13404854 0.026708204 0.2891994
000070 62 9f ec 3d ae ab 9f bd 45 05 4e 3e ea b4 85 3d
       0.11553837 -0.07796417 0.20119198 0.06528647
000080 53 c1 97 bd ea 00 92 3d d2 77 ac 3c b2 76 df 3d
       -0.074099205 0.071290806 0.021053229 0.10911311
000090 e3 fd cb bd 26 33 05 3d 3b 99 cd bd 18 0a 20 3e
       -0.099605344 0.032519482 -0.10038992 0.1562885
0000a0 61 df 2d be 44 a0 1d 3d 40 e0 b6 3c ee 13 59 3d
       -0.16979744 0.03848292 0.022323728 0.052997522
0000b0 f5 a4 8e bd ab b6 a0 bd df b7 62 bc 7f a5 28 be
       -0.06965057 -0.07847341 -0.013837784 -0.16469382
0000c0 2b de 26 be 31 29 49 3e 9c 6d 2e be 28 d5 63 3e
       -0.16295688 0.1964462 -0.17034 0.22249281
0000d0 2b c0 9b bd 88 55 04 3e 5c f8 b4 3d 16 0e b9 3e
       -0.076050125 0.12923253 0.08836433 0.3614356
0000e0 64 ee a5 bd 2a e4 2d be 9d 80 e0 bc 22 89 74 3e
       -0.0810211 -0.16981569 -0.027405078 0.23880437
0000f0 15 4d 87 3d b5 48 36 3d 08 7c 34 be b6 a5 88 3d
       0.06606499 0.044502933 -0.17625439 0.06672232
000100 34 2e de 3d 99 d5 62 be ee d3 12 be 09 8d a6 bd
       0.10848656 -0.22151794 -0.14338657 -0.08132369
000110 38 bf 99 bd 39 31 9c bd c3 cc 86 3d a5 47 6e 3d
       -0.07507175 -0.07626576 0.06582024 0.058173794
000120 af 6f 82 3e fc 70 a6 bc 9e fb 58 be 55 f7 b6 bc
       0.25475833 -0.020317547 -0.21189734 -0.022334734
000130 07 eb 62 bd 92 ad a1 3d 8d 53 c7 be e7 1f 6a 3e
       -0.05539992 0.07894434 -0.38930932 0.22863732
000140 5c 14 a5 bc 24 2c 79 3d 47 6f 44 bc 35 ec 42 bc
       -0.02015131 0.06083311 -0.011989421 -0.011897136
000150 75 72 6d 3d 1e 4a 48 3e b1 b9 5f 3e f1 de 29 be
       0.057970483 0.19559523 0.2184818 -0.16588952
000160 f5 b7 0d 3e fc a8 3e 3e c2 de 57 3b 48 8e 22 3d
       0.13839705 0.1861915 0.003293917 0.03968647
000170 01 65 b2 bd 73 cf eb 3c 19 59 03 be d0 bf 1f bd
       -0.08710671 0.028785443 -0.12826957 -0.039001286
000180 87 6b f4 3a 3f 5d 1b be 74 92 0e 3e 2d 5d a6 bd
       0.0018647768 -0.1517229 0.13923055 -0.081232406
000190 34 e4 c7 bd 95 94 85 3e 8d c0 f1 bd 0f db 29 be
       -0.09760323 0.26089922 -0.11804304 -0.1658747
0001a0 49 8d e2 3c 8e 3f 68 3d e9 68 93 bc ec 9a b9 bd
       0.02765526 0.056701235 -0.017994361 -0.09062752
0001b0 2a e6 e4 bc d4 7f 8e 3c ae 45 51 bb 3d dc ea 3d
       -0.027941782 0.017394938 -0.0031932401 0.11467788
0001c0 da 85 42 be aa 8a e8 bc cb 13 f6 3d c6 54 fc bd
       -0.18996373 -0.028386433 0.12015494 -0.12320857
0001d0 6e dc 1d be be a4 05 3e 36 93 b6 3c 00 31 a4 bd
       -0.15416119 0.13051125 0.022286993 -0.080171585
0001e0 aa 4c f1 bd bb fc 46 bd 29 4e 21 3e f1 b7 4e bd
       -0.11782201 -0.048580866 0.15752472 -0.05046839
0001f0 a7 6a 2f 3e 26 25 72 bd e9 fd 31 be 4e e9 3c bd
       0.17130528 -0.05911746 -0.17382015 -0.046120934
000200 73 99 80 3d 8b b8 1c 3d ff 18 4d bc 37 a6 95 bd
       0.06279268 0.03826193 -0.012518167 -0.073070936
000210 53 73 34 3e d0 42 00 3b 22 dd 1d be 1a 0c f5 bd
       0.17622118 0.0019571073 -0.15416387 -0.11965199
000220 d3 ce 1c 3d cf e9 7b be 28 a7 b2 3d 81 ec e3 3b
       0.03828318 -0.2460091 0.08723289 0.0069556837
000230 25 46 20 be 36 51 7b 3c 6b ab 56 bd 49 ca 6a bc
       -0.15651758 0.015339186 -0.05240957 -0.014330455
000240 71 ca 3c 3d 5f b6 f9 3d ad ce 0f be 9a f4 04 3d
       0.0460915 0.12192988 -0.14043684 0.032459833
000250 89 83 b7 3d 59 63 a6 be 6c 2e 50 bb 09 e0 e4 3d
       0.08960635 -0.3249767 -0.003176595 0.11175544
000260 ea b2 2a be 6a e2 9d bc 27 11 53 be 40 0e 03 be
       -0.16669813 -0.019273002 -0.20612012 -0.12798405
000270 6c fd af bc 3e 74 f4 3d db 65 85 3d 1f d1 ac 3e
       -0.021483146 0.11936234 0.06513568 0.33753297
000280 5d 26 8b 3d bb 37 b7 bd ea fb 1f 3e c6 45 0e 3e
       0.067944266 -0.089461766 0.15623441 0.13893804
000290 f1 05 76 bd 74 b7 03 3d 26 e8 ab bb ca 6c c8 3d
       -0.06006426 0.032157376 -0.00524618 0.09786375
0002a0 ed a7 1a 3e 1b c5 62 3d e5 ae 0e be 4a 29 00 be
       0.15103121 0.055363756 -0.13933904 -0.1251575
0002b0 bc 82 fe bd 78 04 b2 bb 75 4f 9f bd 37 90 fb 3c
       -0.12427279 -0.0054326616 -0.07778827 0.030708415
0002c0 25 a2 a6 3e 5d 5d f6 3d d0 19 0e 3e 8b c5 1d 3d
       0.3254558 0.120295264 0.13877034 0.03851847
0002d0 c0 39 21 be 66 1a ee bd 47 a2 f4 bb b0 09 c1 3d
       -0.15744686 -0.11626129 -0.007465634 0.09425676
0002e0 0e a4 1f 3d 81 02 6f be f1 63 13 3e 54 7d f5 bc
       0.038974814 -0.23340799 0.14393593 -0.029966988
0002f0 de d7 8d 3d 15 d0 2f 3e cd 2a 8a be 28 3a 13 3d
       0.06925939 0.17169221 -0.2698578 0.035944134
000300 c6 52 26 3c d4 42 61 bd c5 b0 10 be 06 57 8f 3d
       0.010151571 -0.054995373 -0.14129932 0.0699902
000310 46 50 ba 3d 21 e7 0e 3e a7 99 8e bb 7d 2d 12 be
       0.09097342 0.13955356 -0.004351813 -0.14275165
000320 d1 71 09 3e de 98 7c be 87 07 4e be 47 b6 0a 3e
       0.13422324 -0.24667689 -0.20120059 0.13546096
000330 1d 2b 1b 3e 5f d1 07 bd e0 2c dd 3b c7 12 7f 3d
       0.15153165 -0.033158656 0.0067497343 0.062273767
000340 70 32 11 be 35 bd a8 3a fa 6b e2 3d 0f 23 2e be
       -0.14179397 0.0012873771 0.11055751 -0.17005561
000350 55 c5 c9 be 3c 57 c7 bc 03 a5 9e 3d fe 09 4e bd
       -0.39408365 -0.024333589 0.07746317 -0.050302498
000360 3a 9d 98 bd f5 75 5b bd f9 f1 bb bc 7f cb 57 bd
       -0.074518636 -0.05357929 -0.02294253 -0.052684303
000370 e1 ee 0c be e6 b1 e1 be 2b a7 3f bd 5d 3f 2f bd
       -0.13763 -0.44081038 -0.046790283 -0.042785037
000380 8b cb 85 3d 6a 91 da 3d e3 63 2c 3e 99 0c bd 3c
       0.06532963 0.10672267 0.16834979 0.023077296
000390 8b b1 21 bd af f5 5c 3d 0c 5b 2f be 66 b1 0e 3e
       -0.03947596 0.05394524 -0.17124575 0.1393486
0003a0 b0 0e 0a be 66 87 76 be 8a 5a 80 bd a3 c7 cc bd
       -0.13482165 -0.24075088 -0.06267269 -0.09999015
0003b0 8c c8 2b bd 97 0a 00 be 10 7b 41 3d 9f ac 3c be
       -0.041939303 -0.1250404 0.047236502 -0.18425225
0003c0 80 2d 26 bd 9a 5d 03 be 3c 99 5c be 97 70 49 3e
       -0.040570736 -0.12828675 -0.2154283 0.19671856
0003d0 ab 05 5a 3e d5 0f ae 3d bd 42 dd 3d 0b 84 ab 3e
       0.21291225 0.084991135 0.10803745 0.33499178
0003e0 27 d7 10 be 31 1d b3 bd d7 fe 78 3e a4 1a a3 3d
       -0.14144574 -0.08745802 0.24315964 0.07964066
0003f0 9c 49 a1 3d aa f1 15 be 57 4a 47 3d 43 3f 41 3e
       0.07875368 -0.14642969 0.04865488 0.18871789

network_body._body_endoder.seq_layers.0.bias f4 [256]
000000 dd df df bc 32 4d 45 bc de 1b 91 bc 53 76 cd bc
       -0.027328426 -0.012042331 -0.017713483 -0.025080835
000010 2d 53 8e bb 05 4f 25 bc df bf 9a bc 9f 88 53 bc
       -0.0043434114 -0.0100896405 -0.01889032 -0.012910991
000020 27 d1 5d bb 42 2a 10 bc 0a 0d 62 3c 5b a5 81 bc
       -0.0033846588 -0.008799138 0.013797054 -0.015825918
000030 6f b5 bc 3b 16 89 6d bc 78 2b 87 bc 55 f5 2b bc
       0.0057589333 -0.014498016 -0.01650022 -0.010495503
000040 a4 7f e6 bc 7a 96 cd 3a 42 15 8d bc 9b de 00 3b
       -0.028137036 0.0015685104 -0.01722205 0.0019663933
000050 67 43 80 bc 60 ce 4c bc 30 88 02 bc 45 53 28 bc
       -0.01565714 -0.0125003755 -0.00796704 -0.010273759
000060 f6 5d 18 3b 39 47 18 bc 84 c3 e5 bb ca 96 07 bc
       0.0023249364 -0.009294325 -0.0070118327 -0.008275697
000070 b1 b2 1f bc 87 20 d1 3b b6 3d 48 3b 57 0a 31 bc
       -0.009747193 0.0063820514 0.003055436 -0.010805688
000080 2d f8 a2 b9 7b 5d 09 bd 65 03 91 39 b0 4d cd 3b
       -0.00031083953 -0.033536416 0.00027659084 0.0062653646
000090 6b b4 c3 bb d6 53 3f bc 60 9b 54 bc 05 55 34 3a
       -0.005972435 -0.011677703 -0.012976497 0.0006879124
0000a0 9d e4 80 bc 73 2c da bb b0 4a 3a 3c d7 6d 26 3a
       -0.015734011 -0.006658131 0.011370346 0.0006348765
0000b0 66 81 06 bd 14 36 c7 3c e9 34 28 bc de 0c 13 bc
       -0.032838248 0.024317779 -0.010266521 -0.008975236
0000c0 86 b4 af bc 54 a8 8f 3b d3 47 b0 bc 25 94 5b bc
       -0.021448385 0.00438408 -0.021518623 -0.01340202
0000d0 92 d6 6e bc bb 69 e1 bb 12 a0 91 bb ea 13 c7 b9
       -0.014577525 -0.006879059 -0.0044441307 -0.00037971075
0000e0 ac c1 76 bc 00 c8 aa 3b 58 47 9f bc 2d 4a fb ba
       -0.015060823 0.00521183 -0.019443199 -0.0019171886
0000f0 7f 45 89 bb 01 f5 70 bb 12 07 9b 3c ae 34 86 bc
       -0.004189193 -0.0036767127 0.01892427 -0.016382542
000100 d1 ae 92 3a 97 4e 8b ba 2d a5 79 bb c4 06 d9 38
       0.0011191015 -0.001062828 -0.0038092837 0.000103486265
000110 93 6e c0 bc 0f b4 58 bc 8a 15 ec ba e6 56 cc bb
       -0.023490226 -0.013226523 -0.001801179 -0.006235945
000120 95 2c 11 bc a7 93 05 bc 86 ee f1 3b 5d 6d 97 ba
       -0.008860727 -0.008152879 0.0073831705 -0.0011552979
000130 a3 be 4e 3b 54 7a 44 3c e1 e9 ca bc fd 89 ef 3b
       0.0031546734 0.011992056 -0.024769725 0.0073101507
000140 c5 f3 24 bc 17 1b 55 bc 86 57 75 3b 00 26 ec bb
       -0.010067885 -0.013006947 0.0037436201 -0.0072066784
000150 55 42 09 3c 2e d8 2f 3a 08 36 8e 3a 20 44 ad bb
       0.008377631 0.00067079335 0.0010849843 -0.005287662
000160 20 50 27 bb e3 cd 52 bc d8 94 23 bc f2 0b 93 bc
       -0.0025529936 -0.01286647 -0.009984218 -0.017950032
000170 96 80 4a 3b 8b 3b 18 bc 2f e4 95 ba 1a a0 85 3b
       0.0030899397 -0.00929154 -0.0011435802 0.0040779235
000180 ff 8c 90 39 33 14 df 3b 65 f3 36 bc 0d 8d 26 bc
       0.0002757087 0.006807828 -0.011166428 -0.010165465
000190 90 f2 69 b9 ee 8d c8 bb 01 6b 98 bb f7 58 8e 3c
       -0.00022310973 -0.006120435 -0.0046514277 0.017376406
0001a0 ea 3f 33 3c 99 20 95 bc 68 ad 33 bb 84 83 bc 3a
       0.010940531 -0.01820402 -0.002741659 0.0014382456
0001b0 dd 69 69 bc 12 12 86 bc ae 28 fc bc 2f 4a c8 b9
       -0.014246431 -0.016366038 -0.030781116 -0.00038202244
0001c0 35 99 b2 bc f4 43 a8 bc 9e 88 30 bc 37 9c 24 bc
       -0.02180157 -0.020540215 -0.01077476 -0.01004701
0001d0 de 08 21 3b ea f3 0e ba a9 95 87 bc c4 3d c0 bc
       0.0024571936 -0.0005453216 -0.016550856 -0.023466952
0001e0 6a 40 9d 3c b2 33 11 bb 7f 99 88 3b 65 b5 07 3b
       0.019195754 -0.0022156057 0.004168689 0.0020707485
0001f0 8c 64 60 3a 94 16 92 bc 03 49 68 3c a4 00 9f bc
       0.00085599045 -0.017833032 0.014177564 -0.019409485
000200 63 b0 29 bc 4e da 09 bb 00 6e 10 bc af b3 af bc
       -0.010356995 -0.002103466 -0.008815289 -0.021447985
000210 7b 44 23 3b aa e2 01 bc 56 29 df bb f7 e5 b1 bc
       0.0024912644 -0.007927576 -0.0068103475 -0.021716101
000220 aa fa 40 bc d1 5b 8b bc 5a b8 87 39 b0 0c 72 39
       -0.011778513 -0.017011555 0.0002588656 0.00023083645
000230 f3 cd 38 bb 66 35 e6 bc 47 71 62 39 c1 72 d4 bb
       -0.0028198927 -0.028101634 0.00021595239 -0.0064834063
000240 20 17 15 bc f7 10 3c bc 6a 79 49 ba 0f be 5a bc
       -0.009099752 -0.011478654 -0.00076856336 -0.013350978
000250 59 09 83 bc d9 bb f9 3b e6 3a 5e bc b2 3c 0d 3c
       -0.015995668 0.00762127 -0.013563847 0.008620428
000260 95 02 a1 bc 99 82 93 3b a4 12 ec bb 1d 61 b5 bc
       -0.019654552 0.0045016524 -0.0072043706 -0.022141034
000270 19 5c e2 bc 08 8e 8a b8 8f 0b 0b bc 17 13 87 bc
       -0.027631806 -6.606808e-05 -0.0084866425 -0.016488595
000280 41 ba 39 bc 9c bd c7 bb 6a 93 8f bc ec 07 0a bc
       -0.01133591 -0.0060956012 -0.017526347 -0.00842474
000290 42 f0 44 bc cf 38 01 bc 22 72 39 bc 6d 71 ef 3b
       -0.012020173 -0.007887079 -0.011318715 0.0073072226
0002a0 8a e5 20 bc 43 47 57 bc 5f 53 3e bc 84 ee bd bb
       -0.009820351 -0.013139549 -0.011616557 -0.0057962555
0002b0 4d 47 2d 3c 79 82 1d 3c c5 64 1c ba 11 2a ba bc
       0.010576081 0.009613627 -0.00059659436 -0.022725137
0002c0 86 b7 37 3a 33 75 98 bc ea 0b 04 bc 88 02 c1 bc
       0.0007008243 -0.018610572 -0.008059481 -0.023560777
0002d0 91 44 e8 bc 24 f0 da bc a2 ac 89 ba ad 39 90 bc
       -0.028353008 -0.026725836 -0.0010503719 -0.017605627
0002e0 b2 2c 7b bb 09 c8 a2 bc f9 d1 c5 bc c0 49 23 bc
       -0.00383262 -0.019870775 -0.024147974 -0.009966314
0002f0 af d5 87 bc d6 86 bf 3a 7c 69 99 3b 85 b0 d6 bb
       -0.016581384 0.0014612328 0.004681764 -0.0065518045
000300 f7 a0 10 ba d8 1b 99 bb a1 aa 5a 3c e5 99 37 bc
       -0.00055171497 -0.0046725087 0.013346345 -0.011206125
000310 e1 b6 f0 3a 4e 81 1d bc f7 54 38 bc e4 95 ad ba
       0.0018365049 -0.009613348 -0.011250726 -0.0013243523
000320 2b 0a 88 3b 3f 5d a2 bc 6a 9e e3 bc 2d ae 1b 3c
       0.0041516027 -0.019819854 -0.027785499 0.009501976
000330 e5 7f ee bb fb 29 0d bc dd 4d 0d 3b bb e8 9a 3a
       -0.00727843 -0.008615966 0.0021561303 0.0011818627
000340 be 58 66 3b 14 6d 93 bc a3 75 59 bc 63 b6 4a bc
       0.003514811 -0.017996348 -0.013272676 -0.012372586
000350 5b 93 0f bc 48 f8 93 bc 45 86 80 bc 50 10 e1 bb
       -0.00876316 -0.018062726 -0.015689025 -0.0068683997
000360 a1 ed 86 3b c9 96 60 bc a5 70 d8 bc a7 9c 9a bb
       0.004117683 -0.013707825 -0.0264209 -0.0047183814
000370 ff 24 8f bc 10 49 24 3c de 71 67 bc ea aa 80 bc
       -0.017473696 0.010027185 -0.014126269 -0.015706498
000380 6a 6f 6e bc aa 93 09 bc 34 0e 91 bc 81 32 12 ba
       -0.01455293 -0.008397022 -0.017706968 -0.00055769837
000390 a4 34 74 3b 2b f7 78 3c 89 c5 b0 bb 48 dc 5b bb
       0.0037262822 0.015195648 -0.005394642 -0.0033548046
0003a0 fc 82 3a bc e8 cb 67 bc ad a1 73 bb ef 29 82 3a
       -0.011383768 -0.014147736 -0.0037175224 0.000993071
0003b0 ab cc b3 bc 1c 03 e1 ba a3 42 d8 3b 47 6b 82 bb
       -0.02194818 -0.0017167064 0.0065997406 -0.0039800736
0003c0 af 86 87 bb a3 29 cd bc 51 58 88 39 f3 19 b3 bc
       -0.0041359286 -0.025044268 0.00026005742 -0.02186296
0003d0 cc 05 7a bc 1b 78 10 3a 3c 34 1d bc 03 b4 3d bb
       -0.015260171 0.0005511061 -0.009594973 -0.0028946407
0003e0 a2 bf e8 bb b7 2b 70 3c a2 9c 22 bc 03 60 db bc
       -0.0071029225 0.01465886 -0.0099250395 -0.02677918
0003f0 12 16 35 3b 99 4e af bc ec 6f c0 bc 53 53 7e 3c
       0.0027631563 -0.021399783 -0.023490869 0.015522796

network_body._body_endoder.seq_layers.2.weight f4 [256, 256]
000000 5b 30 84 3d be 8d 87 bd d6 ac 1c 3c 35 3e 16 bd
       0.064545356 -0.06618832 0.009562692 -0.03668042
000010 c2 5d 95 bc 98 30 5b bd a0 10 23 bd 32 da 81 bc
       -0.018233184 -0.05351314 -0.039810777 -0.015851114
000020 c0 e5 90 3d 13 f7 0b 3d 56 89 0c 3d 33 eb 14 3e
       0.07075071 0.034171175 0.03431066 0.14542846
000030 31 1b 83 bd a3 2f a7 3d 30 60 7e bd fb 88 e7 3c
       -0.06401671 0.08163383 -0.06210345 0.02826356
000040 5b 16 99 bd 39 34 12 bd 38 44 c8 bd ee 30 f6 3c
       -0.07474967 -0.035694335 -0.09778637 0.030052628
000050 9f 5c 49 3d 09 1c 79 3d a5 93 86 bd 9e 61 8d bc
       0.049160596 0.060817752 -0.0657113 -0.017258462
000060 3d 10 7e 3c 18 ff 0a 3d c0 35 28 3b 74 a9 9f 3c
       0.015506801 0.033934683 0.0025666803 0.019489981
000070 ce e4 94 bd 8a 40 5e bd 49 1c 2f 3c d8 21 74 3d
       -0.072702035 -0.054260768 0.010687896 0.05960259
000080 c4 74 0c 3b 8b 19 80 bd dd ba fe 3c 40 20 a9 bc
       0.0021431902 -0.06254872 0.031094963 -0.02064526
000090 74 f2 c8 3c 43 60 81 3d 2f c3 ce bd 4b 89 43 bd
       0.024529673 0.063171886 -0.10095822 -0.047738355
0000a0 36 b6 79 3d 15 48 ca 3d ee b3 50 bd 43 59 61 bc
       0.060964786 0.0987703 -0.050952844 -0.013754192
0000b0 62 3e 31 3c 12 5b f5 bc 19 29 9e 3d 45 4a 18 bd
       0.010818096 -0.029950652 0.077226825 -0.037180204
0000c0 6f 4e 93 bc 33 0f db 3d d3 ad 71 bd e3 9c 18 3d
       -0.017981736 0.106962584 -0.059003662 0.037258994
0000d0 c1 ad 1d 3d 11 b9 30 3c f3 76 7a bd 1a 13 aa bd
       0.038495783 0.010786311 -0.061148595 -0.083044246
0000e0 00 77 91 3d bb 5e 5d bd 44 01 2d bd c6 a6 ad 3c
       0.071027756 -0.05404542 -0.042237535 0.021197688
0000f0 da 13 6b bd 76 4e 07 3c 4b 76 39 bc f1 09 71 3d
       -0.05739198 0.008258453 -0.011319707 0.05884737
000100 8f c2 a7 3b bd be 95 3c 18 a7 02 3d 7c 72 14 3e
       0.0051196287 0.018279428 0.031897634 0.14496797
000110 5e be 90 bc e4 c7 df 3d 53 02 98 bd 04 be 2c bd
       -0.0176689 0.10926798 -0.07422318 -0.0421734
000120 5e ba fe bd 16 c4 98 3d 4b 09 dc bc 89 92 5e bd
       -0.124378905 0.074592754 -0.0268599 -0.054338966
000130 09 83 39 bc 8d 25 bd bc 02 71 a7 bd e6 85 76 bc
       -0.011322745 -0.023089195 -0.081758514 -0.015046572
000140 2b 81 81 bd 16 9f 3c 3c 41 e7 70 bd ba f5 e6 ba
       -0.06323465 0.011512538 -0.05881429 -0.001762084
000150 fa e3 3a 3c ff 8a 56 bc f6 2d 19 3c 62 83 d8 bc
       0.011406893 -0.013094663 0.009349337 -0.026429836
000160 49 1a 8a bd bf f8 a6 bc d1 28 94 bd fb 64 36 ba
       -0.06743295 -0.020382283 -0.072343476 -0.0006957796
000170 18 50 15 bd d2 67 43 bd 92 d2 f7 3b f8 98 ed 3c
       -0.036453336 -0.047706433 0.0075629437 0.029003605
000180 75 ba 6e bc 76 07 5b b8 57 8f 8b 3c 8b 9b 92 bd
       -0.014570822 -5.2220617e-05 0.017036123 -0.07158574
000190 66 fb 27 bd a8 ad 85 bd 72 5d 8b 3d f5 91 17 3c
       -0.041011237 -0.06527263 0.06804933 0.009251107
0001a0 18 c3 f9 3b 81 06 43 3a 07 cc c3 3c 4d d4 14 3c
       0.007622134 0.0007439629 0.023900999 0.00908382
0001b0 f9 24 75 3d ca b5 00 be d5 b5 02 bd 4f ba 36 bd
       0.059849713 -0.12569347 -0.03191169 -0.04461127
0001c0 df 9c 49 bd 62 6f 0b 3e 7b 67 19 3d a9 02 ac bc
       -0.04922187 0.13616708 0.037452202 -0.020997362
0001d0 dc 04 bb bd 89 32 4c 3d c5 82 64 3d c8 f1 7c bd
       -0.09131786 0.04985288 0.055788774 -0.061754018
0001e0 75 43 b9 bc 8b 08 7c 3c ca 87 34 3d bd cb 20 bd
       -0.022615174 0.015382896 0.04407481 -0.0392568
0001f0 39 50 08 bd 63 09 2f bd cd 22 a2 bc 78 19 62 3d
       -0.03327963 -0.04273356 -0.019791985 0.05520007
000200 b8 40 8b 3c de c9 06 3d b9 e6 e5 3c b4 c6 00 bd
       0.016998634 0.03290736 0.028064119 -0.031439498
000210 aa bd d3 3d f9 66 af 3d bb 3e 5d 3d fc a0 3d bd
       0.1033891 0.08564562 0.054014903 -0.046296105
000220 50 d0 a1 3d 43 65 e7 3c f4 d0 09 bd 13 a8 2d 3b
       0.079010606 0.028246528 -0.03364654 0.0026497885
000230 e6 ea 43 3d 25 95 71 3d 9e ff d6 3d 80 f7 29 3e
       0.04783144 0.058980126 0.10497974 0.1659832
000240 45 d6 03 3b 97 13 e6 3c ce ad 93 bd 1a 8b b5 bc
       0.0020116728 0.028085513 -0.07210885 -0.022161055
000250 97 00 18 bd 31 5b 77 bc 43 8f 89 bb 57 0f 92 3c
       -0.037109938 -0.015097425 -0.0041979863 0.01782958
000260 b4 d1 b9 3c 08 42 94 bd 01 ea 75 b9 03 86 31 be
       0.022683002 -0.07239157 -0.00023452194 -0.17336278
000270 60 64 6f bd ee 61 68 bd 16 af d0 3d 0e 3b 68 3d
       -0.058445334 -0.056734018 0.10189645 0.056696944
000280 63 af 92 3d 51 30 e3 3d 7d b5 1c bb a9 85 e7 bd
       0.071623586 0.110932 -0.0023911886 -0.113047905
000290 eb 38 07 3e 8e bf 5e bd f2 8c 62 bd 89 33 8e bd
       0.13205306 -0.0543819 -0.055310197 -0.06943423
0002a0 3c d0 26 3d 9a d7 b6 bd b8 2b ae bd 80 57 12 bc
       0.04072593 -0.089278415 -0.085044324 -0.008931994
0002b0 8a 8d a2 3d 43 30 a2 bd f4 b8 8f bd af 68 66 bd
       0.07937153 -0.079193614 -0.07017699 -0.056252178
0002c0 68 73 b7 bc d9 41 db 3d 84 08 03 3c 67 d1 1a 3d
       -0.022393897 0.10705919 0.007997636 0.037797358
0002d0 8c 7b bb 3d 2c a6 16 3d 95 76 09 bd 45 a2 56 bd
       0.09154424 0.036779568 -0.033560354 -0.052400846
0002e0 86 b0 e8 bc be f4 32 bb 4d 08 12 3e 0d 29 50 bd
       -0.028404485 -0.0027306522 0.14260979 -0.0508204
0002f0 15 2e 9f bd 5a e4 84 bd f7 cd 88 bc 8d 90 59 bd
       -0.07772461 -0.06488867 -0.016699774 -0.05311637
000300 46 61 88 39 82 c8 2a bc 84 78 2e bc 74 01 a3 bc
       0.00026012416 -0.010423781 -0.01064885 -0.019898154
000310 07 5f 5e 3d 25 25 88 3d 26 17 89 bd 97 fd 0d bd
       0.054289844 0.0664771 -0.06693868 -0.03466567
000320 f9 53 30 bd 21 03 8d 3c ff 3d bb bd ed 4a b9 bc
       -0.043048833 0.017213406 -0.09142684 -0.022618735
000330 a4 ee f6 bc 53 22 9f bc 2a 9f 2a 3d 3f 14 e1 bc
       -0.03014309 -0.019425547 0.041655697 -0.027475474
000340 5f ae da bc 1d 3d b9 bd f5 51 97 bd f6 f0 cf 3d
       -0.026694475 -0.090448596 -0.07388679 0.101533815
000350 d2 dd fa bc 8d 0d 40 3d d4 11 0c 3d c0 c4 ae bd
       -0.03062335 0.046887923 0.03419669 -0.08533621
000360 0a 03 1a bd 5e 4b cf bb a0 93 b8 bc 06 79 0a bd
       -0.037600555 -0.006326123 -0.02253133 -0.033806823
000370 bb fe 3d bb 2f 5d cc bd ae ac 0e bc b2 c0 d7 bd
       -0.0028990943 -0.09978711 -0.008708162 -0.105348006
000380 ae b2 10 bd 05 d5 fd bd 47 ee c0 ba 02 16 ac bd
       -0.035326652 -0.12394146 -0.001471945 -0.08402635
000390 64 87 39 3d 2f 11 96 3c f9 e9 de bd 55 e8 60 bd
       0.045295134 0.01831874 -0.108844705 -0.05490907
0003a0 dc af d0 bd b2 21 32 3d e7 8e b0 3d 2d b9 d8 bc
       -0.101897925 0.043489166 0.086210065 -0.026455486
0003b0 dd f3 8a 3c 87 b7 26 bd b2 b5 9d bc d5 11 de b9
       0.016961986 -0.04070237 -0.019251678 -0.00042356426
0003c0 f4 42 4f 3d da 92 f3 3b f4 b7 07 3d a3 0f 06 3d
       0.05060096 0.0074332776 0.033134416 0.032729756
0003d0 19 65 2c bc c4 1d 19 bd f7 32 42 bd f5 60 0c 3c
       -0.01052215 -0.037381902 -0.047411885 0.008568038
0003e0 82 ee 13 bd 36 bb 71 3c 0f 6f d9 bc 99 c4 a7 bc
       -0.03611613 0.014754107 -0.026542215 -0.020479487
0003f0 ca 65 16 bd d2 94 41 3c 2b ba 9d 3c 22 6c 6f 3d
       -0.036718167 0.011815267 0.01925381 0.058452733

network_body._body_endoder.seq_layers.2.bias f4 [256]
000000 a2 26 50 bc f1 d2 58 bc 1d 81 8b 3b 03 bc 87 bc
       -0.012704523 -0.013233886 0.004257335 -0.016569143
000010 3b 2a 9a bb 02 1f 9a bc 6f 08 66 3b c8 1e 16 bc
       -0.0047047413 -0.018813614 0.0035100242 -0.009162612
000020 24 66 e1 bb 28 71 da bb bc bc c1 bb 25 b5 59 bc
       -0.006878631 -0.0066663213 -0.0059123915 -0.013287817
000030 30 fc 7e bc a0 c0 87 bc 0a 56 ba bc 2c dd 82 bc
       -0.015563056 -0.016571343 -0.022746105 -0.015974604
000040 b5 b9 24 bc 53 9a 02 bc 86 49 d9 bb 47 62 80 bc
       -0.010054042 -0.007971364 -0.006631079 -0.015671862
000050 10 3b 55 3b 4d 1d b0 bc f4 59 9a bc 63 d2 aa bc
       0.0032536425 -0.021498347 -0.018841721 -0.020852273
000060 ee ae 0e bb 41 56 b5 bc 75 de 91 bb 28 3c 86 bc
       -0.0021771747 -0.022135856 -0.004451568 -0.016386107
000070 03 44 8b bb df bc 70 3a c9 79 96 bc a9 36 a1 bb
       -0.004250051 0.00091834174 -0.018368619 -0.004919846
000080 2d 4d d6 3a f5 7a 34 bc 90 4e 9b bc 98 72 93 bb
       0.0016349904 -0.011015643 -0.01895836 -0.0044997446
000090 4a aa b5 bc ca ca 5b bc 2b e3 4a bb 2e 77 96 ba
       -0.022175927 -0.013415048 -0.0030958157 -0.001147961
0000a0 bf 73 8d bc fb ca 63 3c 44 26 93 3b c1 5e 8b bc
       -0.017267106 0.013903375 0.0044906456 -0.017012956
0000b0 22 63 a7 bc b3 a5 6e 3b d9 0c 65 3b 0a 4b d4 bb
       -0.020433012 0.0036414682 0.0034950285 -0.006478672
0000c0 83 b8 8b bc ef 24 e3 bc 64 4b 11 3c e1 61 80 bc
       -0.017055755 -0.027727572 0.008868072 -0.015671672
0000d0 60 90 84 ba 2d dc ea bb 2a e0 b6 bb a4 22 be bc
       -0.0010113828 -0.0071673603 -0.0055809217 -0.023209877
0000e0 73 8e c6 bc 99 9e 6c bc d9 7d 98 bc 20 74 1f bc
       -0.024237847 -0.0144421095 -0.018614696 -0.009732276
0000f0 24 13 9d ba c2 b0 af 3a b4 d5 f1 3b 35 0b 9b bc
       -0.0011983854 0.0013404118 0.0073802117 -0.018926242
000100 9b d8 47 bc 48 ac 10 bc 02 29 2d 3b 5d 27 97 bb
       -0.012197639 -0.008830138 0.0026422148 -0.0046128468
000110 63 70 92 bc 90 52 2b bc 1f 10 a1 bb 5f c1 a5 3b
       -0.017875856 -0.010456696 -0.004915252 0.005058452
000120 b0 82 da bc 5c a9 76 bc ae d6 7c bc f5 34 b5 3b
       -0.026673645 -0.015055027 -0.015432043 0.0055299946
000130 f3 8a f4 3b b0 34 51 39 0f 5b c1 bc ec 5a 9a bc
       0.007462853 0.00019951421 -0.02360299 -0.018842183
000140 bd c1 61 bb 1d c1 f7 bb a7 53 36 bc f5 98 87 bc
       -0.0034447752 -0.0075608627 -0.011128343 -0.016552428
000150 36 23 4d bc 49 2e 6f bc 7e 89 68 bc aa 42 74 bc
       -0.012520602 -0.014598438 -0.014192937 -0.014908472
000160 02 1e 94 bc c3 f1 37 bc 7e e4 dc ba 27 af c1 b9
       -0.018080715 -0.011227074 -0.0016852764 -0.00036942327
000170 61 9c 0f bc 22 cf 6b bc de 84 43 bc 81 a2 1f bc
       -0.008765311 -0.014392646 -0.0119335335 -0.009743334
000180 1a 8a c4 bc f8 af 43 bc d1 a0 35 bb aa 7b 2e bc
       -0.023991633 -0.01194381 -0.0027714262 -0.010649601
000190 d9 1f 13 bc f4 5f b3 bc e1 cc 44 bc 28 f1 99 bc
       -0.008979761 -0.02189634 -0.012011738 -0.01879175
0001a0 c9 bc 84 bc fa 1a 6f bc 08 f4 08 3c 65 cb 53 bb
       -0.016203301 -0.014593834 0.008358963 -0.0032317278
0001b0 d5 e1 8c bc 63 97 ac bc 5a 92 57 3b 25 3b 5d bc
       -0.017197529 -0.02106828 0.0032893629 -0.013502871
0001c0 87 b0 a8 3a c6 c5 bd bc c7 23 74 bc bc c1 7f bc
       0.0012869992 -0.023165595 -0.014901108 -0.015610155
0001d0 66 89 3a bc 93 b1 84 3b 8e da 20 bb 6e e6 a0 bb
       -0.011385297 0.004049489 -0.0024544331 -0.004910282
0001e0 f7 f6 ad bb 5b a3 98 bb da 91 83 bc b9 c6 54 3b
       -0.0053089815 -0.0046581454 -0.016060758 0.003246708
0001f0 28 60 10 bb 7a da 6c ba 73 57 0e bc b6 04 ca bb
       -0.002202997 -0.0009035241 -0.008687842 -0.0061651124
000200 0d 92 17 bb 0f d4 c0 bb 52 aa c6 bc 6e d4 0e 3c
       -0.0023127825 -0.0058846544 -0.024251137 0.008717639
000210 cf 5f 9c bc 61 f4 e8 bb 81 ba c6 bb 3c df 0e 3c
       -0.019088654 -0.0071092104 -0.0060647135 0.008720215
000220 ec a8 a8 bc 2a a6 48 bc 76 d2 e1 3a 40 07 96 bb
       -0.02058836 -0.012246648 0.001722886 -0.004578501
000230 93 74 a8 bc 19 f1 08 3c 47 f8 9b bc 66 1f 23 3c
       -0.0205634 0.008358263 -0.019039286 0.009956216
000240 6a 16 c2 bc a5 76 83 bc cf e9 29 3c 01 7b 8a bc
       -0.023692328 -0.016047785 0.010370686 -0.016904356
000250 c6 e0 78 bc bf 42 d9 bb fe c8 bd bc 24 f9 27 ba
       -0.015190309 -0.006630271 -0.02316713 -0.0006407669
000260 2b 58 89 3b 5f 2b 98 bc cc f9 cd ba be 5e 36 3b
       0.0041914186 -0.018575368 -0.0015714704 0.0027827467
000270 d8 0c b1 bc 6f 3d 88 bc d3 22 40 bc 15 0f 68 bc
       -0.02161257 -0.016630856 -0.011727053 -0.014163752
000280 0b 95 f6 bb f6 5e 32 bc 78 db 9d bc 6e d4 66 bc
       -0.0075250915 -0.010886898 -0.01926969 -0.014088733
000290 a5 6e 1b bb cd 51 c2 3b 6d 30 8e bc af 4d 01 3c
       -0.0023717072 0.0059301616 -0.017357076 0.007892056
0002a0 53 2f 98 bb 01 db b0 ba 8f 89 dd 3b b3 ed a2 bb
       -0.0046443134 -0.0013493003 0.006760783 -0.0049721836
0002b0 7b 52 aa bc 4f 41 01 3b 02 5a 89 3b bd 9a 58 bc
       -0.020791283 0.0019722765 0.004191638 -0.013220486
0002c0 4a ca 81 bc cc a3 3f bc 6f 8e c6 3b 9d bd 1d bc
       -0.01584353 -0.011696767 0.00605946 -0.009627727
0002d0 e3 a2 d4 bb 2a 85 83 bc a6 27 15 3b a9 42 3f bb
       -0.006489144 -0.016054709 0.0022759228 -0.002918402
0002e0 f2 25 e8 bb a7 72 97 bb 9e df 1b bc 7f 65 68 bc
       -0.0070846016 -0.004621822 -0.009513764 -0.014184355
0002f0 34 13 93 bc 07 da 1e 3b f5 d9 3d 3a 6d eb c9 3b
       -0.017953493 0.002423884 0.0007242256 0.006162098
000300 a7 c8 03 bc 85 ef 41 bc eb 69 9a bc 62 9a 58 3a
       -0.008043445 -0.011836891 -0.018849334 0.0008262751
000310 30 24 be bc 44 7e c1 bc fc 66 a8 bc 93 89 0b bc
       -0.023210615 -0.023619778 -0.02055692 -0.008516687
000320 85 04 7a bc 65 48 ab bc ab d6 ea ba a7 d3 ac bc
       -0.015259867 -0.020908544 -0.0017916759 -0.021097017
000330 ea b6 63 3c 41 ef 9f bc 89 56 eb ba 36 22 b6 bc
       0.013898591 -0.019523265 -0.0017954867 -0.02223311
000340 de 0e 62 3b 8a c6 fd 3b 7f e2 e6 3b 14 2e 98 bc
       0.0034493725 0.007744615 0.0070460434 -0.01857666
000350 c3 88 4c bc 90 fd 25 bb ff b5 4a bc bd cf 1d bb
       -0.012483778 -0.0025328137 -0.012372493 -0.002408012
000360 2e bf 29 3b 9e 19 97 bc 30 36 00 3c d7 5b 52 bc
       0.0025901305 -0.018444832 0.007825419 -0.012839279
000370 25 53 65 39 c3 52 8e bc 96 de 19 ba 50 ea bd 3a
       0.00021870116 -0.017373448 -0.00058696547 0.0014489386
000380 55 ab 7e bc f9 0e 54 bc b8 6b b5 bb 8d a7 1d bc
       -0.015543778 -0.012943023 -0.0055365227 -0.009622467
000390 d0 15 07 bb 06 8c dc bb 3f 25 14 3b f3 da 8b bc
       -0.0020612366 -0.0067305593 0.0022605208 -0.017072177
0003a0 16 49 7e bc 1e 5b a9 3b ac c3 53 3c 82 1f c6 bb
       -0.015520355 0.0051683327 0.01292507 -0.0060462365
0003b0 20 8a 9a bc 20 2f 6e bc 2b 0f 1a bc a5 8c fa bb
       -0.018864691 -0.014537603 -0.00940303 -0.0076461607
0003c0 0a 8a 67 bb be 58 7f 3b 66 ec d5 bc d2 c9 91 bb
       -0.003533008 0.0038962807 -0.0261137 -0.0044491077
0003d0 db a9 eb b8 f2 b0 87 bc 71 92 11 bb 03 95 35 bc
       -0.00011237311 -0.016563866 -0.002221253 -0.01108289
0003e0 f0 8c 92 bb c9 b3 46 bc 4b 3d a8 3b 82 2f 01 bc
       -0.0044723675 -0.012127825 0.00513426 -0.007884862
0003f0 1a 24 8d bc 08 18 22 3c 74 8f 13 bb 9a 8f b0 bc
       -0.017229129 0.009893425 -0.0022515925 -0.02155285

action_model._continuous_distribution.log_sigma f4 [1, 3]
000000 83 a7 5f bc c8 6c 8d bb 41 af 48 3c
       -0.013650778 -0.0043159463 0.012248815

action_model._continuous_distribution.mu.weight f4 [3, 256]
000000 96 0e e0 b9 b1 17 c7 3b ab a6 a5 bc 0d ee 76 bc
       -0.00042735477 0.0060758223 -0.020221075 -0.015071404
000010 38 e6 af bb e7 f0 d8 3b 8c da 0f 3c e6 f9 86 3b
       -0.0053680204 0.0066205147 0.008780133 0.0041191457
000020 18 3e 3d bc 45 a3 43 3a a5 2f f4 b8 23 99 73 3c
       -0.011550449 0.0007462989 -0.00011643701 0.014868054
000030 07 d9 91 bb a6 3b 23 3c 32 ca a3 3b a7 0b 2f 3c
       -0.0044509205 0.009962952 0.004998469 0.0106839305
000040 24 90 46 bc 33 93 c1 bb a2 82 04 ba 5a 83 83 bb
       -0.012119327 -0.00590744 -0.0005054866 -0.004013461
000050 c8 c3 d9 3c a5 dc 6c b9 7e 84 90 38 39 78 12 3c
       0.026582614 -0.0002258891 6.891134e-05 0.008939796
000060 0c 5c 47 bb 2a e8 53 3b 9c 6f ed bc dc cf 0f 3c
       -0.0030419854 0.0032334425 -0.028983884 0.008777585
000070 66 41 25 3c 83 c7 3f bc 07 01 a2 ba 4f 9b c4 bc
       0.010086393 -0.011705282 -0.0012359925 -0.023999838
000080 bb cf 1d 3c d2 6b 8d bb 9f 78 91 3c 30 f3 44 bc
       0.009632046 -0.0043158317 0.017757712 -0.012020871
000090 90 91 96 3a 00 74 24 3b dd ca e2 bb 38 47 26 bb
       0.0011487473 0.0025093555 -0.006921156 -0.002537204
0000a0 f3 86 fc bb ab 71 c1 3c c2 a8 93 38 da 94 33 bb
       -0.007706517 0.023613771 7.04094e-05 -0.0027401955
0000b0 7c bc ab 3b ba 1e 9f 3a c4 5b 9c 3c 6c 05 b5 3c
       0.005240975 0.0012139895 0.019086726 0.022097312
0000c0 44 5c 11 bc e5 0a e9 3a 9b 78 04 3c 44 67 24 3c
       -0.0088720955 0.0017779736 0.008085395 0.010034386
0000d0 b8 f9 55 bc 6d 62 9e 3c b9 22 93 3b 68 72 36 3c
       -0.013060026 0.019334042 0.0044902232 0.011135675
0000e0 f5 70 90 3b 84 7b 66 3c 68 0e 0c bb 3a e6 02 3d
       0.004407997 0.014067534 -0.0021370891 0.031957842
0000f0 db 4b 27 3c 10 ef 4f b8 ca 5d 59 ba 4c b2 a7 bc
       0.010210956 -4.957529e-05 -0.0008291869 -0.02047076
000100 93 f3 3b bb 23 00 0f bc 03 b0 cf bb e0 ba 59 bc
       -0.0028679117 -0.00872806 -0.006338121 -0.013289183
000110 af c6 d2 39 0a 97 a6 3c d5 a7 c1 bb 9e a2 7b bc
       0.00040202352 0.020335693 -0.0059098997 -0.015358595
000120 c4 b8 33 bb df 9a 2f ba 0a 8a b5 3c 14 b4 61 3b
       -0.0027423361 -0.0006698798 0.022160549 0.003443961
000130 1d a3 07 bb e8 3d e3 bc d0 c7 10 3a bd 6f 66 ba
       -0.0020696588 -0.02773948 0.00055229384 -0.0008790454
000140 0a 8c 22 ba 1b 7f ea 3c 81 8b 3a 3c 64 18 e8 ba
       -0.0006200677 0.028625062 0.011385799 -0.0017707464
000150 65 63 64 3c 21 cb 19 3a c7 3b f3 bb 94 8d 67 3c
       0.013939713 0.00058667554 -0.0074228975 0.014132876
000160 41 e6 80 3c 1d 9f 67 bc 88 6e 8f bc 8b 4f 8f 3c
       0.015734794 -0.014137057 -0.01750876 0.017493984
000170 20 05 6e bc 69 26 54 3a 33 e1 32 3c 83 6d 53 3c
       -0.014527589 0.0008092882 0.0109179495 0.012904528
000180 df 5c 6f bb f5 d2 bd 3b de 8a 6e bc 84 c2 43 3c
       -0.0036523861 0.0057929703 -0.014559476 0.011948232
000190 e0 b9 1a 3a c6 d1 8a 3b cc 2b 0b bd 82 2b 9d ba
       0.00059023313 0.0042364327 -0.033977315 -0.0011991116
0001a0 94 62 41 bc 09 42 0b 3c 1d b7 09 bb 78 36 ed 3c
       -0.011803288 0.008499631 -0.0021013685 0.028956637
0001b0 e3 73 86 3a 6c 04 03 bc 73 de e1 3c d7 5b f4 3b
       0.0010257926 -0.00799666 0.027571892 0.007457237
0001c0 32 cc f9 3a 8a 2a 33 3c 0a 86 a1 3a 8c ea 9b 3a
       0.0019058047 0.010935435 0.0012323272 0.0011895462
0001d0 78 34 a2 bb ff bc e7 3b 36 6d 52 ba a1 f6 dc 3b
       -0.0049501024 0.0070720906 -0.0008027138 0.0067432676
0001e0 79 f5 15 bc bd b8 10 3c e1 0a f1 3a f2 01 b4 ba
       -0.0091527635 0.008833108 0.0018390083 -0.001373349
0001f0 e8 c9 16 bc 47 28 01 bc e6 58 bf ba e3 47 74 3a
       -0.009203412 -0.007883138 -0.0014598637 0.0009318573
000200 46 41 1c 3c e8 b6 3c 3a 22 03 8e bb 20 44 b3 39
       0.009537047 0.0007198886 -0.0043338696 0.00034192298
000210 ca 59 8b bb ed 2a ca 3c f0 07 ed 3b 0b 18 17 3c
       -0.004252647 0.024678672 0.0072336122 0.009222041
000220 1a b0 f1 b9 74 1c 2b 3c d8 f7 0b 3d 4c 45 74 bc
       -0.00046098308 0.0104437955 0.03417191 -0.0149091
000230 d9 d1 87 b9 94 51 03 3c f0 46 3b 3a bf 8c d3 3b
       -0.00025905555 0.008015055 0.00071440544 0.006455987
000240 3a 90 8e bb b2 e3 7c bb e2 0e b3 3b de 63 08 3c
       -0.0043506892 -0.0038587865 0.0054644207 0.008324591
000250 a8 7b 80 3b 10 65 16 3d a2 53 03 bc 99 52 58 3b
       0.003920991 0.036717474 -0.008015545 0.0033008216
000260 a1 11 fa bb b8 42 88 3c 8f f9 2e bb 32 07 33 3b
       -0.007631496 0.016633376 -0.0026699041 0.002731752
000270 4d b7 9a bb 9b 64 8b 3a 93 83 4e 3c 7f f4 d4 ba
       -0.004721558 0.0010634841 0.012604612 -0.0016247182
000280 e7 93 d1 3b 80 87 5b bc d3 43 42 ba 1c 7d a6 bb
       0.006395805 -0.013399005 -0.00074106193 -0.005080832
000290 c8 cf 8f bc 2f 6d c3 bc 31 80 31 bc da ca f6 ba
       -0.017555133 -0.023855774 -0.010833786 -0.0018828765
0002a0 35 af 88 ba 5e 1b b5 3b 0a b6 7b 3c 42 bf 55 bc
       -0.0010428192 0.005526944 0.015363226 -0.013046088
0002b0 92 ed 8a 3b 41 2c 5c bb 9e 38 49 3a b4 f7 db 3a
       0.0042397464 -0.0033595713 0.0007675978 0.0016782195
0002c0 10 f6 24 3c 15 11 19 bc 96 0e fe bb 05 46 8f bc
       0.0100684315 -0.009342452 -0.0077532036 -0.017489443
0002d0 25 e6 43 3c dc 4d 90 3a 67 81 19 bd ff 5a 83 3c
       0.011956726 0.0011009532 -0.037476923 0.016034601
0002e0 c2 19 47 bb d5 62 d6 3c c4 c3 1a 3c c7 71 46 3b
       -0.0030380343 0.026170174 0.009446088 0.003028022
0002f0 06 ef 49 bc e5 5a ab bb e3 23 61 bc a1 d5 1e bc
       -0.012325054 -0.0052293413 -0.013741466 -0.009694488
000300 3c 1c f3 ba c2 8c 0e 3d e5 56 28 bb 9f 83 80 bb
       -0.0018547843 0.034802206 -0.0025686559 -0.0039219405
000310 83 a7 8e 3b 59 4d 1f 3c a7 12 ff bb 8a 5a b1 bc
       0.004353465 0.009723031 -0.007784206 -0.021649618
000320 84 42 d7 bb 0a 35 85 3c 14 dc c2 bb d4 5e af 39
       -0.0065692086 0.016260643 -0.0059466455 0.00033449254
000330 92 b5 4d bc c2 e1 f3 3b db 3c 56 3b 34 dd 3d ba
       -0.012555497 0.007442684 0.0032690081 -0.00072427397
000340 9b 9c 38 3c 43 de 29 bc eb ca e4 3a d8 aa 3c 3c
       0.011267806 -0.010367933 0.0017455494 0.011515342
000350 bf 23 bd 3b ad 51 82 3c 42 2d ef ba b5 2c 2b 3c
       0.0057720835 0.015908087 -0.0018247741 0.010447671
000360 0a 2c 03 3c c7 ac 19 3c af 90 d3 bb 05 c4 11 bc
       0.008006105 0.009379572 -0.0064564566 -0.008896832
000370 97 39 85 bc 96 13 a2 39 75 78 27 bc 3e 95 bc bc
       -0.016262813 0.0003091364 -0.01022159 -0.023020383
000380 5e b5 68 3b 11 4f c1 3c 3d c9 41 3c 3e 16 e6 3c
       0.0035508494 0.023597272 0.011827764 0.028086778
000390 72 8a 31 bb 4b 41 49 3c 0d 28 97 bc c1 de 78 3c
       -0.0027090576 0.012283633 -0.018451715 0.015189827
0003a0 bb cc 16 ba 5a 01 ce bb 87 9f 23 bb 42 d7 43 bb
       -0.0005752553 -0.006286782 -0.0024966912 -0.0029882942
0003b0 7f b3 69 bc af 6e f2 bb 47 e0 83 3c e3 6b 00 3b
       -0.014263987 -0.0073984484 0.016098155 0.0019595555
0003c0 e1 d4 86 3c a8 e0 aa 3a ba 72 31 3c 5a 13 0f 3d
       0.01645893 0.0013036923 0.010830576 0.034930564
0003d0 f5 8c 6e 3b 2d 16 21 3c 08 78 80 3b c5 74 c5 bb
       0.0036399935 0.009831947 0.003920559 -0.006025883
0003e0 f0 65 cf 3b 9b 01 0d b9 e1 29 0e bc c2 cf 44 3c
       0.0063292906 -0.00013447406 -0.008676977 0.012012424
0003f0 41 c7 a0 bb 2c 68 ce 3c 31 3d dd bb 12 5b a0 3b
       -0.0049065654 0.025196157 -0.0067516793 0.004893669

action_model._continuous_distribution.mu.bias f4 [3]
000000 fe ca 38 bb da 98 88 3c 26 05 80 3b
       -0.0028197165 0.016674448 0.0039068637

action_model._discrete_distribution.branches.0.weight f4 [1, 256]
000000 e5 4f 5a 3b 4f 07 e0 ba 57 46 98 3b 40 c5 ef 3b
       0.003331178 -0.0017092022 0.004647057 0.007317215
000010 98 6e e3 ba 15 0f 69 ba 29 1c bc bb 6a 8c 2c bc
       -0.0017351685 -0.0008890492 -0.0057406616 -0.010531524
000020 cf 43 df 3a 43 bb 09 bc 1a 76 99 3b ee 43 ae bb
       0.0017033758 -0.008406463 0.0046832683 -0.0053181564
000030 2f 1e 3c 3b bc 1a 16 3c 70 88 8a 3b 12 f1 d1 3b
       0.0028704514 0.009161647 0.0042276904 0.0064069116
000040 8e 0e 81 bb e0 ee 9b ba f5 96 9d bb 45 a1 13 bc
       -0.0039385026 -0.0011896752 -0.0048092552 -0.009010618
000050 00 db 62 bb f1 09 af 39 b1 64 2c bc 59 87 0b bb
       -0.0034615397 0.00033386008 -0.010522054 -0.002129039
000060 eb fa 00 3c 0c 1c 40 3c 1c f1 b5 3b 26 74 31 bb
       0.0078723235 0.011725437 0.005552424 -0.0027077287
000070 cc a3 35 3b e3 ee c0 bb 78 b9 59 3b 6a 2b 5d bc
       0.0027716039 -0.0058878525 0.003322212 -0.01349912
000080 f9 15 0f 3b e3 c5 90 3b 7c f7 3c 3b eb 93 2e bb
       0.0021833165 0.004418121 0.0028834036 -0.002663846
000090 43 7f f5 ba d8 19 75 3b 23 dc 63 bb 62 28 f8 ba
       -0.0018729944 0.0037399437 -0.0034768663 -0.0018932933
0000a0 fc cf 1d 38 c0 5b 9f bb 04 ae 2d bc 83 3a 33 bb
       3.7625417e-05 -0.0048632324 -0.010600571 -0.0027348108
0000b0 9b 67 07 bc 5d 71 97 3b ae 4e 2b 3c 7e 70 44 3c
       -0.008264448 0.0046216683 0.01045577 0.011989711
0000c0 ff 48 4c 3b 69 18 10 3c ed 6c f3 bb 1d 1a c9 ba
       0.0031171439 0.008794882 -0.0074287564 -0.0015342865
0000d0 0d c9 97 3b 2b f3 b7 3b 53 53 12 bb 62 ac bc 3b
       0.0046321214 0.0056137047 -0.0022327497 0.0057578543
0000e0 e1 30 12 bc 40 9a 67 3b 2f 41 a0 3b 6d cc 86 ba
       -0.008922786 0.0035339743 0.004890583 -0.0010284312
0000f0 20 58 53 bc ba 7a e7 3b 88 c2 1c 3a 7d ef 99 ba
       -0.012899429 0.0070641907 0.0005979915 -0.0011744347
000100 aa ed e8 3b fd e0 dd 39 b4 bc 04 3a 33 71 b2 bc
       0.00710841 0.00042320034 0.00050635193 -0.021782493
000110 5f 50 bc 3b db 5a 08 bb ed fe bb bb 87 4c 1b 3c
       0.0057468857 -0.0020806107 -0.0057371766 0.009478695
000120 97 55 87 bb bf 34 04 3b db d7 86 bb c6 97 30 3c
       -0.004130076 0.002017304 -0.0041150874 0.010778373
000130 5b 6d 67 3c 65 56 c8 3b 4e 4b 29 bb 22 b1 89 3b
       0.0141251935 0.0061138147 -0.0025832239 0.004202024
000140 05 a2 70 bb 16 6b 01 3c 1d 67 a5 3a 0a 26 e0 3b
       -0.0036717665 0.007899066 0.0012619231 0.006840472
000150 4a 86 4e 3b 38 ab e8 3b 35 96 7b 3c 9f 08 4b 3b
       0.0031513148 0.007100489 0.015355636 0.003098048
000160 2d 07 6c bb c5 7f c7 bb de 3b 25 ba f7 88 10 3c
       -0.003601502 -0.0060882294 -0.00063031714 0.008821717
000170 cd 63 0e bb 86 6c 9b 39 6f ee 00 bb c6 42 14 ba
       -0.0021726966 0.0002964476 -0.0019673367 -0.0005655702
000180 db 7b 30 bb 83 92 a0 bb fb e6 db 3a a0 fb 2c bb
       -0.0026929292 -0.004900278 0.0016777212 -0.0026395097
000190 cb d5 a7 3b c0 58 d3 3a 2b d8 53 3b dd 39 90 3b
       0.0051219217 0.0016124472 0.003232489 0.004401429
0001a0 1c 1b 95 3c 5d 82 8b ba 8e 46 8a ba 83 58 fd 3b
       0.018201403 -0.001064371 -0.0010549591 0.0077314987
0001b0 a7 96 de ba f3 84 20 bb 0a b5 85 3a 33 5d 4f 3c
       -0.0016982154 -0.0024493306 0.0010201049 0.012656498
0001c0 77 4d 97 ba cf 7c 80 3b dc 96 2c 3b 2f 83 99 b9
       -0.0011543472 0.0039211283 0.0026335036 -0.00029280173
0001d0 c0 89 ce 3b 97 86 9b 3a fa 0f d7 ba 25 f9 ec b9
       0.006303042 0.0011865672 -0.001640796 -0.00045199055
0001e0 b3 40 28 ba 6d 33 90 3b 96 d1 b1 bb 35 b7 7f 3a
       -0.00064183323 0.0044006617 -0.005426596 0.0009754778
0001f0 d8 fa 0a 3b c2 c9 e4 bb 7f 0b 80 ba 74 ff ad 3b
       0.0021206643 -0.006982059 -0.0009769051 0.0053099934
000200 a2 0f 63 3c 7f 92 31 bb e8 ca 96 bb 09 37 06 3c
       0.013858708 -0.0027095375 -0.004601825 0.008191832
000210 05 05 b6 bb de c4 07 bb 97 ac 5d 3b 73 c6 3c 3c
       -0.0055547976 -0.0020716707 0.0033824795 0.011521923
000220 03 57 5b bb 25 c7 b0 ba db 87 9b bb 6b 55 d8 b9
       -0.003346861 -0.0013487084 -0.00474642 -0.00041262372
000230 19 b8 28 bb 69 ed 3e bc 6b 9d 36 bb 02 67 5c 3b
       -0.0025744496 -0.011653283 -0.0027864825 0.0033630733
000240 cc 16 04 ba af 5e a8 b8 01 eb 42 3c 8f 03 1a bb
       -0.00050387974 -8.0285005e-05 0.01189685 -0.0023500656
000250 e7 7e 06 38 88 15 77 3b 9f 7c 39 bb c8 75 76 bb
       3.2066277e-05 0.0037702043 -0.002830304 -0.0037606824
000260 d8 e7 06 3b fb 3e 2f 3c 5d 4c 6d ba d3 10 1d 3c
       0.0020584967 0.010696168 -0.00090522115 0.009586531
000270 4e 4a c7 bb f8 3b ee 38 35 14 ff 3a d3 45 d2 bb
       -0.006081856 0.000113598944 0.0019460978 -0.006417015
000280 9f bd ba 3a 4e 51 1c bb 85 ed a1 bb 66 bd 3e bc
       0.0014247185 -0.0023852172 -0.0049416446 -0.011641836
000290 a1 06 85 3b 40 53 1d 3b 4c 09 99 bb 6f 02 91 3b
       0.004059628 0.002400592 -0.0046702977 0.004425339
0002a0 50 98 8d 3a cb b9 ec bb 4f 0c 23 bc b1 f4 97 bb
       0.0010802839 -0.0072242967 -0.009951665 -0.004637324
0002b0 93 43 da 3b 6c 07 39 bc 78 33 06 bb df a2 87 bb
       0.0066608875 -0.011293273 -0.0020477455 -0.004139289
0002c0 6d 55 67 3a 75 e6 e3 3b fc 4c aa 3a d7 0b 26 bc
       0.000882468 0.006954963 0.0012992914 -0.010134659
0002d0 bf 54 be 3b 4c 14 1a bc 83 89 63 3b b3 7f 90 b9
       0.0058084424 -0.009404253 0.0034719415 -0.00027560964
0002e0 a3 1b 0c bc 10 3f 53 3b 33 05 91 bb d2 4f 79 3c
       -0.008551511 0.0032233633 -0.0044256686 0.015216785
0002f0 e8 36 9d bb 0b 80 e9 ba 27 c6 df 3b 88 bf 26 39
       -0.004797805 -0.0017814649 0.0068290415 0.00015902345
000300 db aa e8 3b 6d 67 f5 3a c5 97 4c 3b b4 61 1f 3c
       0.0071004457 0.001872284 0.0031218391 0.009727884
000310 33 70 13 bc 0a fc 69 3b 16 e1 08 3c 73 0d 0b 3c
       -0.008998918 0.0035703206 0.008354446 0.008487093
000320 aa bf 4d ba 8b fb c0 3b 39 8e c0 3b 9f 90 96 3b
       -0.00078486896 0.0058893613 0.0058763293 0.004594877
000330 5b 8a 3f bb 83 38 3c b9 dd 2d 53 3b e2 ed c2 bb
       -0.0029226753 -0.0001795013 0.0032223382 -0.005948768
000340 9d 77 4e 3a 48 06 16 3b 90 cc cf 3b aa 66 88 3a
       0.00078761 0.0022891928 0.0063415244 0.0010406573
000350 b2 20 e7 bb dc e0 81 ba e7 8b a2 bb 50 0f 10 3c
       -0.007053458 -0.0009908932 -0.0049605253 0.008792713
000360 ba cb d3 bb ab da 61 38 bd c5 01 b9 85 08 6d b9
       -0.006463495 5.384783e-05 -0.00012376062 -0.00022605255
000370 30 bd d4 3b b3 96 b2 b9 41 da 91 ba fb 09 ec 3b
       0.0064922795 -0.00034063085 -0.0011127667 0.007203338
000380 15 68 26 3c 70 9d 68 3c d5 29 28 ba d7 3a ed 3b
       0.010156651 0.014197692 -0.0006414925 0.0072396803
000390 13 6b 1b 3c 4d 86 14 3b f4 4b 41 39 77 e1 36 3c
       0.009485978 0.0022663057 0.00018434209 0.011162153
0003a0 fe 03 a6 bb 31 98 b5 3a b5 53 fd 3b 58 11 0b 3b
       -0.005066394 0.0013854561 0.007730926 0.0021220054
0003b0 58 a3 7b 39 fb 7b 62 bb 88 ab 31 bb 3f 62 2d bb
       0.00023998076 -0.0034558761 -0.0027110297 -0.0026456264
0003c0 83 5c ac bb 1f de 6d 3c 8e c4 c3 ba d0 bb cb 3b
       -0.0052600517 0.01451829 -0.0014935897 0.0062174574
0003d0 31 32 ab 3b 77 54 2b bb c2 e8 1e bc cc 82 28 3b
       0.005224489 -0.0026142874 -0.0096990485 0.0025712727
0003e0 7b e3 a7 3b 93 07 b8 bb 5f f1 85 bb 20 4d bf ba
       0.0051235533 -0.0056161373 -0.0040876116 -0.0014595129
0003f0 1b 1d 4d 3b 7b fe 03 3b fe 8d 3f 3c 92 2d 14 bc
       0.0031297866 0.0020140696 0.011691568 -0.009044068

onnx::Div_80 f4 [36]
000000 e1 ab a7 3e 90 fd cc 3e 3d 70 fd 3e f6 17 b4 3e
       0.3274832 0.40037203 0.49499694 0.3517453
000010 16 0f a8 3e cf 3c cc 3e 3d 19 fe 3e d6 d9 b5 3e
       0.3282401 0.39890143 0.4962863 0.35517758
000020 c7 4b a7 3e 77 89 cc 3e 31 22 fe 3e 10 48 b6 3e
       0.32675 0.39948627 0.4963546 0.35601854
000030 96 42 ad 3e 77 d7 c9 3e db 50 fe 3e aa 6d b4 3e
       0.33839864 0.394222 0.49671063 0.35239917
000040 ea e9 ab 3e ce f7 c9 3e 30 4d fe 3e af 60 b5 3e
       0.335769 0.39446872 0.49668264 0.35425326
000050 54 da ac 3e 06 3f af 3e 09 07 f9 3e 30 51 b4 3e
       0.3376032 0.3422777 0.4863818 0.3521819
000060 24 9b ae 3e 87 8f ad 3e ce 58 f9 3e 46 25 b6 3e
       0.34102738 0.33898565 0.48700565 0.35575312
000070 e2 e4 a3 3e f4 9b 85 3d c5 05 d9 3e 34 79 b3 3e
       0.3201056 0.06523886 0.42387214 0.35053408
000080 c5 13 a7 3e 16 2d 81 3d 13 2d db 3e 76 7d b5 3e
       0.3263227 0.063074276 0.42807826 0.35447282

onnx::Div_83 f4 [13]
000000 23 8e 6c 3f af 51 8d 46 2e 98 6c 3f 33 36 30 40
       0.92404383 18088.842 0.9241971 2.753308
000010 f3 b9 83 43 88 13 03 3b 88 13 03 3b 88 13 03 3b
       263.45273 0.0020000655 0.0020000655 0.0020000655
000020 88 13 03 3b 88 13 03 3b 88 13 03 3b 88 13 03 3b
       0.0020000655 0.0020000655 0.0020000655 0.0020000655
000030 88 13 03 3b
       0.0020000655
