results/run3/AvoidAgent/AvoidAgent-26891.pt (torch, 642723 bytes, 13 tensors)

network_body._body_endoder.seq_layers.0.weight f4 [256, 49]
0.036099672 0.04628927 0.08527933 0.18357566 0.01518333 -0.119803876 0.06738484 -0.005135303
0.16748933 -0.059806995 -0.3220862 -0.33014116 0.21652734 0.026287742 0.162501 -0.12651008
-0.028916188 -0.13360143 0.06447737 -0.10642387 0.07615772 0.06925719 0.016109865 -0.08704282
-0.15429597 0.018867394 -1.400854e-05 -0.16061747 0.2881295 -0.049373385 0.11048412 0.1569035
-0.19775797 -0.029916605 0.18639985 0.051777128 -0.08837704 0.24053879 0.22325885 -0.022933133
-0.10904899 0.3157351 0.17947902 -0.027359255 -0.0418117 -0.09939733 -0.14973429 0.2462988
-0.26477712 -0.20634833 0.19744204 0.13046438 -0.15587789 -0.15499578 -0.0036913927 0.15498011
0.13679177 0.11012675 -0.18549357 -0.011671753 0.15426016 0.09925018 0.0422241 -0.14435677
0.24236569 -0.07837146 0.21425429 0.10601068 0.04770877 0.14794171 -0.07873867 0.42851883
-0.17042331 -0.11031 0.0038420495 -0.16100082 0.13903081 0.1268331 -0.020504812 -0.082793035
0.39260203 0.25656685 -0.16461067 -0.39407247 0.112222046 0.14325385 -0.075959854 -0.12927237
0.1010627 0.055858944 0.08354842 0.059727088 0.054869898 -0.15561096 0.020135218 0.27015865
0.027703958 0.05960118 0.1620127 0.039249323 -0.045004483 0.0049870573 -0.009568757 -0.01743395
0.025261588 -0.014762286 0.04386941 0.12184461 -0.11635104 0.06443085 -0.053113423 -0.16139156
-0.050607964 -0.07114457 -0.20270334 -0.034394763 -0.15583163 -0.2223309 -0.0005646534 0.26393673
-0.039180636 -0.023587067 0.15810235 -0.010916246 -0.0049149613 -0.13484897 0.09814484 -0.30510798
0.07530054 0.26626286 0.15985523 0.25949562 -0.2791806 -0.22904952 0.014904725 0.07056447
0.18854481 0.2055429 -0.017144285 0.0076260976 -0.11495723 -0.14018168 -0.24685939 -0.20524177
-0.096671514 -0.053249665 -0.0397816 -0.022356458 -0.053380903 0.10356031 -0.09284534 0.24106994
-0.13737212 0.008644473 -0.19509204 -0.122193016 -0.10905896 0.23859268 -0.1557208 -0.053128157
-0.11091741 0.13461845 0.019119166 0.05438702 0.036827125 0.0030561795 -0.06908189 0.21592706
-0.045066826 0.12018997 0.26667553 -0.053235155 0.045297947 -0.1682082 -0.0738593 -0.03823617
-0.32077324 -0.14159662 -0.070013 0.0007616828 -0.012021596 -0.15138781 0.20148608 0.08163351
0.118385576 -0.19329622 0.10543708 -0.034341108 -0.09440936 -0.15144065 0.14428568 0.02852811
0.12533358 -0.100260206 -0.062177055 -0.09104181 -0.13694623 0.083979435 0.02372214 -0.04081636
-0.10209037 -0.12661588 0.2676819 -0.22385482 0.1034028 0.030192936 -0.2321634 0.14236957
-0.20925753 0.033435855 0.05297858 -0.1542062 -0.105741546 0.24345273 0.17720987 -0.08514645
-0.02171827 0.342552 -0.060574315 -0.05068702 0.04054459 0.03829725 0.15736292 0.058065847
0.0054474166 -0.12218275 -0.19404536 0.2851462 -0.0973671 -0.10338144 -0.0058057588 -0.06217157
0.08587815 -0.117698014 0.13959506 0.14403819 -0.22153068 0.3098309 -0.17946237 -0.14881526
0.19554634 0.13815908 -0.07015121 -0.058476273 -0.08874379 0.07529845 -0.17701593 -0.15341103
-0.10358889 -0.1195064 -0.21062598 -0.21215412 0.088918276 -0.04401838 -0.37756154 -0.042996388
00000000: 40dd 133d d199 3d3d eea6 ae3d 42fb 3b3e
00000010: 80c3 783c bc5b f5bd 1001 8a3d 0b46 a8bb
00000020: 5382 2b3e 2ef8 74bd 7be8 a4be 4308 a9be
00000030: 58b9 5d3e 6459 d73c aa66 263e dc8b 01be
00000040: a4e1 ecbc d0ce 08be b60c 843d c2f4 d9bd
00000050: 94f8 9b3d b7d6 8d3d d6f8 833c 8243 b2bd
00000060: c3ff 1dbe cb8f 9a3c 3906 6bb7 e878 24be
00000070: b685 933e bf3b 4abd 8045 e23d 50ab 203e
00000080: 1181 4abe ab13 f5bc 9adf 3e3e 4114 543d
00000090: 06ff b4bd cd4f 763e f89d 643e 44de bbbc
000000a0: 1455 dfbd 08a8 a13e 59c9 373e 8420 e0bc
000000b0: bf42 2bbd d490 cbbd f253 19be c135 7c3e
000000c0: de90 87be fa4c 53be 3f2e 4a3e 7498 053e
000000d0: 749e 1fbe 37b7 1ebe 4beb 71bb 1bb3 1e3e
000000e0: 2413 0c3e 228a e13d 07f2 3dbe e13a 3fbc
000000f0: 60f6 1d3e ae43 cb3d 2ef3 2c3d 43d2 13be
00000100: b62e 783e 3781 a0bd 7a65 5b3e 211c d93d
00000110: 456a 433d 087e 173e bd41 a1bd d266 db3e
00000120: 7383 2ebe 36ea e1bd e5ca 7b3b 66dd 24be
00000130: 185e 0e3e 89e0 013e b5f9 a7bc 658f a9bd
00000140: 2203 c93e bb5c 833e b38f 28be dec3 c9be
00000150: acd4 e53d 23b1 123e d790 9bbd fa5f 04be
00000160: f6f9 ce3d 59cc 643d 6f1b ab3d 64a4 743d
00000170: 42bf 603d 7b58 1fbe 9df2 a43c 3c52 8a3e
00000180: 69f3 e23c 5e20 743d a8e6 253e e6c3 203d
00000190: 9f56 38bd 786a a33b 47c6 1cbc a5d1 8ebc
000001a0: 64f1 ce3c 84dd 71bc 69b0 333d ab89 f93d
000001b0: 7449 eebd 52f4 833d 768d 59bd d443 25be
000001c0: 4c4a 4fbd 3fb4 91bd 7791 4fbe 86e1 0cbd
000001d0: 5492 1fbe b6aa 63be 4005 14ba b722 873e
000001e0: e07b 20bd aa39 c1bc 95e5 213e 0eda 32bc
000001f0: af0d a1bb d915 0abe 2900 c93d 1d37 9cbe
00000200: 2b37 9a3d 9b53 883e 17b1 233e 9cdc 843e
00000210: c2f0 8ebe f58b 6abe f332 743c 1b84 903d
00000220: e411 413e d779 523e 2c72 8cbc 58e4 f93b
00000230: b26e ebbd c98b 0fbe b5c8 7cbe e62a 52be
00000240: b7fb c5bd 521c 5abd 08f2 22bd e424 b7bc
00000250: efa5 5abd 6e17 d43d b325 bebd 0adb 763e
00000260: 47ab 0cbe 8ca1 0d3c 35c6 47be 5540 fabd
00000270: 4e5a dfbd a451 743e 4675 1fbe e99c 59bd
00000280: ab28 e3bd 6bd9 093e cc9f 9c3c edc4 5e3d
00000290: 0ad8 163d 2f4a 483b ce7a 8dbd fc1b 5d3e
000002a0: fe97 38bd 2926 f63d b289 883e 1b0d 5abd
000002b0: 578a 393d c53e 2cbe 8b43 97bd 889d 1cbd
000002c0: 643c a4be b4fe 10be fa62 8fbd abab 473a
000002d0: 3af6 44bc 6805 1bbe 5e52 4e3e 782f a73d
000002e0: 2374 f23d 72ef 45be 65ef d73d 43a9 0cbd
000002f0: b259 c1bd 4213 1bbe a0bf 133e c8b3 e93c
00000300: 7257 003e 3955 cdbd 5ead 7ebd 2174 babd
00000310: a23b 0cbe 69fd ab3d ef54 c23c 0e2f 27bd
00000320: c214 d1bd 98a7 01be 9a0d 893e 333a 65be
00000330: d9c4 d33d 2d57 f73c 3ebc 6dbe 54c9 113e
00000340: 9b47 56be 09f4 083d 1100 593d 3be8 1dbe
00000350: 068f d8bd ac4b 793e 8176 353e 4361 aebd
00000360: 83ea b1bc fa62 af3e c61c 78bd 319d 4fbd
00000370: 1612 263d 94dd 1c3d bf23 213e 74d6 6d3d
00000380: 3e80 b23b f33a fabd d4b3 46be affe 913e
00000390: 6768 c7bd a6b9 d3bd 3c3e bebb 9ea7 7ebd
000003a0: e2e0 af3d a80b f1bd 02f2 0e3e bf7e 133e
000003b0: f0d8 62be 28a2 9e3e fcc4 37be 0763 18be
000003c0: 4d3d 483e 9379 0d3e 70ab 8fbd d184 6fbd
000003d0: 4ebf b5bd 1336 9a3d aa43 35be c817 1dbe
000003e0: 6926 d4bd c5bf f4bd 56ae 57be ee3e 59be
000003f0: c91a b63d 9e4c 34bd bf4f c1be fb1c 30bd

network_body._body_endoder.seq_layers.0.bias f4 [256]
0.0 0.0 0.0 0.0 0.0 0.0 0.0 0.0
0.0 0.0 0.0 0.0 0.0 0.0 0.0 0.0
0.0 0.0 0.0 0.0 0.0 0.0 0.0 0.0
0.0 0.0 0.0 0.0 0.0 0.0 0.0 0.0
0.0 0.0 0.0 0.0 0.0 0.0 0.0 0.0
0.0 0.0 0.0 0.0 0.0 0.0 0.0 0.0
0.0 0.0 0.0 0.0 0.0 0.0 0.0 0.0
0.0 0.0 0.0 0.0 0.0 0.0 0.0 0.0
0.0 0.0 0.0 0.0 0.0 0.0 0.0 0.0
0.0 0.0 0.0 0.0 0.0 0.0 0.0 0.0
0.0 0.0 0.0 0.0 0.0 0.0 0.0 0.0
0.0 0.0 0.0 0.0 0.0 0.0 0.0 0.0
0.0 0.0 0.0 0.0 0.0 0.0 0.0 0.0
0.0 0.0 0.0 0.0 0.0 0.0 0.0 0.0
0.0 0.0 0.0 0.0 0.0 0.0 0.0 0.0
0.0 0.0 0.0 0.0 0.0 0.0 0.0 0.0
0.0 0.0 0.0 0.0 0.0 0.0 0.0 0.0
0.0 0.0 0.0 0.0 0.0 0.0 0.0 0.0
0.0 0.0 0.0 0.0 0.0 0.0 0.0 0.0
0.0 0.0 0.0 0.0 0.0 0.0 0.0 0.0
0.0 0.0 0.0 0.0 0.0 0.0 0.0 0.0
0.0 0.0 0.0 0.0 0.0 0.0 0.0 0.0
0.0 0.0 0.0 0.0 0.0 0.0 0.0 0.0
0.0 0.0 0.0 0.0 0.0 0.0 0.0 0.0
0.0 0.0 0.0 0.0 0.0 0.0 0.0 0.0
0.0 0.0 0.0 0.0 0.0 0.0 0.0 0.0
0.0 0.0 0.0 0.0 0.0 0.0 0.0 0.0
0.0 0.0 0.0 0.0 0.0 0.0 0.0 0.0
0.0 0.0 0.0 0.0 0.0 0.0 0.0 0.0
0.0 0.0 0.0 0.0 0.0 0.0 0.0 0.0
0.0 0.0 0.0 0.0 0.0 0.0 0.0 0.0
0.0 0.0 0.0 0.0 0.0 0.0 0.0 0.0
00000000: 0000 0000 0000 0000 0000 0000 0000 0000
00000010: 0000 0000 0000 0000 0000 0000 0000 0000
00000020: 0000 0000 0000 0000 0000 0000 0000 0000
00000030: 0000 0000 0000 0000 0000 0000 0000 0000
00000040: 0000 0000 0000 0000 0000 0000 0000 0000
00000050: 0000 0000 0000 0000 0000 0000 0000 0000
00000060: 0000 0000 0000 0000 0000 0000 0000 0000
00000070: 0000 0000 0000 0000 0000 0000 0000 0000
00000080: 0000 0000 0000 0000 0000 0000 0000 0000
00000090: 0000 0000 0000 0000 0000 0000 0000 0000
000000a0: 0000 0000 0000 0000 0000 0000 0000 0000
000000b0: 0000 0000 0000 0000 0000 0000 0000 0000
000000c0: 0000 0000 0000 0000 0000 0000 0000 0000
000000d0: 0000 0000 0000 0000 0000 0000 0000 0000
000000e0: 0000 0000 0000 0000 0000 0000 0000 0000
000000f0: 0000 0000 0000 0000 0000 0000 0000 0000
00000100: 0000 0000 0000 0000 0000 0000 0000 0000
00000110: 0000 0000 0000 0000 0000 0000 0000 0000
00000120: 0000 0000 0000 0000 0000 0000 0000 0000
00000130: 0000 0000 0000 0000 0000 0000 0000 0000
00000140: 0000 0000 0000 0000 0000 0000 0000 0000
00000150: 0000 0000 0000 0000 0000 0000 0000 0000
00000160: 0000 0000 0000 0000 0000 0000 0000 0000
00000170: 0000 0000 0000 0000 0000 0000 0000 0000
00000180: 0000 0000 0000 0000 0000 0000 0000 0000
00000190: 0000 0000 0000 0000 0000 0000 0000 0000
000001a0: 0000 0000 0000 0000 0000 0000 0000 0000
000001b0: 0000 0000 0000 0000 0000 0000 0000 0000
000001c0: 0000 0000 0000 0000 0000 0000 0000 0000
000001d0: 0000 0000 0000 0000 0000 0000 0000 0000
000001e0: 0000 0000 0000 0000 0000 0000 0000 0000
000001f0: 0000 0000 0000 0000 0000 0000 0000 0000
00000200: 0000 0000 0000 0000 0000 0000 0000 0000
00000210: 0000 0000 0000 0000 0000 0000 0000 0000
00000220: 0000 0000 0000 0000 0000 0000 0000 0000
00000230: 0000 0000 0000 0000 0000 0000 0000 0000
00000240: 0000 0000 0000 0000 0000 0000 0000 0000
00000250: 0000 0000 0000 0000 0000 0000 0000 0000
00000260: 0000 0000 0000 0000 0000 0000 0000 0000
00000270: 0000 0000 0000 0000 0000 0000 0000 0000
00000280: 0000 0000 0000 0000 0000 0000 0000 0000
00000290: 0000 0000 0000 0000 0000 0000 0000 0000
000002a0: 0000 0000 0000 0000 0000 0000 0000 0000
000002b0: 0000 0000 0000 0000 0000 0000 0000 0000
000002c0: 0000 0000 0000 0000 0000 0000 0000 0000
000002d0: 0000 0000 0000 0000 0000 0000 0000 0000
000002e0: 0000 0000 0000 0000 0000 0000 0000 0000
000002f0: 0000 0000 0000 0000 0000 0000 0000 0000
00000300: 0000 0000 0000 0000 0000 0000 0000 0000
00000310: 0000 0000 0000 0000 0000 0000 0000 0000
00000320: 0000 0000 0000 0000 0000 0000 0000 0000
00000330: 0000 0000 0000 0000 0000 0000 0000 0000
00000340: 0000 0000 0000 0000 0000 0000 0000 0000
00000350: 0000 0000 0000 0000 0000 0000 0000 0000
00000360: 0000 0000 0000 0000 0000 0000 0000 0000
00000370: 0000 0000 0000 0000 0000 0000 0000 0000
00000380: 0000 0000 0000 0000 0000 0000 0000 0000
00000390: 0000 0000 0000 0000 0000 0000 0000 0000
000003a0: 0000 0000 0000 0000 0000 0000 0000 0000
000003b0: 0000 0000 0000 0000 0000 0000 0000 0000
000003c0: 0000 0000 0000 0000 0000 0000 0000 0000
000003d0: 0000 0000 0000 0000 0000 0000 0000 0000
000003e0: 0000 0000 0000 0000 0000 0000 0000 0000
000003f0: 0000 0000 0000 0000 0000 0000 0000 0000

network_body._body_endoder.seq_layers.2.weight f4 [256, 256]
0.072759144 -0.01883576 -0.005155394 0.029017298 -0.037710905 0.043235637 -0.02619045 0.027445925
0.14193502 -0.043973137 0.037543107 -0.08415213 0.007558589 0.049306996 0.015525054 -0.04590907
0.030930392 -0.048631992 -0.026188323 -0.12042791 0.05052591 0.013308649 0.04071428 -0.09495996
0.018299324 -0.024472356 -0.0666801 -0.028841339 0.055697188 -0.025411893 0.0062558576 0.05093694
0.061196543 0.038755424 0.11149603 -0.006229673 -0.083960444 0.0037161866 0.027870525 0.044969022
-0.07869389 0.056034226 -0.03380392 -0.077627204 0.12176144 0.014946445 -0.01844392 0.08173629
0.0134576345 -0.077027254 0.06709753 -0.046095543 0.072672315 -0.044576418 0.0018544494 0.114116006
0.08742488 -0.09064948 0.04272074 -0.12627317 -0.042067762 -0.010352652 -0.05288209 0.002051096
-0.05911481 0.025902426 0.094212644 -0.03832897 0.044297192 0.07433382 0.037683755 -0.037609812
-0.005651743 0.07912775 0.0091393255 -0.07293107 0.0012522185 -0.050229844 -0.095230125 0.056828715
0.009651628 -0.027514849 -0.059186142 0.025596343 -0.046417534 0.015136958 -0.02905848 0.042776946
-0.029575268 -0.03253131 -0.08227255 -0.14314716 -0.086583436 -0.09619726 -0.004127178 0.11109188
0.031240718 0.06929082 0.056705415 -0.021755999 0.0027897237 0.04062705 0.033530537 -0.058188908
0.034042563 0.09220775 0.046043403 0.11856016 -0.05494105 0.035014153 -0.03782254 0.10826492
0.037195873 0.0041471897 0.030166617 -0.066419356 -0.03498075 0.07244926 -0.033673905 -0.073484376
0.09490842 0.04865803 -0.07252355 0.02734007 -0.032321874 0.046023406 0.013828162 -0.0713955
-0.049205713 -0.042500988 0.10683918 -0.0734583 0.038174853 -0.01573039 -0.13755636 -0.013502745
0.016713541 -0.042810638 0.047436938 0.07206272 0.100136064 0.028151486 -0.031699706 0.07001707
-0.036015518 -0.0052734404 0.07314551 -0.12313656 0.030041367 0.053013213 0.058756515 -0.04117378
0.016218051 -0.074711196 -0.013080064 0.024910217 -0.10274838 -0.080794826 0.033319056 -0.06636023
0.109363474 0.017490488 0.015484193 0.030965691 0.06412519 0.03796131 0.020263257 -0.009030041
-0.14766333 0.08117059 -0.07232653 0.060010765 -0.055534635 -0.09994131 0.13812998 -0.042450707
0.00047576407 -0.04819094 -0.046878424 -0.019692695 0.022887861 -0.060123462 0.077709846 0.0017124123
-0.049659938 0.011637475 -0.06003987 -0.0213143 0.017691799 -0.005972661 -0.03321294 0.021654172
0.010424951 0.09032286 0.10486191 -0.08705157 0.05913932 0.00015766708 0.041489158 0.06780634
-0.021408854 0.032549493 0.021361316 -0.012987833 0.0700448 -0.036215644 0.011149672 -0.017740572
0.047527064 -0.06657141 -0.0051882532 0.071483925 0.0375781 0.03636592 0.017496912 0.022459064
-0.08649043 -0.023968669 0.0045121494 -0.015524664 -0.10411257 0.06932978 -0.050580565 -0.102011286
-0.07487543 0.052149706 -0.07629389 0.057062753 -0.08434586 -0.050895236 0.13437645 -0.0045222924
0.02118811 -0.062174838 0.07167627 0.030440392 0.10652511 -0.10352122 -0.02573628 -0.050050016
0.0018540485 0.01250149 -0.13617676 -0.035595734 -0.05235566 0.07759467 -0.07029257 -0.09530157
-0.015521132 0.025996028 0.042297233 0.013543491 0.05883927 -0.037102517 -0.14571823 0.0064234957
00000000: bf02 953d 744d 9abc 94ee a8bb afb5 ed3c
00000010: c076 1abd da17 313d 5b8d d6bc 47d6 e03c
00000020: 6a57 113e 2d1d 34bd cdc6 193d f457 acbd
00000030: 0aae f73b 22f6 493d cc5c 7e3c 260b 3cbd
00000040: bc61 fd3c 5732 47bd e588 d6bc e8a2 f6bd
00000050: 42f4 4e3d 850c 5a3c 04c4 263d 5e7a c2bd
00000060: 77e8 953c 407a c8bc 948f 88bd ac44 ecbc
00000070: bc22 643d 9a2c d0bc f0fd cc3b 41a3 503d
00000080: 3aa9 7a3d 02be 1e3d 0858 e43d 4922 ccbb
00000090: 74f3 abbd 448b 733b ba50 e43c 7031 383d
000000a0: 432a a1bd 2584 653d fb75 0abd 03fb 9ebd
000000b0: 105e f93d efe1 743c b417 97bc 5b65 a73d
000000c0: 697d 5c3c 77c0 9dbd 6e6a 893d aece 3cbd
000000d0: 39d5 943d c395 36bd ff10 f33a a7b5 e93d
000000e0: d10b b33d 6fa6 b9bd f1fb 2e3d c14d 01be
000000f0: 3f4f 2cbd 2b9e 29bc e49a 58bd ae6b 063b
00000100: 5f22 72bd 5331 d43c 8ff2 c03d d7fe 1cbd
00000110: f970 353d 543c 983d 485a 1a3d bf0c 1abd
00000120: 4232 b9bb bb0d a23d 1cbd 153c e35c 95bd
00000130: 7b21 a43a cfbd 4dbd 0308 c3bd 3ac5 683d
00000140: dd21 1e3c d266 e1bc 2b6d 72bd 6caf d13c
00000150: 5020 3ebd 0101 783c 0d0c eebc e136 2f3d
00000160: d547 f2bc 8d3f 05bd 837e a8bd 2b95 12be
00000170: a852 b1bd 1203 c5bd 473d 87bb 2484 e33d
00000180: 89ec ff3c 58e8 8d3d f043 683d a339 b2bc
00000190: ccd3 363b 8d68 263d 5157 093d 7e57 6ebd
000001a0: 3770 0b3d 6bd7 bc3d 0298 3c3d abcf f23d
000001b0: de09 61bd 006b 0f3d cfeb 1abd 00ba dd3d
000001c0: b35a 183d 26e5 873b fb1f f73c df06 88bd
000001d0: fa47 0fbd 4760 943d a6ed 09bd fa7e 96bd
000001e0: 595f c23d a44d 473d 3a87 94bd 48f8 df3c
000001f0: f163 04bd 0a83 3c3d 848f 623c ce37 92bd
00000200: ee8b 49bd 8415 2ebd 80ce da3d 4e71 96bd
00000210: 3c5d 1c3d 05dd 80bc 93db 0cbe 9e3a 5dbc
00000220: d6ea 883c 355a 2fbd 3c4d 423d 9f95 933d
00000230: 2314 cd3d f29d e63c 8dd7 01bd 1c65 8f3d
00000240: 0285 13bd d3cc acbb 50cd 953d 052f fcbd
00000250: 5019 f63c 6224 593d acaa 703d d6a5 28bd
00000260: b8db 843c 2f02 99bd c44d 56bc 8310 cc3c
00000270: be6d d2bd c277 a5bd 9079 083d dfe7 87bd
00000280: f5f9 df3d 3648 8f3c 6ab1 7d3c c3ab fd3c
00000290: 1154 833d 527d 1b3d 21ff a53c bdf2 13bc
000002a0: 0e35 17be c43c a63d ef1f 94bd d9cd 753d
000002b0: 4978 63bd 08ae ccbd f271 0d3e cbe0 2dbd
000002c0: f96f f939 dd63 45bd 9703 40bd 9352 a1bc
000002d0: 537f bb3c 0544 76bd 5726 9f3d 0673 e03a
000002e0: 3868 4bbd 1cab 3e3c 5eec 75bd 549b aebc
000002f0: 64ee 903c 50b6 c3bb 4b0a 08bd 1764 b13c
00000300: 6acd 2a3c 31fb b83d d7c1 d63d 1848 b2bd
00000310: 123c 723d 6f53 2539 89f0 293d 0dde 8a3d
00000320: 9f61 afbc 9e52 053d edfd ae3c ebca 54bc
00000330: a673 8f3d db56 14bd 1dad 363c ad54 91bc
00000340: bdab 423d 9756 88bd 3902 aabb 2a66 923d
00000350: 7eeb 193d 6ef4 143d af55 8f3c 12fc b73c
00000360: e521 b1bd f159 c4bc a7da 933b 295b 7ebc
00000370: f938 d5bd c6fc 8d3d 912d 4fbd 4beb d0bd
00000380: 4a58 99bd ee9a 553d f93f 9cbd a2ba 693d
00000390: 86bd acbd 8677 50bd fb99 093e bd2f 94bb
000003a0: b092 ad3c 0bab 7ebd 02cb 923d 215e f93c
000003b0: d629 da3d ef02 d4bd e4d4 d2bc 3f01 4dbd
000003c0: 8b03 f33a 0dd3 4c3c ec71 0bbe d5cc 11bd
000003d0: e372 56bd f4e9 9e3d 8df5 8fbd 782d c3bd
000003e0: 594c 7ebc 9ff5 d43c dd3f 2d3d 85e5 5d3c
000003f0: 7201 713d cff8 17bd 2937 15be 307c d23b

network_body._body_endoder.seq_layers.2.bias f4 [256]
0.0 0.0 0.0 0.0 0.0 0.0 0.0 0.0
0.0 0.0 0.0 0.0 0.0 0.0 0.0 0.0
0.0 0.0 0.0 0.0 0.0 0.0 0.0 0.0
0.0 0.0 0.0 0.0 0.0 0.0 0.0 0.0
0.0 0.0 0.0 0.0 0.0 0.0 0.0 0.0
0.0 0.0 0.0 0.0 0.0 0.0 0.0 0.0
0.0 0.0 0.0 0.0 0.0 0.0 0.0 0.0
0.0 0.0 0.0 0.0 0.0 0.0 0.0 0.0
0.0 0.0 0.0 0.0 0.0 0.0 0.0 0.0
0.0 0.0 0.0 0.0 0.0 0.0 0.0 0.0
0.0 0.0 0.0 0.0 0.0 0.0 0.0 0.0
0.0 0.0 0.0 0.0 0.0 0.0 0.0 0.0
0.0 0.0 0.0 0.0 0.0 0.0 0.0 0.0
0.0 0.0 0.0 0.0 0.0 0.0 0.0 0.0
0.0 0.0 0.0 0.0 0.0 0.0 0.0 0.0
0.0 0.0 0.0 0.0 0.0 0.0 0.0 0.0
0.0 0.0 0.0 0.0 0.0 0.0 0.0 0.0
0.0 0.0 0.0 0.0 0.0 0.0 0.0 0.0
0.0 0.0 0.0 0.0 0.0 0.0 0.0 0.0
0.0 0.0 0.0 0.0 0.0 0.0 0.0 0.0
0.0 0.0 0.0 0.0 0.0 0.0 0.0 0.0
0.0 0.0 0.0 0.0 0.0 0.0 0.0 0.0
0.0 0.0 0.0 0.0 0.0 0.0 0.0 0.0
0.0 0.0 0.0 0.0 0.0 0.0 0.0 0.0
0.0 0.0 0.0 0.0 0.0 0.0 0.0 0.0
0.0 0.0 0.0 0.0 0.0 0.0 0.0 0.0
0.0 0.0 0.0 0.0 0.0 0.0 0.0 0.0
0.0 0.0 0.0 0.0 0.0 0.0 0.0 0.0
0.0 0.0 0.0 0.0 0.0 0.0 0.0 0.0
0.0 0.0 0.0 0.0 0.0 0.0 0.0 0.0
0.0 0.0 0.0 0.0 0.0 0.0 0.0 0.0
0.0 0.0 0.0 0.0 0.0 0.0 0.0 0.0
00000000: 0000 0000 0000 0000 0000 0000 0000 0000
00000010: 0000 0000 0000 0000 0000 0000 0000 0000
00000020: 0000 0000 0000 0000 0000 0000 0000 0000
00000030: 0000 0000 0000 0000 0000 0000 0000 0000
00000040: 0000 0000 0000 0000 0000 0000 0000 0000
00000050: 0000 0000 0000 0000 0000 0000 0000 0000
00000060: 0000 0000 0000 0000 0000 0000 0000 0000
00000070: 0000 0000 0000 0000 0000 0000 0000 0000
00000080: 0000 0000 0000 0000 0000 0000 0000 0000
00000090: 0000 0000 0000 0000 0000 0000 0000 0000
000000a0: 0000 0000 0000 0000 0000 0000 0000 0000
000000b0: 0000 0000 0000 0000 0000 0000 0000 0000
000000c0: 0000 0000 0000 0000 0000 0000 0000 0000
000000d0: 0000 0000 0000 0000 0000 0000 0000 0000
000000e0: 0000 0000 0000 0000 0000 0000 0000 0000
000000f0: 0000 0000 0000 0000 0000 0000 0000 0000
00000100: 0000 0000 0000 0000 0000 0000 0000 0000
00000110: 0000 0000 0000 0000 0000 0000 0000 0000
00000120: 0000 0000 0000 0000 0000 0000 0000 0000
00000130: 0000 0000 0000 0000 0000 0000 0000 0000
00000140: 0000 0000 0000 0000 0000 0000 0000 0000
00000150: 0000 0000 0000 0000 0000 0000 0000 0000
00000160: 0000 0000 0000 0000 0000 0000 0000 0000
00000170: 0000 0000 0000 0000 0000 0000 0000 0000
00000180: 0000 0000 0000 0000 0000 0000 0000 0000
00000190: 0000 0000 0000 0000 0000 0000 0000 0000
000001a0: 0000 0000 0000 0000 0000 0000 0000 0000
000001b0: 0000 0000 0000 0000 0000 0000 0000 0000
000001c0: 0000 0000 0000 0000 0000 0000 0000 0000
000001d0: 0000 0000 0000 0000 0000 0000 0000 0000
000001e0: 0000 0000 0000 0000 0000 0000 0000 0000
000001f0: 0000 0000 0000 0000 0000 0000 0000 0000
00000200: 0000 0000 0000 0000 0000 0000 0000 0000
00000210: 0000 0000 0000 0000 0000 0000 0000 0000
00000220: 0000 0000 0000 0000 0000 0000 0000 0000
00000230: 0000 0000 0000 0000 0000 0000 0000 0000
00000240: 0000 0000 0000 0000 0000 0000 0000 0000
00000250: 0000 0000 0000 0000 0000 0000 0000 0000
00000260: 0000 0000 0000 0000 0000 0000 0000 0000
00000270: 0000 0000 0000 0000 0000 0000 0000 0000
00000280: 0000 0000 0000 0000 0000 0000 0000 0000
00000290: 0000 0000 0000 0000 0000 0000 0000 0000
000002a0: 0000 0000 0000 0000 0000 0000 0000 0000
000002b0: 0000 0000 0000 0000 0000 0000 0000 0000
000002c0: 0000 0000 0000 0000 0000 0000 0000 0000
000002d0: 0000 0000 0000 0000 0000 0000 0000 0000
000002e0: 0000 0000 0000 0000 0000 0000 0000 0000
000002f0: 0000 0000 0000 0000 0000 0000 0000 0000
00000300: 0000 0000 0000 0000 0000 0000 0000 0000
00000310: 0000 0000 0000 0000 0000 0000 0000 0000
00000320: 0000 0000 0000 0000 0000 0000 0000 0000
00000330: 0000 0000 0000 0000 0000 0000 0000 0000
00000340: 0000 0000 0000 0000 0000 0000 0000 0000
00000350: 0000 0000 0000 0000 0000 0000 0000 0000
00000360: 0000 0000 0000 0000 0000 0000 0000 0000
00000370: 0000 0000 0000 0000 0000 0000 0000 0000
00000380: 0000 0000 0000 0000 0000 0000 0000 0000
00000390: 0000 0000 0000 0000 0000 0000 0000 0000
000003a0: 0000 0000 0000 0000 0000 0000 0000 0000
000003b0: 0000 0000 0000 0000 0000 0000 0000 0000
000003c0: 0000 0000 0000 0000 0000 0000 0000 0000
000003d0: 0000 0000 0000 0000 0000 0000 0000 0000
000003e0: 0000 0000 0000 0000 0000 0000 0000 0000
000003f0: 0000 0000 0000 0000 0000 0000 0000 0000

action_model._continuous_distribution.log_sigma f4 [1, 3]
0.0 0.0 0.0
00000000: 0000 0000 0000 0000 0000 0000

action_model._continuous_distribution.mu.weight f4 [3, 256]
-0.02747376 0.005768888 0.0031099643 -0.02005022 -0.008888854 -0.0035928038 -0.005126766 0.01739002
0.005202289 0.018352477 -0.0108578345 -0.015731875 -0.005704167 0.00097522204 -0.0028670758 0.0021510369
-0.007318616 0.0006607712 0.0053464896 -0.0071728374 -0.015435996 -0.0045351866 0.019143363 -0.013268456
0.0043669543 -0.0027720768 -6.0539816e-05 -0.009875411 0.00325035 -0.020718975 0.009359884 0.024945868
0.0035230087 0.0060808957 -0.0024685091 0.0058968435 -0.020257749 0.010464999 -0.0060826573 0.00065381493
-0.01902831 0.005415504 0.034324776 0.016554454 -0.0017768657 -0.033296313 0.0034500014 0.013853204
0.00048942707 0.012890887 0.011758294 0.019862318 0.011485701 -0.002434553 0.019921733 -0.0056011365
0.001938525 -6.923406e-07 0.010577883 0.01792902 -0.027832357 0.009449799 0.017125577 -0.0019914822
-0.00087936426 0.015228571 -0.01600822 0.00030036937 0.0026211762 0.0088815605 -0.009166225 -0.017649094
0.013193138 -0.0047457567 0.0015415293 6.0114697e-05 0.01201016 0.00087635935 -0.017065348 -0.0065803095
-0.0002672941 0.0020500135 -0.0033017807 0.011549587 -0.001997575 -0.012341396 -0.015582673 -0.008039928
-0.010260337 0.008111229 -0.016819531 0.004695603 -0.022331068 -0.0030683954 -0.020880317 -0.0087095015
-0.0081332885 0.015321855 -0.00608445 -0.019373156 0.006392797 0.00836809 0.01859941 -0.0014568451
0.0023933195 -0.0016138003 0.01109286 0.0075610294 0.010560195 -0.004741227 0.007711033 -0.01450073
-0.01957351 -0.004145346 -0.00680518 0.0066900416 0.008029538 -0.007570341 -0.014007931 0.0015700127
0.0073296586 -0.0033187456 -0.018507501 -0.007225593 0.0007345155 0.010328363 -0.0017313444 -0.014003796
0.03358664 0.016230984 0.005525758 -0.017964937 0.0029522257 -0.0028024723 -0.009270107 0.0015850653
-0.013838452 0.003916954 -0.02450207 0.009942229 0.01828286 0.0089393435 0.0023756342 -0.009631964
-0.00943262 0.0011266005 -0.006763161 -0.020148065 0.0025025113 -0.002518364 0.0014462944 -0.0031351508
0.008249811 -0.0071723373 0.009478668 0.025098173 -0.010864043 -0.0092796385 0.029601514 -0.005718249
-0.017758293 0.0075279297 -0.00025177057 -0.003321301 -0.004429492 -0.001558279 0.005789107 -0.007313691
0.009199174 -0.0012882513 0.0130844535 0.0037143962 0.00850381 0.0012283938 -0.0118594 -0.009361134
0.0049697286 0.011036874 -0.013104972 0.0052666306 0.0030136323 -0.012014001 -0.003817678 -0.002839086
-0.0031048844 0.025448158 0.017202405 0.009414456 0.023145584 0.002560711 -0.01053592 -4.8150083e-05
0.004937105 -0.009471896 0.0010618233 0.010761178 -0.012217008 0.0126689 -0.015760867 0.0032378559
0.010332359 0.03392073 0.016233904 -0.021315916 -0.016944185 0.0056622257 0.028985757 -0.022703705
0.005058793 0.012698096 -0.005963229 -0.010938576 -0.026080457 -0.0030178523 0.008041845 -0.015583855
0.014789526 -0.010224594 0.0066162855 0.020648416 0.013261783 0.007614883 0.006359368 0.016678827
-0.02155009 0.0033344508 0.014951575 0.00083968695 -0.017458307 0.0050132363 -0.0011552562 0.008423871
0.0068168016 0.0060556126 -0.025900573 0.0037530877 0.0028388 -0.0125098815 -0.010044766 0.01277929
-0.0034299195 -0.0037697915 0.004898746 -0.005629665 -0.0006173217 0.004300986 -0.018767726 -0.0031462875
-0.00011074337 0.0030595516 -0.009801845 -0.0064102598 -0.0062377485 -0.007510765 -0.0012740885 0.011329052
00000000: a710 e1bc f108 bd3b 8bd0 4b3b 5c40 a4bc
00000010: 8ea2 11bc 3f75 6bbb 6efe a7bb 8475 8e3c
00000020: f777 aa3b ef57 963c 0fe5 31bc 22e0 80bc
00000030: 05ea babb 0ba6 7f3a 8de5 3bbb 69f8 0c3b
00000040: 00d1 efbb 9b37 2d3a 9b31 af3b 1f0a ebbb
00000050: 43e7 7cbc e79b 94bb 8bd2 9c3c f063 59bc
00000060: ab18 8f3b bbab 35bb 22ec 7db8 7acc 21bc
00000070: d303 553b d7ba a9bc 335a 193c 475b cc3c
00000080: 47e2 663b 4042 c73b b6c6 21bb 4f3a c13b
00000090: 94f3 a5bc 6375 2b3c 0751 c7bb c764 2b3a
000000a0: 42e1 9bbc 8a74 b13b 2398 0c3d 359d 873c
000000b0: b8e5 e8ba b761 08bd 6b19 623b 8df8 623c
000000c0: e54c 003a 4d34 533c dca5 403c 4db6 a23c
000000d0: 862e 3c3c 068d 1fbb e732 a33c bd89 b7bb
000000e0: 1b16 fe3a 49d9 39b5 db4e 2d3c e1df 923c
000000f0: af00 e4bc 54d3 1a3c f04a 8c3c 8783 02bb
00000100: 2385 66ba 4281 793c ac23 83bc e57a 9d39
00000110: 0ac8 2b3b f783 113c ef2d 16bc d594 90bc
00000120: 0828 583c 4b82 9bbb 240d ca3a aa23 7c38
00000130: 43c6 443c 7bbb 653a a1cc 8bbc a39f d7bb
00000140: 9b23 8cb9 8559 063b b062 58bb 7b3a 3d3c
00000150: bfe9 02bb 9133 4abc 784e 7fbc e7b9 03bc
00000160: f91a 28bc f6e4 043c 1dc9 89bc 93dd 993b
00000170: a5ef b6bc 2217 49bb 330d abbc 4cb2 0ebc
00000180: 7c41 05bc 8508 7b3c 1160 c7bb 74b4 9ebc
00000190: ab7a d13b 501a 093c ca5d 983c 9cf3 beba
000001a0: 3dd9 1c3b 2786 d3ba d4be 353c 83c2 f73b
000001b0: ab04 2d3c 4b5c 9bbb d5ac fc3b 7894 6dbc
000001c0: a058 a0bc afd5 87bb fdfd debb 2338 db3b
000001d0: 538e 033c a010 f8bb 8581 65bc e2c8 cd3a
000001e0: a22d f03b 507f 59bb 0b9d 97bc abc4 ecbb
000001f0: 808c 403a 4b38 293c 47ee e2ba 2d70 65bc
00000200: 2592 093d d7f6 843c 6b11 b53b 342b 93bc
00000210: 217a 413b afa9 37bb a6e1 17bc f7c1 cf3a
00000220: adba 62bc cb59 803b 91b8 c8bc bbe4 223c
00000230: f0c5 953c 5376 123c 87b0 1b3b 63cf 1dbc
00000240: 478b 1abc 71aa 933a 829d ddbb 8e0d a5bc
00000250: 2c01 243b 230b 25bb 9691 bd3a 1a77 4dbb
00000260: 372a 073c ed05 ebbb 6a4c 1b3c af9a cd3c
00000270: 19ff 31bc a009 18bc e07e f23c 2660 bbbb
00000280: d779 91bc daac f63b 1300 84b9 2faa 59bb
00000290: 4625 91bb 2b3f ccba 8db2 bd3b b0a7 efbb
000002a0: 22b8 163c 8ada a8ba 2d60 563c 3a6d 733b
000002b0: 9053 0b3c 0e02 a13a ee4d 42bc 715f 19bc
000002c0: 1bd9 a23b 01d4 343c 3db6 56bc b393 ac3b
000002d0: 5c80 453b 5fd6 44bc 0232 7abb f60f 3abb
000002e0: 517b 4bbb a878 d03c 0fec 8c3c 173f 1a3c
000002f0: cf9b bd3c 9ad1 273b da9e 2cbc c2f4 49b8
00000300: 70c7 a13b 0330 1bbc e12c 8b3a a74f 303c
00000310: d829 48bc 3891 4f3c ef1c 81bc 3532 543b
00000320: 0e49 293c 77f0 0a3d f7fc 843c b79e aebc
00000330: 88ce 8abc 318a b93b 8a73 ed3c 1ffd b9bc
00000340: 3bc4 a53b ad0b 503c 3167 c3bb b737 33bc
00000350: afa6 d5bc 29c7 45bb f1c1 033c 6d53 7fbc
00000360: c54f 723c 0e85 27bc 6dcd d83b de26 a93c
00000370: f347 593c 4586 f93b 3f62 d03b 09a2 883c
00000380: d089 b0bc cd86 5a3b 73f7 743c 701e 5c3a
00000390: b904 8fbc 1346 a43b f76b 97ba 4704 0a3c
000003a0: 7a5f df3b 296e c63b 702d d4bc 5df6 753b
000003b0: 290b 3a3b 3ff6 4cbc cd92 24bc 3a60 513c
000003c0: 80c8 60bb 9b0e 77bb a985 a03b 0e79 b8bb
000003d0: c2d3 21ba 49ef 8c3b c6be 99bc f231 4ebb
000003e0: e53e e8b8 c282 483b eb97 20bc 280d d2bb
000003f0: 0766 ccbb dd1c f6bb 51ff a6ba 7d9d 393c

action_model._continuous_distribution.mu.bias f4 [3]
0.0 0.0 0.0
00000000: 0000 0000 0000 0000 0000 0000

action_model._discrete_distribution.branches.0.weight f4 [1, 256]
-0.012456955 0.006118567 -0.0077850125 -0.0024435136 0.0063721123 -0.0063533196 -0.010654347 0.0050691436
-0.0110661555 -0.0018075928 -0.009916301 -0.0007752677 -0.006810937 0.010860209 -0.008343424 -0.0019197305
-0.0053021554 -0.0051481365 0.0053986097 0.0141152935 0.00237493 -0.0064580254 -0.001217378 -0.0022412078
0.0039288485 0.0015788496 -0.0007673766 0.0023351656 0.010118876 0.0007567082 0.0026708615 0.003348307
0.0065643354 -0.006044018 0.00065026677 0.0024097734 0.007479418 0.004321748 -0.007501978 -0.005054261
0.0010970321 0.0018792164 -0.005065893 0.004660215 -0.00034924145 -0.009709507 -0.0022935346 -0.0014240894
-0.007938496 -0.010845396 -0.010537441 -0.00298482 0.0073539144 -0.009459368 0.0033185468 0.0035227798
-0.0010858149 -0.0013068095 0.007298278 0.0061432314 0.0034355614 0.009705102 0.0038166374 -0.0063934014
0.006276898 -0.0012008947 -0.004824042 0.0073743346 0.009938967 0.0019802721 0.0004962124 0.0035293715
0.0023554214 0.003014138 -0.005575356 0.010398484 0.008928518 0.0064122635 -0.00012006009 -2.5676383e-05
0.0046182335 0.0077400277 0.010462446 -0.00066703296 0.0046672653 0.007830031 -0.0050250445 0.008775703
0.0045218407 0.008326141 0.0026873662 -0.00023270519 -0.005908917 -0.0034417638 -0.0018524962 0.0022359348
-0.001817447 0.0070421933 -0.0047177803 0.006463637 -0.008114328 -0.009713723 -0.015370629 -0.007976382
0.008688279 -0.0034625106 0.011731151 -0.0031413983 -0.0025031052 0.002565543 -0.0004956475 -0.0052537727
0.007913896 -0.006099017 -0.0061371042 -0.0033851378 0.006891048 0.007442967 0.009663298 -0.00301943
0.0036273804 0.0007503201 0.0010991533 -0.011387434 -0.0010373996 0.0074141393 0.0012004413 0.010257163
-0.0020236608 -0.0045670676 -0.0067389198 0.0060489993 -0.008929997 0.0033725325 -0.0027345354 0.007224634
-0.004302626 -0.007613127 0.005003931 0.00315092 0.009762744 0.0054330328 0.0031907614 -0.006503805
0.011295518 0.0028309252 0.009709603 -0.0044261017 -0.0039953007 0.017699625 -0.005297576 -0.0006128307
-0.0073867985 0.003081261 0.012421656 -0.011736582 0.0006350268 -0.0029053937 0.006445765 -0.0073664384
-0.00048991054 -0.0048279124 0.006388934 0.014026828 0.006990158 -0.0076957825 -0.0018778567 -0.010660392
0.0054086014 0.008075851 0.010612628 0.0019088542 0.002974497 -0.015295709 0.004020807 0.00016291026
-0.003725693 0.0005129666 -0.001812133 0.00029976372 -0.0018055042 -0.0058315513 -0.0032198858 0.0009929171
-0.015082449 0.011221345 -0.0017494165 0.0025295315 0.00471266 6.383302e-05 0.0049579022 0.00031130112
0.0012542125 0.0053367405 -0.008200354 0.0098796785 -0.010063233 0.002617033 -0.009690078 0.0024525176
-0.0072781155 0.0003457247 -0.0014920947 0.0059373938 -0.009042493 0.00498693 0.0067135724 0.0048353164
0.0035866478 -0.0033961553 -0.009823974 -0.0058913724 -0.009430199 0.0052418145 -0.0057709124 0.0020387575
0.0015665094 0.0006327308 -0.0023214621 0.0015298265 0.007153611 -0.0035419457 -0.0030722646 0.003750703
0.008876068 0.0037161042 0.0021336318 0.011657006 -0.004722696 -0.0010856268 0.013628572 -0.0018793546
-0.0022492341 0.01114653 0.0015936677 0.0020366937 -0.006746977 0.0045798956 0.004037202 0.00014662706
1.8510858e-05 -0.0051267142 0.0030203888 -0.00785512 0.005148838 0.008873428 -0.0144350575 -0.008379381
-0.004508682 -0.005725743 0.0071576736 0.0037947323 -0.0012541718 0.008526438 0.004574313 0.006955847
00000000: 4218 4cbc 437e c83b 6b19 ffbb 5b23 20bb
00000010: 27cd d03b 822f d0bb 928f 2ebc 0f1b a63b
00000020: d24e 35bc c0ec ecba fb77 22bc 563b 4bba
00000030: 482e dfbb 05ef 313c dbb2 08bc 779f fbba
00000040: b4bd adbb b3b1 a8bb d2e6 b03b d543 673c
00000050: b7a4 1b3b d89d d3bb 6d90 9fba 3ae1 12bb
00000060: 92bd 803b 67f1 ce3a c629 49ba 9409 193b
00000070: a4c9 253c d45d 463a 9f09 2f3b 456f 5b3b
00000080: a319 d73b e60c c6bb aa76 2a3a 4aed 1d3b
00000090: e815 f53b 739d 8d3b 27d3 f5bb 379e a5bb
000000a0: 4aca 8f3a 0a50 f63a caff a5bb b8b4 983b
000000b0: 651a b7b9 a014 1fbc 204f 16bb 83a8 baba
000000c0: 7710 02bc e3b0 31bc 3ba5 2cbc f89c 43bb
000000d0: 1bf9 f03b 77fb 1abc fa7b 593b 70de 663b
000000e0: e751 8eba 4049 abba 6526 ef3b 294d c93b
000000f0: 2827 613b 2602 1f3c 8d20 7a3b bd7f d1bb
00000100: 70ae cd3b 5767 9dba ff12 9ebb 67a4 f13b
00000110: 0dd7 223c 74c7 013b 4014 023a 074d 673b
00000120: 6a5d 1a3b d888 453b 7ab1 b6bb 675e 2a3c
00000130: eb48 123c f71d d23b c5c8 fbb8 9d63 d7b7
00000140: 8d54 973b 0fa0 fd3b ae6a 2b3c d3db 2eba
00000150: dcef 983b 8849 003c 21a9 a4bb f7c7 0f3c
00000160: f32b 943b 5e6a 083c 861e 303b 5302 74b9
00000170: 979f c1bb 378f 61bb 75cf f2ba c388 123b
00000180: 6737 eeba 33c2 e63b 9c97 9abb ebcc d33b
00000190: f5f1 04bc 4f26 1fbc 17d5 7bbc 5faf 02bc
000001a0: 4959 0e3c 4aeb 62bb 0334 403c ebdf 4dbb
000001b0: 230b 24bb ab22 283b 57ee 01ba d727 acbb
000001c0: 49a9 013c 43da c7bb c319 c9bb 30d9 5dbb
000001d0: 4dce e13b 22e4 f33b cf52 1e3c a1e1 45bb
000001e0: 58b9 6d3b 21b1 443a 7711 903a 5c92 3abc
000001f0: 5bf9 87ba 4ff2 f23b 2058 9d3a a90d 283c
00000200: 659f 04bb 57a7 95bb 28d2 dcbb af36 c63b
00000210: 1f4f 12bc b505 5d3b e435 33bb 9fbc ec3b
00000220: 0bfd 8cbb 8a77 f9bb 04f8 a33b aa7f 4e3b
00000230: ebf3 1f3c 9507 b23b 181c 513b df1d d5bb
00000240: d610 393c 0b87 393b 0715 1f3c d508 91bb
00000250: 03eb 82bb cefe 903c 4a97 adbb 5fa6 20ba
00000260: f50c f2bb fbee 493b 3484 4b3c cb4a 40bc
00000270: ed77 263a 6b68 3ebb ff36 d33b 2a62 f1bb
00000280: 576d 00ba 7733 9ebb 435a d13b c8d0 653c
00000290: b20d e53b e72c fcbb 6a22 f6ba eda8 2ebc
000002a0: a33a b13b 9350 043c 97e0 2d3c 8532 fa3a
000002b0: c7ef 423b da9a 7abc f9c0 833b e4d2 2a39
000002c0: c22a 74bb 9b78 063a 1885 edba 9b29 9d39
000002d0: aba6 ecba 9916 bfbb b804 53bb c524 823a
000002e0: 601c 77bc bbd9 373c ad4c e5ba 7fc6 253b
000002f0: a86c 9a3b 17de 8538 e675 a23b 2136 a339
00000300: 6364 a43a d3df ae3b c75a 06bc 60de 213c
00000310: 42e0 24bc 8782 2b3b 22c3 1ebc 6bba 203b
00000320: 427d eebb 6242 b539 6492 c3ba 788e c23b
00000330: f726 14bc 6769 a33b 87fd db3b 9371 9e3b
00000340: f70d 6b3b 0892 5ebb bcf4 20bc 6a0c c1bb
00000350: 1f81 1abc 87c3 ab3b ec19 bdbb ad9c 053b
00000360: 5553 cd3a d8dd 253a ac23 18bb 7684 c83a
00000370: d768 ea3b fd1f 68bb 0c58 49bb 5bce 753b
00000380: ed6c 113c e289 733b 67d4 0b3b 07fd 3e3c
00000390: d8c0 9abb 974b 8eba 604a 5f3c ad54 f6ba
000003a0: e367 13bb ef9f 363c 9de2 d03a 0d7a 053b
000003b0: bf15 ddbb f312 963b 814a 843b e7bf 1939
000003c0: c447 9b37 fffd a7bb b7f1 453b c3b2 00bc
000003d0: 95b7 a83b db61 113c 0581 6cbc ac49 09bc
000003e0: 91bd 93bb 039f bbbb eb8a ea3b 0bb1 783b
000003f0: 0663 a4ba 79b2 0b3c 1ee4 953b e0ed e33b

network_body._body_endoder.seq_layers.0.weight f4 [256, 49]
-0.0330836 0.34559473 0.11593522 0.14517367 -0.0089596305 0.15491728 0.06366662 0.12889564
-0.028464708 0.08616998 -0.13161781 0.18879868 0.0563787 0.012491004 0.1545939 -0.13793932
-0.1401332 -0.22141635 0.03539523 0.0142564755 -0.11518849 -0.10898443 -0.08282152 0.0055866153
-0.12227157 -0.33039138 -0.2610771 -0.007029947 -0.040251575 0.14537558 -0.16101179 0.09425309
0.2309039 -0.03533499 0.06343459 -0.07101789 0.14443225 -0.12119142 -0.16335425 0.17495234
-0.21634789 -0.24187292 -0.1537362 0.21062554 -0.021728698 0.040832825 0.10761698 -0.014895331
0.14488249 0.02585637 -0.16156358 0.05787666 0.2585958 -0.04575055 0.015467095 0.12089039
-0.24083437 -0.047067408 0.14469974 0.050644677 -0.04774291 0.011928241 0.018256823 0.17884581
-0.025436105 -0.026652442 -0.28716272 -0.009908084 -0.16825567 -0.15775841 0.121926814 0.2287625
0.029214974 -0.102672115 0.0073480704 -0.10848266 -0.025668286 0.19860844 -0.3572202 -0.030163886
0.04241418 0.031038538 -0.019304167 -0.16703089 -0.09503216 -0.009279008 -0.0718569 0.099146195
-0.15957749 -0.14814603 0.0069143213 0.05391783 0.023529222 0.25905338 -0.09293105 0.31894493
0.054498892 -0.06927411 0.11339512 -0.15257533 0.0022002622 -0.09346931 0.09257285 0.0024544385
-0.107565954 -0.16176689 0.11261724 -0.09404237 0.029610535 0.10794255 -0.27531657 -0.12546429
-0.009514479 -0.24743202 -0.059963692 0.21392398 0.006556173 0.19997439 0.17106393 -0.07077556
0.010384648 0.09822189 0.09471553 -0.26621112 0.020089133 0.16884878 0.015064226 -0.17209567
-0.39086235 0.17830406 0.124551296 0.14763184 -0.06346961 0.1991531 -0.01866018 -0.018195875
-0.09002029 -0.30883992 -0.014602203 -0.08792589 0.0035142507 -0.13921855 -0.13734037 -0.37467888
0.04149767 -0.020810513 -0.1374753 -0.30696046 -0.12417521 0.026548455 0.22305286 0.22319664
-0.16536203 -0.082654454 0.08997344 0.28565472 0.21979314 -0.103289954 0.1383785 -0.15421747
-0.18127342 0.2655439 -0.09300736 0.5412625 -0.0023223737 -0.062123425 -0.095936455 -0.22993506
0.2876088 0.22580867 0.051847782 0.1461665 -0.05158982 -0.13495523 0.17863265 0.26751453
0.22751208 0.10097175 -0.3121757 0.15549406 -0.028368808 0.06995866 0.17218043 -0.14642243
-0.12206849 0.12883095 0.10663982 0.14477478 -0.007970282 -0.02912993 0.00971857 -0.11337452
-0.043768987 -0.18588015 0.023890886 0.12724628 0.10459574 -0.07739903 0.0011189221 -0.19428982
-0.09868454 0.12788403 0.22186548 -0.11777141 -0.11660243 0.049758412 0.08997334 -0.10679866
0.1507977 -0.14884466 0.11652228 0.11357531 0.12909552 -0.18817598 0.12072376 -0.12932584
0.08779139 0.22307196 -0.034529384 -0.11412713 0.013741437 0.07158295 0.00074039935 -0.045631163
-0.07017387 -0.20853494 -0.055793397 -0.02668078 0.15640977 0.030039594 0.05979805 -0.086669736
-0.10320694 0.079293 -0.06310762 0.11291431 0.21524121 0.07391265 -0.07344845 -0.11371757
0.043886427 -0.016087726 0.070270196 -0.07336372 0.041381355 0.013198501 -0.007985491 -0.13650964
0.018128654 0.0042718323 0.09593192 0.056839444 -0.09915181 -0.21651657 0.09810839 -0.18475337
00000000: ab82 07bd cbf1 b03e 726f ed3d 68a8 143e
00000010: 6acb 12bc a3a2 1e3e a563 823d 38fd 033e
00000020: d22e e9bc e379 b03d d2c6 06be 7154 413e
00000030: 5aed 663d 11a7 4c3c dd4d 1e3e f73f 0dbe
00000040: 147f 0fbe f8ba 62be 97fa 103d fe93 693c
00000050: f1e7 ebbd 3b33 dfbd 549e a9bd ed0f b73b
00000060: 8469 fabd 0f29 a9be e6ab 85be 785b e6bb
00000070: d6de 24bd 56dd 143e 46e0 24be c407 c13d
00000080: 1272 6c3e 6cbb 10bd ffe9 813d d471 91bd
00000090: 0ce6 133e 3533 f8bd 5646 27be b526 333e
000000a0: 4d8a 5dbe 89ad 77be 066d 1dbe 39ae 573e
000000b0: 6200 b2bc 5240 273d 4b66 dc3d 8c0b 74bc
000000c0: 135c 143e bdd0 d33c ec70 25be 1410 6d3d
000000d0: ab66 843e ee64 3bbd b369 7d3c 6195 f73d
000000e0: 499d 76be c1c9 40bd 2b2c 143e cb70 4f3d
000000f0: 128e 43bd ab6e 433c 558f 953c 5b23 373e
00000100: 615f d0bc 3956 dabc fe06 93be 8455 22bc
00000110: 374b 2cbe 6c8b 21be c4b4 f93d b840 6a3e
00000120: 3e54 ef3c c245 d2bd 15c8 f03b 282c debd
00000130: 4c46 d2bc 0360 4b3e 91e5 b6be 411a f7bc
00000140: 7eba 2d3d 8844 fe3c c623 9ebc 250a 2bbe
00000150: 39a0 c2bd fb06 18bc b629 93bd 290d cb3d
00000160: 4868 23be 98b3 17be 8891 e23b f1d8 5c3d
00000170: 5bc0 c03c a5a2 843e a252 bebd c04c a33e
00000180: 3b3a 5f3d 96df 8dbd b33b e83d b53c 1cbe
00000190: 4632 103b d66c bfbd d696 bd3d a5da 203b
000001a0: 8a4b dcbd 38a6 25be dea3 e63d 4999 c0bd
000001b0: cb91 f23c fc10 dd3d 4bf6 8cbe b679 00be
000001c0: 9ee2 1bbc d25e 7dbe 7d9c 75bd e30e 5b3e
000001d0: 2ad5 d63b 16c6 4c3e 622b 2f3e c7f2 90bd
000001e0: 5f24 2a3c 8f28 c93d 37fa c13d d34c 88be
000001f0: f791 a43c b2e6 2c3e f2cf 763c d939 30be
00000200: 1c1f c8be 5795 363e c014 ff3d cd2c 173e
00000210: 5bfc 81bd caee 4b3e 3cdd 98bc 840f 95bc
00000220: 8f5c b8bd 4420 9ebe 143e 6fbc 7d12 b4bd
00000230: 584f 663b 4f8f 0ebe f4a2 0cbe e9d5 bfbe
00000240: 76f9 293d cf7a aabc 53c6 0cbe ec29 9dbe
00000250: 934f febd 257c d93c f867 643e a98d 643e
00000260: aa54 29be bd46 a9bd ff43 b83d 5641 923e
00000270: 7411 613e af89 d3bd 18b3 0d3e 2feb 1dbe
00000280: bd9f 39be 5ff5 873e a57a bebd 2e90 0a3f
00000290: f732 18bb 2275 7ebd 557a c4bd 1974 6bbe
000002a0: 7641 933e 633a 673e 575e 543d acac 153e
000002b0: d94f 53bd b431 0abe 7aeb 363e aaf7 883e
000002c0: edf8 683e 47ca ce3d 7ed5 9fbe d639 1f3e
000002d0: b465 e8bc 7c46 8f3d 1150 303e c3ef 15be
000002e0: 0bff f9bd 43ec 033e fa65 da3d d73f 143e
000002f0: c995 02bc e4a1 eebc a33a 1f3c e630 e8bd
00000300: 1c47 33bd 5e57 3ebe d2b6 c33c d94c 023e
00000310: 4b36 d63d 6283 9ebd cca8 923a e9f3 46be
00000320: 1f1b cabd 08f4 023e b430 633e 2332 f1bd
00000330: 41cd eebd 7acf 4b3d f143 b83d 41b9 dabd
00000340: b66a 1a3e bc6a 18be 3ca3 ee3d 2c9a e83d
00000350: 9e31 043e 34b1 40be 053e f73d fe6d 04be
00000360: f9cb b33d fa6c 643e af6e 0dbd 7cbb e9bd
00000370: c423 613c 159a 923d 5c17 423a bee7 3abd
00000380: 51b7 8fbd 2f8a 55be 9e87 64bd a791 dabc
00000390: e229 203e 9815 f63c cdee 743d e77f b1bd
000003a0: 295e d3bd 5e64 a23d 913e 81bd 9e3f e73d
000003b0: 3168 5c3e 845f 973d 246c 96bd c2e4 e8bd
000003c0: 41c2 333d 68ca 83bc d2e9 8f3d b83f 96bd
000003d0: 7f7f 293d 873e 583c 94d5 02bc 2fc9 0bbe
000003e0: 8b82 943c bafa 8b3b f477 c43d 7ad0 683d
000003f0: 1b10 cbbd 85b6 5dbe 0ded c83d fd2f 3dbe

network_body._body_endoder.seq_layers.0.bias f4 [256]
0.0 0.0 0.0 0.0 0.0 0.0 0.0 0.0
0.0 0.0 0.0 0.0 0.0 0.0 0.0 0.0
0.0 0.0 0.0 0.0 0.0 0.0 0.0 0.0
0.0 0.0 0.0 0.0 0.0 0.0 0.0 0.0
0.0 0.0 0.0 0.0 0.0 0.0 0.0 0.0
0.0 0.0 0.0 0.0 0.0 0.0 0.0 0.0
0.0 0.0 0.0 0.0 0.0 0.0 0.0 0.0
0.0 0.0 0.0 0.0 0.0 0.0 0.0 0.0
0.0 0.0 0.0 0.0 0.0 0.0 0.0 0.0
0.0 0.0 0.0 0.0 0.0 0.0 0.0 0.0
0.0 0.0 0.0 0.0 0.0 0.0 0.0 0.0
0.0 0.0 0.0 0.0 0.0 0.0 0.0 0.0
0.0 0.0 0.0 0.0 0.0 0.0 0.0 0.0
0.0 0.0 0.0 0.0 0.0 0.0 0.0 0.0
0.0 0.0 0.0 0.0 0.0 0.0 0.0 0.0
0.0 0.0 0.0 0.0 0.0 0.0 0.0 0.0
0.0 0.0 0.0 0.0 0.0 0.0 0.0 0.0
0.0 0.0 0.0 0.0 0.0 0.0 0.0 0.0
0.0 0.0 0.0 0.0 0.0 0.0 0.0 0.0
0.0 0.0 0.0 0.0 0.0 0.0 0.0 0.0
0.0 0.0 0.0 0.0 0.0 0.0 0.0 0.0
0.0 0.0 0.0 0.0 0.0 0.0 0.0 0.0
0.0 0.0 0.0 0.0 0.0 0.0 0.0 0.0
0.0 0.0 0.0 0.0 0.0 0.0 0.0 0.0
0.0 0.0 0.0 0.0 0.0 0.0 0.0 0.0
0.0 0.0 0.0 0.0 0.0 0.0 0.0 0.0
0.0 0.0 0.0 0.0 0.0 0.0 0.0 0.0
0.0 0.0 0.0 0.0 0.0 0.0 0.0 0.0
0.0 0.0 0.0 0.0 0.0 0.0 0.0 0.0
0.0 0.0 0.0 0.0 0.0 0.0 0.0 0.0
0.0 0.0 0.0 0.0 0.0 0.0 0.0 0.0
0.0 0.0 0.0 0.0 0.0 0.0 0.0 0.0
00000000: 0000 0000 0000 0000 0000 0000 0000 0000
00000010: 0000 0000 0000 0000 0000 0000 0000 0000
00000020: 0000 0000 0000 0000 0000 0000 0000 0000
00000030: 0000 0000 0000 0000 0000 0000 0000 0000
00000040: 0000 0000 0000 0000 0000 0000 0000 0000
00000050: 0000 0000 0000 0000 0000 0000 0000 0000
00000060: 0000 0000 0000 0000 0000 0000 0000 0000
00000070: 0000 0000 0000 0000 0000 0000 0000 0000
00000080: 0000 0000 0000 0000 0000 0000 0000 0000
00000090: 0000 0000 0000 0000 0000 0000 0000 0000
000000a0: 0000 0000 0000 0000 0000 0000 0000 0000
000000b0: 0000 0000 0000 0000 0000 0000 0000 0000
000000c0: 0000 0000 0000 0000 0000 0000 0000 0000
000000d0: 0000 0000 0000 0000 0000 0000 0000 0000
000000e0: 0000 0000 0000 0000 0000 0000 0000 0000
000000f0: 0000 0000 0000 0000 0000 0000 0000 0000
00000100: 0000 0000 0000 0000 0000 0000 0000 0000
00000110: 0000 0000 0000 0000 0000 0000 0000 0000
00000120: 0000 0000 0000 0000 0000 0000 0000 0000
00000130: 0000 0000 0000 0000 0000 0000 0000 0000
00000140: 0000 0000 0000 0000 0000 0000 0000 0000
00000150: 0000 0000 0000 0000 0000 0000 0000 0000
00000160: 0000 0000 0000 0000 0000 0000 0000 0000
00000170: 0000 0000 0000 0000 0000 0000 0000 0000
00000180: 0000 0000 0000 0000 0000 0000 0000 0000
00000190: 0000 0000 0000 0000 0000 0000 0000 0000
000001a0: 0000 0000 0000 0000 0000 0000 0000 0000
000001b0: 0000 0000 0000 0000 0000 0000 0000 0000
000001c0: 0000 0000 0000 0000 0000 0000 0000 0000
000001d0: 0000 0000 0000 0000 0000 0000 0000 0000
000001e0: 0000 0000 0000 0000 0000 0000 0000 0000
000001f0: 0000 0000 0000 0000 0000 0000 0000 0000
00000200: 0000 0000 0000 0000 0000 0000 0000 0000
00000210: 0000 0000 0000 0000 0000 0000 0000 0000
00000220: 0000 0000 0000 0000 0000 0000 0000 0000
00000230: 0000 0000 0000 0000 0000 0000 0000 0000
00000240: 0000 0000 0000 0000 0000 0000 0000 0000
00000250: 0000 0000 0000 0000 0000 0000 0000 0000
00000260: 0000 0000 0000 0000 0000 0000 0000 0000
00000270: 0000 0000 0000 0000 0000 0000 0000 0000
00000280: 0000 0000 0000 0000 0000 0000 0000 0000
00000290: 0000 0000 0000 0000 0000 0000 0000 0000
000002a0: 0000 0000 0000 0000 0000 0000 0000 0000
000002b0: 0000 0000 0000 0000 0000 0000 0000 0000
000002c0: 0000 0000 0000 0000 0000 0000 0000 0000
000002d0: 0000 0000 0000 0000 0000 0000 0000 0000
000002e0: 0000 0000 0000 0000 0000 0000 0000 0000
000002f0: 0000 0000 0000 0000 0000 0000 0000 0000
00000300: 0000 0000 0000 0000 0000 0000 0000 0000
00000310: 0000 0000 0000 0000 0000 0000 0000 0000
00000320: 0000 0000 0000 0000 0000 0000 0000 0000
00000330: 0000 0000 0000 0000 0000 0000 0000 0000
00000340: 0000 0000 0000 0000 0000 0000 0000 0000
00000350: 0000 0000 0000 0000 0000 0000 0000 0000
00000360: 0000 0000 0000 0000 0000 0000 0000 0000
00000370: 0000 0000 0000 0000 0000 0000 0000 0000
00000380: 0000 0000 0000 0000 0000 0000 0000 0000
00000390: 0000 0000 0000 0000 0000 0000 0000 0000
000003a0: 0000 0000 0000 0000 0000 0000 0000 0000
000003b0: 0000 0000 0000 0000 0000 0000 0000 0000
000003c0: 0000 0000 0000 0000 0000 0000 0000 0000
000003d0: 0000 0000 0000 0000 0000 0000 0000 0000
000003e0: 0000 0000 0000 0000 0000 0000 0000 0000
000003f0: 0000 0000 0000 0000 0000 0000 0000 0000
